prueba 6 - how2sign/extracted_keypoints_holistic_full/D_w6T4nO-KA_0-8-rgb_front.npy (npy, 76496 bytes, 1 tensors)

array f8 [37, 258]
000000 00 00 00 60 98 c9 e0 3f 00 00 00 a0 6f 45 d6 3f
       0.5246087908744812 0.3479880392551422
000010 00 00 00 60 cf ac dd bf 00 00 00 00 82 fc ef 3f
       -0.4636724889278412 0.9995737075805664
000020 00 00 00 a0 a1 3c e1 3f 00 00 00 20 50 4d d4 3f
       0.5386512875556946 0.3172188103199005
000030 00 00 00 60 19 17 dc bf 00 00 00 e0 8b fa ef 3f
       -0.4389098584651947 0.9993342757225037
000040 00 00 00 c0 84 87 e1 3f 00 00 00 e0 8f 60 d4 3f
       0.5477927923202515 0.31839367747306824
000050 00 00 00 60 a1 17 dc bf 00 00 00 40 2b fa ef 3f
       -0.4389422833919525 0.9992882013320923
000060 00 00 00 00 8b ce e1 3f 00 00 00 20 73 78 d4 3f
       0.5564627647399902 0.31985166668891907
000070 00 00 00 60 0a 16 dc bf 00 00 00 60 36 fb ef 3f
       -0.4388452470302582 0.9994155764579773
000080 00 00 00 a0 5d 92 e0 3f 00 00 00 e0 ba 4b d4 3f
       0.5178669095039368 0.3171221911907196
000090 00 00 00 a0 be 5d db bf 00 00 00 a0 13 f9 ef 3f
       -0.42759671807289124 0.9991548657417297
0000a0 00 00 00 c0 c1 5a e0 3f 00 00 00 c0 4d 60 d4 3f
       0.5110787153244019 0.31837791204452515
0000b0 00 00 00 60 fd 5c db bf 00 00 00 60 77 f7 ef 3f
       -0.42755064368247986 0.9989582896232605
0000c0 00 00 00 80 d0 2b e0 3f 00 00 00 40 4f 79 d4 3f
       0.5053484439849854 0.3199041485786438
0000d0 00 00 00 00 9a 60 db bf 00 00 00 20 c0 f7 ef 3f
       -0.42777109146118164 0.9989929795265198
0000e0 00 00 00 40 8f 4b e2 3f 00 00 00 60 a1 db d5 3f
       0.5717235803604126 0.3415301740169525
0000f0 00 00 00 20 76 f0 d0 bf 00 00 00 60 8e fb ef 3f
       -0.26467660069465637 0.9994575381278992
000100 00 00 00 80 a9 00 e0 3f 00 00 00 00 a1 c9 d5 3f
       0.5000808238983154 0.34043145179748535
000110 00 00 00 a0 52 82 ca bf 00 00 00 e0 c1 ee ef 3f
       -0.20710213482379913 0.9978951811790466
000120 00 00 00 a0 fe 4d e1 3f 00 00 00 e0 b5 de d8 3f
       0.5407708287239075 0.3885931670665741
000130 00 00 00 e0 a0 8f d9 bf 00 00 00 40 ca fe ef 3f
       -0.39939138293266296 0.9998522996902466
000140 00 00 00 a0 60 75 e0 3f 00 00 00 40 e7 c8 d8 3f
       0.5143283009529114 0.38726216554641724
000150 00 00 00 e0 f3 91 d8 bf 00 00 00 00 44 fc ef 3f
       -0.3839082419872284 0.9995441436767578
000160 00 00 00 40 77 5c e4 3f 00 00 00 80 b7 fe e1 3f
       0.6362873315811157 0.5623433589935303
000170 00 00 00 40 7e f5 c6 bf 00 00 00 40 e6 fe ef 3f
       -0.1793668568134308 0.9998656511306763
000180 00 00 00 60 d9 e1 dc 3f 00 00 00 60 0c 5b e1 3f
       0.4512847363948822 0.5423642992973328
000190 00 00 00 c0 ce aa b8 bf 00 00 00 60 e4 fb ef 3f
       -0.09635631740093231 0.9994985461235046
0001a0 00 00 00 40 61 ad e4 3f 00 00 00 c0 f1 d8 ea 3f
       0.6461645364761353 0.8389824628829956
0001b0 00 00 00 60 73 fe c9 bf 00 00 00 40 45 d9 ef 3f
       -0.20307771861553192 0.9952722787857056
0001c0 00 00 00 e0 3f 13 d9 3f 00 00 00 40 6b 7e e9 3f
       0.3917998969554901 0.7966820001602173
0001d0 00 00 00 60 14 d1 d4 bf 00 00 00 c0 ce dd ef 3f
       -0.3252612054347992 0.9958261251449585
0001e0 00 00 00 40 ff 27 e2 3f 00 00 00 40 34 3e ef 3f
       0.5673824548721313 0.9763432741165161
0001f0 00 00 00 e0 25 41 d7 bf 00 00 00 c0 ed bc ef 3f
       -0.36335131525993347 0.9918125867843628
000200 00 00 00 40 f3 00 dc 3f 00 00 00 e0 46 5c e4 3f
       0.43755799531936646 0.6362642645835876
000210 00 00 00 00 e5 a2 e9 bf 00 00 00 e0 23 f3 ef 3f
       -0.8011345863342285 0.9984301924705505
000220 00 00 00 60 bc 86 e1 3f 00 00 00 c0 3e 9e f0 3f
       0.5476972460746765 1.0386340618133545
000230 00 00 00 a0 03 f7 d9 bf 00 00 00 40 16 c7 ee 3f
       -0.40570154786109924 0.96180260181427
000240 00 00 00 40 d4 8c dc 3f 00 00 00 00 f6 fd e2 3f
       0.4460955262184143 0.593501091003418
000250 00 00 00 c0 31 39 ec bf 00 00 00 40 5f bc ef 3f
       -0.8819817304611206 0.9917446374893188
000260 00 00 00 e0 62 c5 e0 3f 00 00 00 a0 06 37 f0 3f
       0.5240949988365173 1.0134340524673462
000270 00 00 00 c0 1f df da bf 00 00 00 40 4f c9 ee 3f
       -0.4198684096336365 0.9620739221572876
000280 00 00 00 00 de e6 dc 3f 00 00 00 60 1e 47 e2 3f
       0.45159101486206055 0.5711814761161804
000290 00 00 00 00 83 a6 eb bf 00 00 00 80 b5 b1 ef 3f
       -0.8640761375427246 0.9904429912567139
0002a0 00 00 00 40 0c ff e0 3f 00 00 00 e0 ff ab ef 3f
       0.531133770942688 0.9897460341453552
0002b0 00 00 00 00 3d 6a d7 bf 00 00 00 60 07 e7 ee 3f
       -0.3658592700958252 0.9657017588615417
0002c0 00 00 00 40 f3 f4 dc 3f 00 00 00 e0 e6 b9 e2 3f
       0.45245057344436646 0.5851930975914001
0002d0 00 00 00 a0 0f 9a e9 bf 00 00 00 00 94 af ef 3f
       -0.8000562787055969 0.9901828765869141
0002e0 00 00 00 20 5c f5 e2 3f 00 00 00 e0 c0 ca ef 3f
       0.5924511551856995 0.9935001730918884
0002f0 00 00 00 c0 1c 67 91 bf 00 00 00 80 3d 0b ee 3f
       -0.016994904726743698 0.9388720989227295
000300 00 00 00 c0 8a e4 dd 3f 00 00 00 40 29 60 ef 3f
       0.46707409620285034 0.9804884195327759
000310 00 00 00 80 14 d4 92 3f 00 00 00 e0 9e 51 ee 3f
       0.018387146294116974 0.9474634528160095
000320 00 00 00 a0 ec 94 e2 3f 00 00 00 60 3e cb f5 3f
       0.5806792378425598 1.3621200323104858
000330 00 00 00 c0 cb ec c2 bf 00 00 00 20 e4 f5 96 3f
       -0.14785143733024597 0.02242237515747547
000340 00 00 00 60 b7 4c dd 3f 00 00 00 20 84 97 f5 3f
       0.45780739188194275 1.3494912385940552
000350 00 00 00 20 3a 65 a6 3f 00 00 00 60 7f 6c 97 3f
       0.043741051107645035 0.022874822840094566
000360 00 00 00 20 d9 1e e2 3f 00 00 00 e0 7f ba fa 3f
       0.5662656426429749 1.6705321073532104
000370 00 00 00 e0 03 2c c8 3f 00 00 00 40 af cc 51 3f
       0.188843235373497 0.0010863982606679201
000380 00 00 00 00 02 c1 dc 3f 00 00 00 20 c5 e0 fa 3f
       0.4492802619934082 1.6798754930496216
000390 00 00 00 c0 79 28 d3 3f 00 00 00 80 b8 f9 60 3f
       0.2993454337120056 0.0020722011104226112
0003a0 00 00 00 80 6b 2c e2 3f 00 00 00 a0 52 4e fb 3f
       0.5679223537445068 1.706621766090393
0003b0 00 00 00 40 81 f1 ca 3f 00 00 00 40 53 39 51 3f
       0.21049514412879944 0.0010512650478631258
0003c0 00 00 00 00 e0 a7 dc 3f 00 00 00 e0 37 9b fb 3f
       0.44774627685546875 1.7253950834274292
0003d0 00 00 00 80 38 3f d4 3f 00 00 00 e0 a6 cf 5d 3f
       0.31635868549346924 0.0018195275915786624
0003e0 00 00 00 00 cd 86 e1 3f 00 00 00 00 62 8c fc 3f
       0.5477051734924316 1.7842731475830078
0003f0 00 00 00 40 8f 65 96 bf 00 00 00 60 86 93 4a 3f
       -0.021871794015169144 0.0008110433700494468
000400 00 00 00 60 54 05 dd 3f 00 00 00 60 66 77 fc 3f
       0.4534502923488617 1.779150366783142
000410 00 00 00 c0 b0 24 b3 3f 00 00 00 80 38 31 63 3f
       0.07477860152721405 0.0023428061977028847
000420 00 00 00 00 00 00 00 00 00 00 00 00 00 00 00 00
       0.0 0.0
000430 00 00 00 00 00 00 00 00 00 00 00 00 00 00 00 00
       0.0 0.0
000440 00 00 00 00 00 00 00 00 00 00 00 00 00 00 00 00
       0.0 0.0
000450 00 00 00 00 00 00 00 00 00 00 00 00 00 00 00 00
       0.0 0.0
000460 00 00 00 00 00 00 00 00 00 00 00 00 00 00 00 00
       0.0 0.0
000470 00 00 00 00 00 00 00 00 00 00 00 00 00 00 00 00
       0.0 0.0
000480 00 00 00 00 00 00 00 00 00 00 00 00 00 00 00 00
       0.0 0.0
000490 00 00 00 00 00 00 00 00 00 00 00 00 00 00 00 00
       0.0 0.0
0004a0 00 00 00 00 00 00 00 00 00 00 00 00 00 00 00 00
       0.0 0.0
0004b0 00 00 00 00 00 00 00 00 00 00 00 00 00 00 00 00
       0.0 0.0
0004c0 00 00 00 00 00 00 00 00 00 00 00 00 00 00 00 00
       0.0 0.0
0004d0 00 00 00 00 00 00 00 00 00 00 00 00 00 00 00 00
       0.0 0.0
0004e0 00 00 00 00 00 00 00 00 00 00 00 00 00 00 00 00
       0.0 0.0
0004f0 00 00 00 00 00 00 00 00 00 00 00 00 00 00 00 00
       0.0 0.0
000500 00 00 00 00 00 00 00 00 00 00 00 00 00 00 00 00
       0.0 0.0
000510 00 00 00 00 00 00 00 00 00 00 00 00 00 00 00 00
       0.0 0.0
000520 00 00 00 00 00 00 00 00 00 00 00 00 00 00 00 00
       0.0 0.0
000530 00 00 00 00 00 00 00 00 00 00 00 00 00 00 00 00
       0.0 0.0
000540 00 00 00 00 00 00 00 00 00 00 00 00 00 00 00 00
       0.0 0.0
000550 00 00 00 00 00 00 00 00 00 00 00 00 00 00 00 00
       0.0 0.0
000560 00 00 00 00 00 00 00 00 00 00 00 00 00 00 00 00
       0.0 0.0
000570 00 00 00 00 00 00 00 00 00 00 00 00 00 00 00 00
       0.0 0.0
000580 00 00 00 00 00 00 00 00 00 00 00 00 00 00 00 00
       0.0 0.0
000590 00 00 00 00 00 00 00 00 00 00 00 00 00 00 00 00
       0.0 0.0
0005a0 00 00 00 00 00 00 00 00 00 00 00 00 00 00 00 00
       0.0 0.0
0005b0 00 00 00 00 00 00 00 00 00 00 00 00 00 00 00 00
       0.0 0.0
0005c0 00 00 00 00 00 00 00 00 00 00 00 00 00 00 00 00
       0.0 0.0
0005d0 00 00 00 00 00 00 00 00 00 00 00 00 00 00 00 00
       0.0 0.0
0005e0 00 00 00 00 00 00 00 00 00 00 00 00 00 00 00 00
       0.0 0.0
0005f0 00 00 00 00 00 00 00 00 00 00 00 00 00 00 00 00
       0.0 0.0
000600 00 00 00 00 00 00 00 00 00 00 00 00 00 00 00 00
       0.0 0.0
000610 00 00 00 00 00 00 00 00 00 00 00 40 b3 88 db 3f
       0.0 0.43021851778030396
000620 00 00 00 40 54 13 e5 3f 00 00 00 80 1e 85 5a be
       0.6586095094680786 -2.4698671552414453e-08
000630 00 00 00 20 d5 65 dc 3f 00 00 00 e0 a2 9a e4 3f
       0.443715363740921 0.6438764929771423
000640 00 00 00 60 0f 88 7a bf 00 00 00 40 3f 24 dd 3f
       -0.006477413233369589 0.4553373456001282
000650 00 00 00 c0 89 fb e3 3f 00 00 00 c0 f3 a2 8b bf
       0.6244553327560425 -0.013494400307536125
000660 00 00 00 60 6f 44 dd 3f 00 00 00 60 4a 9e e3 3f
       0.45730194449424744 0.6130725741386414
000670 00 00 00 c0 e6 96 95 bf 00 00 00 c0 5c f7 dc 3f
       -0.02108345553278923 0.45259779691696167
000680 00 00 00 20 09 6c e3 3f 00 00 00 60 b0 f9 9c bf
       0.6069379448890686 -0.02829623781144619
000690 00 00 00 60 33 53 dc 3f 00 00 00 c0 53 f9 e1 3f
       0.44257816672325134 0.5616854429244995
0006a0 00 00 00 00 39 83 84 bf 00 00 00 60 3d e2 db 3f
       -0.010015912353992462 0.43568357825279236
0006b0 00 00 00 40 03 94 e0 3f 00 00 00 80 f4 7d 95 bf
       0.5180679559707642 -0.02098829299211502
0006c0 00 00 00 80 75 4a dc 3f 00 00 00 e0 e6 ba e0 3f
       0.44204461574554443 0.5228151679039001
0006d0 00 00 00 a0 f7 7c 9d bf 00 00 00 40 34 8e dc 3f
       -0.028797024860978127 0.44617944955825806
0006e0 00 00 00 e0 9e 47 e1 3f 00 00 00 00 67 8d a0 bf
       0.5399927496910095 -0.03232881426811218
0006f0 00 00 00 40 d4 8e db 3f 00 00 00 80 4d 22 e2 3f
       0.4305925965309143 0.5666873455047607
000700 00 00 00 60 4f a9 89 bf 00 00 00 00 03 06 db 3f
       -0.012529964558780193 0.4222419261932373
000710 00 00 00 40 63 8e e0 3f 00 00 00 40 b5 ad 95 bf
       0.5173813104629517 -0.02117045596241951
000720 00 00 00 20 d3 94 db 3f 00 00 00 00 57 e5 e0 3f
       0.4309585392475128 0.5279955863952637
000730 00 00 00 a0 9c 6b 9a bf 00 00 00 c0 b6 ed db 3f
       -0.02580113150179386 0.4363839030265808
000740 00 00 00 a0 16 89 e1 3f 00 00 00 60 99 5d 9c bf
       0.5479844212532043 -0.02770080231130123
000750 00 00 00 a0 a2 e0 da 3f 00 00 00 a0 57 8e e2 3f
       0.4199606478214264 0.5798757672309875
000760 00 00 00 80 ff 48 90 bf 00 00 00 80 ff 67 da 3f
       -0.015903465449810028 0.41259753704071045
000770 00 00 00 c0 66 35 e1 3f 00 00 00 a0 b3 53 97 bf
       0.5377687215805054 -0.02278023399412632
000780 00 00 00 e0 bb 03 db 3f 00 00 00 e0 b8 92 e1 3f
       0.4221028983592987 0.5491604208946228
000790 00 00 00 40 62 a9 97 bf 00 00 00 c0 57 68 db 3f
       -0.02310708537697792 0.42824357748031616
0007a0 00 00 00 80 f1 26 e2 3f 00 00 00 40 67 ce 96 bf
       0.567253828048706 -0.022271741181612015
0007b0 00 00 00 20 7c 38 da 3f 00 00 00 c0 2b 36 e3 3f
       0.409697562456131 0.6003626585006714
0007c0 00 00 00 c0 d4 82 94 bf 00 00 00 e0 35 db d9 3f
       -0.02003033086657524 0.4040045440196991
0007d0 00 00 00 60 9b 8c e2 3f 00 00 00 80 bc 08 9a bf
       0.5796639323234558 -0.02542395144701004
0007e0 00 00 00 a0 89 51 da 3f 00 00 00 a0 11 ad e2 3f
       0.41122666001319885 0.5836265683174133
0007f0 00 00 00 00 98 71 99 bf 00 00 00 e0 94 ad da 3f
       -0.02484738826751709 0.41684457659721375
