WLASL/keypoints_hello_name_javi/-b4_y6LOSx0_-b4_y6LOSx0_6-8-rgb_front.npy (npy, 30368 bytes, 1 tensors)

array f8 [30, 126]
000000 00 00 00 40 81 5f e0 3f 00 00 00 80 33 a8 e7 3f
       0.5116583108901978 0.7392823696136475
000010 00 00 00 40 89 75 75 be 00 00 00 c0 fe 80 e0 3f
       -7.994147210865776e-08 0.5157464742660522
000020 00 00 00 60 e4 a4 e6 3f 00 00 00 40 d5 0a 6d bf
       0.7076284289360046 -0.0035452046431601048
000030 00 00 00 80 d6 e9 e0 3f 00 00 00 40 b3 cc e5 3f
       0.5285446643829346 0.6812378168106079
000040 00 00 00 20 7e 6e 7d bf 00 00 00 e0 52 3b e1 3f
       -0.007185452152043581 0.5384916663169861
000050 00 00 00 a0 c3 2a e5 3f 00 00 00 a0 8e 57 87 bf
       0.6614702343940735 -0.011397470720112324
000060 00 00 00 e0 2d 57 e1 3f 00 00 00 60 07 84 e4 3f
       0.5418919920921326 0.6411167979240417
000070 00 00 00 20 40 69 8e bf 00 00 00 c0 d3 bc e1 3f
       -0.01484918687492609 0.5543001890182495
000080 00 00 00 e0 75 f8 e5 3f 00 00 00 e0 0c b7 42 bf
       0.6865796446800232 -0.0005711377016268671
000090 00 00 00 a0 f6 3a e2 3f 00 00 00 60 80 0d e6 3f
       0.5696976780891418 0.6891481280326843
0000a0 00 00 00 40 af fb 77 bf 00 00 00 e0 3b 03 e2 3f
       -0.005855259485542774 0.5628947615623474
0000b0 00 00 00 00 89 2f e6 3f 00 00 00 40 fa 89 85 bf
       0.6933026313781738 -0.010517077520489693
0000c0 00 00 00 e0 69 c4 e1 3f 00 00 00 a0 db 30 e6 3f
       0.5552262663841248 0.6934641003608704
0000d0 00 00 00 e0 24 c9 8a bf 00 00 00 c0 21 d3 e1 3f
       -0.013078964315354824 0.5570229291915894
0000e0 00 00 00 c0 ff a5 e6 3f 00 00 00 e0 a5 1c 63 bf
       0.7077635526657104 -0.002332996344193816
0000f0 00 00 00 20 d6 40 e2 3f 00 00 00 c0 26 b0 e6 3f
       0.5704146027565002 0.7090028524398804
000100 00 00 00 c0 1a 9e 75 bf 00 00 00 20 cb 0e e2 3f
       -0.005277733318507671 0.56430584192276
000110 00 00 00 60 d1 cc e6 3f 00 00 00 20 f2 d3 80 bf
       0.7125021815299988 -0.008216754533350468
000120 00 00 00 00 44 d1 e1 3f 00 00 00 60 7b d9 e6 3f
       0.5567951202392578 0.7140480875968933
000130 00 00 00 80 94 90 84 bf 00 00 00 00 bd d5 e1 3f
       -0.010041389614343643 0.5573410987854004
000140 00 00 00 60 e5 5c e7 3f 00 00 00 00 a7 6d 74 bf
       0.7300898432731628 -0.004987385123968124
000150 00 00 00 a0 e7 36 e2 3f 00 00 00 a0 56 64 e7 3f
       0.5692022442817688 0.7309983372688293
000160 00 00 00 80 59 ca 7b bf 00 00 00 60 e1 08 e2 3f
       -0.006784772500395775 0.56358402967453
000170 00 00 00 80 6d 77 e7 3f 00 00 00 40 37 c9 7c bf
       0.7333285808563232 -0.007027831859886646
000180 00 00 00 e0 30 cf e1 3f 00 00 00 c0 46 7e e7 3f
       0.5565418601036072 0.7341645956039429
000190 00 00 00 60 6e b3 7d bf 00 00 00 80 cf c8 e1 3f
       -0.0072511970065534115 0.5557630062103271
0001a0 00 00 00 a0 fd 12 e8 3f 00 00 00 80 93 e1 80 bf
       0.7523182034492493 -0.008242752403020859
0001b0 00 00 00 60 c5 14 e2 3f 00 00 00 20 87 26 e8 3f
       0.5650355219841003 0.7547031044960022
0001c0 00 00 00 a0 92 ec 81 bf 00 00 00 c0 1e ea e1 3f
       -0.008752007968723774 0.5598291158676147
0001d0 00 00 00 c0 99 29 e8 3f 00 00 00 c0 03 cb 7d bf
       0.7550781965255737 -0.007273687981069088
0001e0 00 00 00 60 12 b8 e1 3f 00 00 00 20 6c 29 e8 3f
       0.553719699382782 0.7550564408302307
0001f0 00 00 00 a0 f9 3b 78 bf 00 00 00 80 58 0c e2 3f
       -0.005916571710258722 0.564007043838501
000200 00 00 00 80 9c ea eb 3f 00 00 00 e0 08 fd 84 3e
       0.8723890781402588 1.5637589001471497e-07
000210 00 00 00 80 47 e2 e1 3f 00 00 00 00 c3 24 eb 3f
       0.5588719844818115 0.8482375144958496
000220 00 00 00 80 7b 50 7e bf 00 00 00 a0 15 5c e1 3f
       -0.00740097276866436 0.5424907803535461
000230 00 00 00 a0 4a c0 ea 3f 00 00 00 20 85 c6 84 bf
       0.8359730839729309 -0.01014427188783884
000240 00 00 00 60 ca fa e0 3f 00 00 00 e0 6d a3 ea 3f
       0.5306140780448914 0.8324498534202576
000250 00 00 00 40 2d 91 88 bf 00 00 00 80 e7 be e0 3f
       -0.011995652690529823 0.523303747177124
000260 00 00 00 80 75 9a ea 3f 00 00 00 e0 fd ec 8a bf
       0.8313548564910889 -0.013147338293492794
000270 00 00 00 60 2f ce e0 3f 00 00 00 80 b5 cc eb 3f
       0.5251690745353699 0.8687388896942139
000280 00 00 00 c0 20 e2 7e bf 00 00 00 60 aa 19 e0 3f
       -0.007539871148765087 0.5031329989433289
000290 00 00 00 e0 f5 47 eb 3f 00 00 00 c0 f2 47 8b bf
       0.8525342345237732 -0.01332082413136959
0002a0 00 00 00 60 13 5c df 3f 00 00 00 00 74 cb ea 3f
       0.4899948537349701 0.8373355865478516
0002b0 00 00 00 e0 91 86 91 bf 00 00 00 60 28 c4 de 3f
       -0.017114905640482903 0.4807225167751312
0002c0 00 00 00 80 df 71 ea 3f 00 00 00 c0 be 56 93 bf
       0.8264005184173584 -0.018885593861341476
0002d0 00 00 00 a0 d9 b9 e0 3f 00 00 00 80 7a f5 eb 3f
       0.522686779499054 0.8737156391143799
0002e0 00 00 00 80 b9 de 79 bf 00 00 00 c0 b8 07 e0 3f
       -0.006315922364592552 0.500942587852478
0002f0 00 00 00 60 87 54 eb 3f 00 00 00 a0 9a a4 88 bf
       0.8540684580802917 -0.01203270722180605
000300 00 00 00 40 12 34 df 3f 00 00 00 00 90 bd ea 3f
       0.4875531792640686 0.8356399536132812
000310 00 00 00 a0 7e 9d 8f bf 00 00 00 a0 b0 89 de 3f
       -0.015437115915119648 0.4771539270877838
000320 00 00 00 c0 db 47 ea 3f 00 00 00 a0 34 23 91 bf
       0.8212717771530151 -0.0167358610779047
000330 00 00 00 80 87 b0 e0 3f 00 00 00 c0 e1 ef eb 3f
       0.5215489864349365 0.8730324506759644
000340 00 00 00 20 4f 92 77 bf 00 00 00 a0 22 0d e0 3f
       -0.005754765588790178 0.5016034245491028
000350 00 00 00 20 f4 74 eb 3f 00 00 00 60 34 ea 85 bf
       0.8580265641212463 -0.010700616054236889
000360 00 00 00 40 46 68 df 3f 00 00 00 e0 6f 0e eb 3f
       0.4907394051551819 0.845512330532074
000370 00 00 00 60 cf ab 8a bf 00 00 00 20 bf dd de 3f
       -0.013023014180362225 0.4822843372821808
000380 00 00 00 a0 09 be ea 3f 00 00 00 00 ed ca 8b bf
       0.8356979489326477 -0.013570643961429596
000390 00 00 00 20 a5 ae e0 3f 00 00 00 60 e3 c8 eb 3f
       0.5213189721107483 0.8682724833488464
0003a0 00 00 00 80 42 33 78 bf 00 00 00 a0 f5 2f e0 3f
       -0.0059082601219415665 0.5058544278144836
0003b0 00 00 00 c0 33 83 eb 3f 00 00 00 e0 44 99 82 bf
       0.859765887260437 -0.009081399999558926
0003c0 00 00 00 00 2b f1 df 3f 00 00 00 00 b4 62 eb 3f
       0.49909472465515137 0.8557987213134766
0003d0 00 00 00 00 6b 84 83 bf 00 00 00 60 2a a7 df 3f
       -0.00952991098165512 0.49457797408103943
0003e0 00 00 00 20 54 4b eb 3f 00 00 00 00 f8 a0 82 bf
       0.8529453873634338 -0.009096086025238037
0003f0 00 00 00 40 10 e4 df 3f 00 00 00 40 eb 33 e7 3f
       0.4982948899269104 0.7250877618789673
000400 00 00 00 c0 c7 27 57 be 00 00 00 20 90 52 e0 3f
       -2.1565139007861944e-08 0.510078489780426
000410 00 00 00 40 fc a9 e6 3f 00 00 00 c0 47 3f 4a bf
       0.7082501649856567 -0.0008010006276890635
000420 00 00 00 a0 48 01 e1 3f 00 00 00 00 cd e4 e5 3f
       0.5314067006111145 0.6841797828674316
000430 00 00 00 a0 2f 18 64 bf 00 00 00 40 f8 95 e1 3f
       -0.002452939050272107 0.5495568513870239
000440 00 00 00 60 0d 67 e5 3f 00 00 00 e0 4c 36 72 bf
       0.668829619884491 -0.004446316044777632
000450 00 00 00 c0 28 f5 e1 3f 00 00 00 60 53 02 e5 3f
       0.5611766576766968 0.6565338969230652
000460 00 00 00 60 19 0b 7b bf 00 00 00 c0 39 1e e1 3f
       -0.006602381821721792 0.5349396467208862
000470 00 00 00 80 22 92 e5 3f 00 00 00 a0 14 9d 79 bf
       0.674088716506958 -0.006253319326788187
000480 00 00 00 40 ab ab e1 3f 00 00 00 40 39 19 e5 3f
       0.5522056818008423 0.6593290567398071
000490 00 00 00 00 0d 9e 89 bf 00 00 00 00 17 e8 e1 3f
       -0.012508489191532135 0.5595812797546387
0004a0 00 00 00 c0 aa af e4 3f 00 00 00 80 87 3e 91 bf
       0.6464437246322632 -0.016840092837810516
0004b0 00 00 00 20 31 0c e2 3f 00 00 00 40 7a 48 e4 3f
       0.5639882683753967 0.6338473558425903
0004c0 00 00 00 80 2b 38 94 bf 00 00 00 20 fc 07 e1 3f
       -0.019745521247386932 0.532224714756012
0004d0 00 00 00 00 5f d7 e5 3f 00 00 00 80 e0 d8 82 bf
       0.6825404167175293 -0.00920272246003151
0004e0 00 00 00 00 9a 94 e1 3f 00 00 00 e0 ac 57 e5 3f
       0.5493898391723633 0.6669525504112244
0004f0 00 00 00 40 6e c0 8e bf 00 00 00 a0 b6 cb e1 3f
       -0.01501546986401081 0.5561173558235168
000500 00 00 00 00 c2 01 e5 3f 00 00 00 00 d1 60 93 bf
       0.6564645767211914 -0.018924012780189514
000510 00 00 00 a0 f7 ee e1 3f 00 00 00 c0 94 9e e4 3f
       0.5604208111763 0.6443580389022827
000520 00 00 00 c0 ef 81 96 bf 00 00 00 60 31 ed e0 3f
       -0.02198004350066185 0.5289542078971863
000530 00 00 00 00 f4 41 e6 3f 00 00 00 e0 a0 b6 88 bf
       0.6955509185791016 -0.012067086063325405
000540 00 00 00 40 07 7c e1 3f 00 00 00 80 c4 d6 e5 3f
       0.546390175819397 0.6824667453765869
000550 00 00 00 60 c6 7e 91 bf 00 00 00 e0 f8 9d e1 3f
       -0.01708517037332058 0.5505337119102478
000560 00 00 00 60 98 8e e5 3f 00 00 00 e0 91 e0 92 bf
       0.6736566424369812 -0.018434790894389153
000570 00 00 00 20 0e aa e1 3f 00 00 00 80 36 30 e5 3f
       0.5520086884498596 0.6621353626251221
000580 00 00 00 40 d0 c7 93 bf 00 00 00 e0 29 d2 e0 3f
       -0.019316915422677994 0.5256547331809998
000590 00 00 00 00 21 c4 e6 3f 00 00 00 60 fc 8f 8e bf
       0.7114415168762207 -0.014923068694770336
0005a0 00 00 00 20 60 4c e1 3f 00 00 00 80 3b 67 e6 3f
       0.5405731797218323 0.7001016139984131
0005b0 00 00 00 a0 ac 21 93 bf 00 00 00 a0 4b 78 e1 3f
       -0.018683144822716713 0.5459344983100891
0005c0 00 00 00 e0 f7 3a e6 3f 00 00 00 c0 6c a7 93 bf
       0.6946982741355896 -0.019193362444639206
0005d0 00 00 00 a0 d4 90 e1 3f 00 00 00 40 d3 0a e6 3f
       0.5489295125007629 0.6888214349746704
0005e0 00 00 00 a0 3d db 93 bf 00 00 00 e0 91 07 e2 3f
       -0.019391024485230446 0.5634240508079529
0005f0 00 00 00 20 01 61 eb 3f 00 00 00 40 45 aa 8c 3e
       0.855591356754303 2.1357178070502414e-07
000600 00 00 00 00 5d ee e1 3f 00 00 00 e0 20 6e ea 3f
       0.5603470802307129 0.8259434103965759
000610 00 00 00 00 a4 6e 8b bf 00 00 00 60 bb 7c e1 3f
       -0.01339462399482727 0.5464760661125183
000620 00 00 00 a0 70 d7 e9 3f 00 00 00 80 17 fa 94 bf
       0.8075488209724426 -0.020485274493694305
000630 00 00 00 60 be 12 e1 3f 00 00 00 20 75 92 e9 3f
       0.5335380434989929 0.7991281151771545
000640 00 00 00 80 c4 4f 9a bf 00 00 00 e0 20 b6 e0 3f
       -0.025694914162158966 0.5222324728965759
000650 00 00 00 e0 86 76 e9 3f 00 00 00 40 d4 11 9f bf
       0.7957186102867126 -0.03034145012497902
000660 00 00 00 00 7f c7 e0 3f 00 00 00 e0 5a 9e ea 3f
       0.5243525505065918 0.8318304419517517
000670 00 00 00 e0 70 51 92 bf 00 00 00 e0 e4 07 e0 3f
       -0.01788879744708538 0.5009636282920837
000680 00 00 00 00 90 19 ea 3f 00 00 00 20 ef 63 9c bf
       0.8156204223632812 -0.027724968269467354
000690 00 00 00 20 ff 1c df 3f 00 00 00 c0 27 ae e9 3f
       0.4861448109149933 0.8025091886520386
0006a0 00 00 00 80 d5 4c a1 bf 00 00 00 40 f3 5e de 3f
       -0.03378932178020477 0.47454530000686646
0006b0 00 00 00 c0 90 62 e9 3f 00 00 00 20 aa c1 a2 bf
       0.7932819128036499 -0.03663379326462746
0006c0 00 00 00 80 fa b1 e0 3f 00 00 00 e0 a1 e1 ea 3f
       0.5217258930206299 0.8400430083274841
0006d0 00 00 00 00 5c c9 8d bf 00 00 00 c0 73 f0 df 3f
       -0.01454421877861023 0.499051034450531
0006e0 00 00 00 c0 34 25 ea 3f 00 00 00 40 a7 7f 99 bf
       0.8170417547225952 -0.024901021271944046
0006f0 00 00 00 e0 2c 04 df 3f 00 00 00 20 46 a4 e9 3f
       0.4846298396587372 0.801302969455719
000700 00 00 00 e0 e3 c4 9e bf 00 00 00 40 00 37 de 3f
       -0.030047951266169548 0.4721069931983948
000710 00 00 00 00 73 36 e9 3f 00 00 00 00 99 55 a0 bf
       0.7878966331481934 -0.03190305829048157
000720 00 00 00 80 43 aa e0 3f 00 00 00 60 7c 00 eb 3f
       0.5207841396331787 0.8438093066215515
000730 00 00 00 a0 8b 58 88 bf 00 00 00 00 19 38 e0 3f
       -0.011887636967003345 0.5068478584289551
000740 00 00 00 40 e5 24 ea 3f 00 00 00 60 f4 87 95 bf
       0.8170038461685181 -0.02102643810212612
000750 00 00 00 c0 0f 29 e0 3f 00 00 00 c0 a4 0f ea 3f
       0.5050123929977417 0.814409613609314
000760 00 00 00 20 b5 52 96 bf 00 00 00 00 a9 0b e0 3f
       -0.021799879148602486 0.5014233589172363
000770 00 00 00 e0 3b 0d ea 3f 00 00 00 80 a5 40 94 bf
       0.8141154646873474 -0.019777856767177582
000780 00 00 00 00 5b a9 e0 3f 00 00 00 60 88 04 eb 3f
       0.5206732749938965 0.84430330991745
000790 00 00 00 80 17 40 85 bf 00 00 00 a0 88 2e e0 3f
       -0.010376151651144028 0.5056803822517395
0007a0 00 00 00 c0 6d 93 ea 3f 00 00 00 00 20 19 90 bf
       0.8304966688156128 -0.015720844268798828
0007b0 00 00 00 80 a5 01 e0 3f 00 00 00 20 73 69 ea 3f
       0.5002009868621826 0.8253722786903381
0007c0 00 00 00 80 e8 7e 8e bf 00 00 00 00 b9 bd df 3f
       -0.01489049568772316 0.4959547519683838
0007d0 00 00 00 80 b4 4b ea 3f 00 00 00 e0 88 b9 89 bf
       0.8217413425445557 -0.012560910545289516
0007e0 00 00 00 20 3c 00 e0 3f 00 00 00 60 ad 60 e6 3f
       0.500028669834137 0.6993014216423035
0007f0 00 00 00 e0 f4 00 79 3e 00 00 00 c0 d8 54 e0 3f
       9.314617699374139e-08 0.5103572607040405
