WLASL/keypoints_hello_name_javi/-b4_y6LOSx0_-b4_y6LOSx0_5-8-rgb_front.npy (npy, 30368 bytes, 1 tensors)

array f8 [30, 126]
000000 00 00 00 00 00 00 00 00 00 00 00 00 00 00 00 00
       0.0 0.0
000010 00 00 00 00 00 00 00 00 00 00 00 00 00 00 00 00
       0.0 0.0
000020 00 00 00 00 00 00 00 00 00 00 00 00 00 00 00 00
       0.0 0.0
000030 00 00 00 00 00 00 00 00 00 00 00 00 00 00 00 00
       0.0 0.0
000040 00 00 00 00 00 00 00 00 00 00 00 00 00 00 00 00
       0.0 0.0
000050 00 00 00 00 00 00 00 00 00 00 00 00 00 00 00 00
       0.0 0.0
000060 00 00 00 00 00 00 00 00 00 00 00 00 00 00 00 00
       0.0 0.0
000070 00 00 00 00 00 00 00 00 00 00 00 00 00 00 00 00
       0.0 0.0
000080 00 00 00 00 00 00 00 00 00 00 00 00 00 00 00 00
       0.0 0.0
000090 00 00 00 00 00 00 00 00 00 00 00 00 00 00 00 00
       0.0 0.0
0000a0 00 00 00 00 00 00 00 00 00 00 00 00 00 00 00 00
       0.0 0.0
0000b0 00 00 00 00 00 00 00 00 00 00 00 00 00 00 00 00
       0.0 0.0
0000c0 00 00 00 00 00 00 00 00 00 00 00 00 00 00 00 00
       0.0 0.0
0000d0 00 00 00 00 00 00 00 00 00 00 00 00 00 00 00 00
       0.0 0.0
0000e0 00 00 00 00 00 00 00 00 00 00 00 00 00 00 00 00
       0.0 0.0
0000f0 00 00 00 00 00 00 00 00 00 00 00 00 00 00 00 00
       0.0 0.0
000100 00 00 00 00 00 00 00 00 00 00 00 00 00 00 00 00
       0.0 0.0
000110 00 00 00 00 00 00 00 00 00 00 00 00 00 00 00 00
       0.0 0.0
000120 00 00 00 00 00 00 00 00 00 00 00 00 00 00 00 00
       0.0 0.0
000130 00 00 00 00 00 00 00 00 00 00 00 00 00 00 00 00
       0.0 0.0
000140 00 00 00 00 00 00 00 00 00 00 00 00 00 00 00 00
       0.0 0.0
000150 00 00 00 00 00 00 00 00 00 00 00 00 00 00 00 00
       0.0 0.0
000160 00 00 00 00 00 00 00 00 00 00 00 00 00 00 00 00
       0.0 0.0
000170 00 00 00 00 00 00 00 00 00 00 00 00 00 00 00 00
       0.0 0.0
000180 00 00 00 00 00 00 00 00 00 00 00 00 00 00 00 00
       0.0 0.0
000190 00 00 00 00 00 00 00 00 00 00 00 00 00 00 00 00
       0.0 0.0
0001a0 00 00 00 00 00 00 00 00 00 00 00 00 00 00 00 00
       0.0 0.0
0001b0 00 00 00 00 00 00 00 00 00 00 00 00 00 00 00 00
       0.0 0.0
0001c0 00 00 00 00 00 00 00 00 00 00 00 00 00 00 00 00
       0.0 0.0
0001d0 00 00 00 00 00 00 00 00 00 00 00 00 00 00 00 00
       0.0 0.0
0001e0 00 00 00 00 00 00 00 00 00 00 00 00 00 00 00 00
       0.0 0.0
0001f0 00 00 00 00 00 00 00 00 00 00 00 80 b5 22 e3 3f
       0.0 0.5979869365692139
000200 00 00 00 80 95 19 e8 3f 00 00 00 60 56 47 87 be
       0.7531230449676514 -1.7343954539228434e-07
000210 00 00 00 80 78 dc e2 3f 00 00 00 a0 7d b3 e7 3f
       0.5894129276275635 0.7406604886054993
000220 00 00 00 60 7b 5b 5f bf 00 00 00 20 8b 65 e2 3f
       -0.0019139008363708854 0.574895441532135
000230 00 00 00 c0 dc 77 e7 3f 00 00 00 20 14 31 6c bf
       0.7333816289901733 -0.0034413712564855814
000240 00 00 00 e0 6f ee e1 3f 00 00 00 00 d4 89 e7 3f
       0.560356080532074 0.7355747222900391
000250 00 00 00 e0 65 e3 75 bf 00 00 00 40 50 9a e1 3f
       -0.0053438167087733746 0.5500870943069458
000260 00 00 00 20 b6 ae e7 3f 00 00 00 00 a8 d7 7f bf
       0.7400770783424377 -0.007774025201797485
000270 00 00 00 40 77 80 e2 3f 00 00 00 20 9e 23 e7 3f
       0.5781818628311157 0.7230978608131409
000280 00 00 00 20 39 40 65 bf 00 00 00 00 3e 0a e2 3f
       -0.00259410054422915 0.5637502670288086
000290 00 00 00 a0 39 5d e7 3f 00 00 00 40 6f 66 80 bf
       0.7301300168037415 -0.008007878437638283
0002a0 00 00 00 e0 b3 ae e1 3f 00 00 00 00 72 a6 e7 3f
       0.5525760054588318 0.7390680313110352
0002b0 00 00 00 80 7a 33 8b bf 00 00 00 80 8c 6a e1 3f
       -0.01328178122639656 0.5442564487457275
0002c0 00 00 00 20 c9 dd e7 3f 00 00 00 a0 35 f9 90 bf
       0.7458234429359436 -0.016575658693909645
0002d0 00 00 00 00 36 a0 e2 3f 00 00 00 20 7b 45 e7 3f
       0.582056999206543 0.7272315621376038
0002e0 00 00 00 20 73 3b 70 bf 00 00 00 60 a3 0c e2 3f
       -0.003962945658713579 0.5640427470207214
0002f0 00 00 00 40 d0 a2 e7 3f 00 00 00 40 59 92 7d bf
       0.7386246919631958 -0.00721964705735445
000300 00 00 00 c0 3e bf e1 3f 00 00 00 40 dc ee e7 3f
       0.5545953512191772 0.7479077577590942
000310 00 00 00 40 fd 9c 85 bf 00 00 00 20 2a 8f e1 3f
       -0.010553339496254921 0.5487261414527893
000320 00 00 00 c0 99 21 e8 3f 00 00 00 20 69 03 8c bf
       0.7541016340255737 -0.013678380288183689
000330 00 00 00 00 70 c0 e2 3f 00 00 00 80 4a 7f e7 3f
       0.5859909057617188 0.7342884540557861
000340 00 00 00 00 9a a3 77 bf 00 00 00 20 62 34 e2 3f
       -0.005771256983280182 0.5688944458961487
000350 00 00 00 e0 0c d0 e7 3f 00 00 00 e0 48 a8 83 bf
       0.7441467642784119 -0.0095983212813735
000360 00 00 00 40 dc dd e1 3f 00 00 00 80 4a fb e7 3f
       0.5583325624465942 0.7494251728057861
000370 00 00 00 40 e7 d7 88 bf 00 00 00 c0 69 9e e1 3f
       -0.012130552902817726 0.55058753490448
000380 00 00 00 e0 dc 1f e8 3f 00 00 00 60 e0 09 8d bf
       0.7538895010948181 -0.014178994111716747
000390 00 00 00 40 1e df e2 3f 00 00 00 a0 0d d0 e7 3f
       0.5897361040115356 0.7441471219062805
0003a0 00 00 00 80 8f 54 7f bf 00 00 00 20 f8 75 e2 3f
       -0.007649002596735954 0.5769005417823792
0003b0 00 00 00 60 77 17 e8 3f 00 00 00 80 c0 b0 86 bf
       0.7528645396232605 -0.011079315096139908
0003c0 00 00 00 40 d6 2d e2 3f 00 00 00 20 05 41 e8 3f
       0.568095326423645 0.7579370141029358
0003d0 00 00 00 20 56 f1 87 bf 00 00 00 40 28 ee e1 3f
       -0.011690781451761723 0.5603219270706177
0003e0 00 00 00 20 1e 63 e8 3f 00 00 00 e0 27 de 88 bf
       0.7620993256568909 -0.012142478488385677
0003f0 00 00 00 00 76 b3 da 3f 00 00 00 80 80 51 e8 3f
       0.417203426361084 0.7599489688873291
000400 00 00 00 80 19 c0 65 3e 00 00 00 c0 7e df db 3f
       4.051325674936379e-08 0.4355160593986511
000410 00 00 00 a0 a5 60 e8 3f 00 00 00 20 0b 1b 73 bf
       0.7617977261543274 -0.004664462525397539
000420 00 00 00 c0 8f 00 dd 3f 00 00 00 60 a6 3b e9 3f
       0.45315927267074585 0.788531482219696
000430 00 00 00 80 55 56 7d bf 00 00 00 40 92 bf dd 3f
       -0.007162412628531456 0.4648175835609436
000440 00 00 00 80 40 12 ea 3f 00 00 00 80 fb 01 81 bf
       0.8147280216217041 -0.008304562419652939
000450 00 00 00 60 37 70 de 3f 00 00 00 c0 b5 8f ea 3f
       0.47559913992881775 0.8300427198410034
000460 00 00 00 e0 6e d3 82 bf 00 00 00 c0 5f af dc 3f
       -0.009192339144647121 0.448203980922699
000470 00 00 00 a0 dc 5f e9 3f 00 00 00 40 4a 02 8d bf
       0.7929518818855286 -0.014164524152874947
000480 00 00 00 20 5a 6a dd 3f 00 00 00 20 1a 87 ea 3f
       0.45961621403694153 0.8289919495582581
000490 00 00 00 a0 5e ce 92 bf 00 00 00 20 04 c0 dd 3f
       -0.018365362659096718 0.4648447334766388
0004a0 00 00 00 a0 6d 41 eb 3f 00 00 00 a0 b0 c3 93 bf
       0.851736843585968 -0.01930118538439274
0004b0 00 00 00 60 77 fa dd 3f 00 00 00 00 01 d0 eb 3f
       0.46841225028038025 0.8691411018371582
0004c0 00 00 00 80 11 e0 93 bf 00 00 00 c0 ac d7 db 3f
       -0.019409440457820892 0.4350387454032898
0004d0 00 00 00 e0 31 b5 e9 3f 00 00 00 80 59 64 8b bf
       0.8033685088157654 -0.013374995440244675
0004e0 00 00 00 20 45 68 dc 3f 00 00 00 60 f6 c3 ea 3f
       0.4438641369342804 0.8364211916923523
0004f0 00 00 00 00 8a 46 90 bf 00 00 00 e0 b6 b2 dc 3f
       -0.0158940851688385 0.4484078586101532
000500 00 00 00 00 9c 50 eb 3f 00 00 00 a0 d0 59 8f bf
       0.8535900115966797 -0.015308027155697346
000510 00 00 00 60 96 e5 dc 3f 00 00 00 e0 38 b6 eb 3f
       0.4515129029750824 0.8659939169883728
000520 00 00 00 c0 59 ef 8e bf 00 00 00 e0 60 04 db 3f
       -0.015104962512850761 0.42214223742485046
000530 00 00 00 40 6f f0 e9 3f 00 00 00 60 24 f2 88 bf
       0.8105999231338501 -0.012180599384009838
000540 00 00 00 80 5f 82 db 3f 00 00 00 c0 78 e7 ea 3f
       0.4298323392868042 0.840755820274353
000550 00 00 00 e0 b7 bd 8e bf 00 00 00 a0 40 d1 db 3f
       -0.015010296367108822 0.43464675545692444
000560 00 00 00 80 89 29 eb 3f 00 00 00 c0 fe d9 8a bf
       0.8488204479217529 -0.013111105188727379
000570 00 00 00 a0 8b fb db 3f 00 00 00 40 cc 3c eb 3f
       0.43722811341285706 0.851171612739563
000580 00 00 00 80 15 62 87 bf 00 00 00 40 af 51 da 3f
       -0.011417549103498459 0.41123563051223755
000590 00 00 00 40 43 1a ea 3f 00 00 00 60 14 a0 86 bf
       0.8157058954238892 -0.011047515086829662
0005a0 00 00 00 a0 b2 f0 da 3f 00 00 00 a0 79 df ea 3f
       0.420941025018692 0.8397796750068665
0005b0 00 00 00 20 a3 34 8b bf 00 00 00 20 0e 45 db 3f
       -0.013283991254866123 0.4260897934436798
0005c0 00 00 00 80 d0 f9 ea 3f 00 00 00 00 15 29 87 bf
       0.8429949283599854 -0.011308826506137848
0005d0 00 00 00 20 5f 6f db 3f 00 00 00 a0 8f eb ea 3f
       0.42867258191108704 0.8412550091743469
0005e0 00 00 00 20 dd f9 82 bf 00 00 00 60 37 41 e3 3f
       -0.009265639819204807 0.6017109751701355
0005f0 00 00 00 40 2f 17 e8 3f 00 00 00 e0 16 25 33 3e
       0.7528301477432251 4.457514801714524e-09
000600 00 00 00 80 6d d9 e2 3f 00 00 00 c0 2b b2 e7 3f
       0.5890414714813232 0.7404993772506714
000610 00 00 00 20 86 24 65 bf 00 00 00 60 99 4f e2 3f
       -0.002580892527475953 0.5722166895866394
000620 00 00 00 40 a8 b1 e7 3f 00 00 00 00 6d a9 77 bf
       0.7404366731643677 -0.005776811391115189
000630 00 00 00 80 bd ee e1 3f 00 00 00 e0 a7 f3 e7 3f
       0.5603930950164795 0.7484931349754333
000640 00 00 00 40 d5 5e 81 bf 00 00 00 40 fb ae e1 3f
       -0.008481660857796669 0.5526100397109985
000650 00 00 00 20 bc 3d e8 3f 00 00 00 60 01 b7 89 bf
       0.757535994052887 -0.012556086294353008
000660 00 00 00 e0 5f 4d e2 3f 00 00 00 80 d8 54 e7 3f
       0.5719451308250427 0.729107141494751
000670 00 00 00 40 5e 21 8b bf 00 00 00 80 cc c0 e1 3f
       -0.013247238472104073 0.5547850131988525
000680 00 00 00 a0 cd d3 e7 3f 00 00 00 c0 ff d4 93 bf
       0.7446048855781555 -0.019367214292287827
000690 00 00 00 c0 64 58 e1 3f 00 00 00 20 1e 12 e8 3f
       0.542040228843689 0.7522116303443909
0006a0 00 00 00 e0 97 ca 98 bf 00 00 00 00 b1 0b e1 3f
       -0.024210331961512566 0.532677173614502
0006b0 00 00 00 60 a8 35 e8 3f 00 00 00 00 9b f0 9c bf
       0.7565500140190125 -0.028261587023735046
0006c0 00 00 00 e0 8f 8d e2 3f 00 00 00 40 b3 ac e7 3f
       0.5797805190086365 0.7398315668106079
0006d0 00 00 00 80 f9 32 90 bf 00 00 00 00 a4 fe e1 3f
       -0.015819452702999115 0.5623340606689453
0006e0 00 00 00 20 47 2f e8 3f 00 00 00 60 5f 6a 96 bf
       0.7557712197303772 -0.021890154108405113
0006f0 00 00 00 c0 a1 89 e1 3f 00 00 00 a0 cf 90 e8 3f
       0.5480507612228394 0.7676771283149719
000700 00 00 00 a0 b0 ef 9a bf 00 00 00 00 74 2a e1 3f
       -0.02630496956408024 0.5364322662353516
000710 00 00 00 c0 cf d1 e8 3f 00 00 00 c0 25 18 9f bf
       0.7756117582321167 -0.030365552753210068
000720 00 00 00 80 d3 cd e2 3f 00 00 00 00 d2 29 e8 3f
       0.58762526512146 0.7551050186157227
000730 00 00 00 80 66 37 92 bf 00 00 00 00 d3 4a e2 3f
       -0.017789460718631744 0.5716338157653809
000740 00 00 00 a0 29 c5 e8 3f 00 00 00 00 e8 46 98 bf
       0.7740676999092102 -0.023707985877990723
000750 00 00 00 80 22 e7 e1 3f 00 00 00 c0 a7 1d e9 3f
       0.559464693069458 0.7848700284957886
000760 00 00 00 c0 29 43 9b bf 00 00 00 60 91 99 e1 3f
       -0.026623394340276718 0.5499960780143738
000770 00 00 00 20 d8 47 e9 3f 00 00 00 c0 69 cb 9d bf
       0.7900200486183167 -0.029096271842718124
000780 00 00 00 c0 0c 02 e3 3f 00 00 00 60 30 b8 e8 3f
       0.5940002202987671 0.7724840044975281
000790 00 00 00 20 d7 07 94 bf 00 00 00 40 8e a1 e2 3f
       -0.0195611584931612 0.5822211503982544
0007a0 00 00 00 20 a0 56 e9 3f 00 00 00 00 ed a1 99 bf
       0.7918244004249573 -0.025031760334968567
0007b0 00 00 00 00 e6 56 e2 3f 00 00 00 60 2a a2 e9 3f
       0.5731077194213867 0.8010455965995789
0007c0 00 00 00 40 1e ec 9a bf 00 00 00 e0 7c 22 e2 3f
       -0.026291344314813614 0.5667099356651306
0007d0 00 00 00 40 19 cb e9 3f 00 00 00 e0 33 fb 9b bf
       0.8060423135757446 -0.027325449511408806
0007e0 00 00 00 00 00 00 00 00 00 00 00 00 00 00 00 00
       0.0 0.0
0007f0 00 00 00 00 00 00 00 00 00 00 00 00 00 00 00 00
       0.0 0.0
