WLASL/keypoints_hello_name_javi/-b4_y6LOSx0_-b4_y6LOSx0_1-8-rgb_front.npy (npy, 30368 bytes, 1 tensors)

array f8 [30, 126]
0	0x3fdae5f400000000	0.4202852249145508
1	0x3fe076bc40000000	0.5144940614700317
2	0xbe7221de00000000	-6.754805781383766e-08
3	0x3fdb6fbce0000000	0.4286949336528778
4	0x3fe0009880000000	0.500072717666626
5	0xbf67e08340000000	-0.0029146731831133366
6	0x3fdbf875c0000000	0.4370397925376892
7	0x3fdf16ab80000000	0.4857586622238159
8	0xbf7e352d40000000	-0.007374932058155537
9	0x3fdc8ab140000000	0.44596511125564575
10	0x3fdeac1bc0000000	0.47925466299057007
11	0xbf886ae0a0000000	-0.011922602541744709
12	0x3fdd41bf40000000	0.4571378827095032
13	0x3fdec40ac0000000	0.48071545362472534
14	0xbf90543100000000	-0.015946164727211
15	0x3fdb2a60a0000000	0.4244615137577057
16	0x3fdd9b8620000000	0.462617427110672
17	0xbf87842040000000	-0.0114824790507555
18	0x3fdbbe1680000000	0.4334770441055298
19	0x3fdd2023e0000000	0.45508667826652527
20	0xbf9028c2e0000000	-0.01578049175441265
21	0x3fdc5534a0000000	0.4427005350589752
22	0x3fde335600000000	0.47188329696655273
23	0xbf915e93e0000000	-0.01696234755218029
24	0x3fdc8e5060000000	0.4461861550807953
25	0x3fdf23f1a0000000	0.4865688383579254
26	0xbf923372e0000000	-0.017774386331439018
27	0x3fdab29e80000000	0.4171520471572876
28	0x3fddee1f40000000	0.4676588177680969
29	0xbf8b2256e0000000	-0.013249090872704983
30	0x3fdb7d48e0000000	0.429521769285202
31	0x3fde1bef80000000	0.4704550504684448
32	0xbf917266e0000000	-0.017037970945239067
33	0x3fdc1eeb00000000	0.43938708305358887
34	0x3fdf36cde0000000	0.48771998286247253
35	0xbf910f8200000000	-0.016660720109939575
36	0x3fdc504c40000000	0.4424009919166565
37	0x3fe0058320000000	0.5006728768348694
38	0xbf9196fd40000000	-0.017177540808916092
39	0x3fda6b8240000000	0.412811815738678
40	0x3fdeaf9d60000000	0.4794686734676361
41	0xbf8e7a4e60000000	-0.014881717972457409
42	0x3fdb4cde80000000	0.4265667200088501
43	0x3fdea311e0000000	0.47870299220085144
44	0xbf936e0ec0000000	-0.01897452399134636
45	0x3fdbe6e040000000	0.4359665513038635
46	0x3fdf84e4e0000000	0.49248620867729187
47	0xbf91004740000000	-0.01660262420773506
48	0x3fdc1cd6e0000000	0.43926021456718445
49	0x3fe01f9f80000000	0.5038602352142334
50	0xbf8f369d80000000	-0.01524088904261589
51	0x3fda54cac0000000	0.41142529249191284
52	0x3fdf9e9500000000	0.49405407905578613
53	0xbf911486e0000000	-0.01667986623942852
54	0x3fdb2bfba0000000	0.42455950379371643
55	0x3fdf87a600000000	0.49265432357788086
56	0xbf93de1180000000	-0.019401811063289642
57	0x3fdba8ac00000000	0.43216991424560547
58	0x3fe003ba40000000	0.5004550218582153
59	0xbf9162dc40000000	-0.016978684812784195
60	0x3fdbd78e80000000	0.435031533241272
61	0x3fe0479100000000	0.5087361335754395
62	0xbf8f31a5a0000000	-0.015231412835419178
63	0x0000000000000000	0.0
64	0x0000000000000000	0.0
65	0x0000000000000000	0.0
66	0x0000000000000000	0.0
67	0x0000000000000000	0.0
68	0x0000000000000000	0.0
69	0x0000000000000000	0.0
70	0x0000000000000000	0.0
71	0x0000000000000000	0.0
72	0x0000000000000000	0.0
73	0x0000000000000000	0.0
74	0x0000000000000000	0.0
75	0x0000000000000000	0.0
76	0x0000000000000000	0.0
77	0x0000000000000000	0.0
78	0x0000000000000000	0.0
79	0x0000000000000000	0.0
80	0x0000000000000000	0.0
81	0x0000000000000000	0.0
82	0x0000000000000000	0.0
83	0x0000000000000000	0.0
84	0x0000000000000000	0.0
85	0x0000000000000000	0.0
86	0x0000000000000000	0.0
87	0x0000000000000000	0.0
88	0x0000000000000000	0.0
89	0x0000000000000000	0.0
90	0x0000000000000000	0.0
91	0x0000000000000000	0.0
92	0x0000000000000000	0.0
93	0x0000000000000000	0.0
94	0x0000000000000000	0.0
95	0x0000000000000000	0.0
96	0x0000000000000000	0.0
97	0x0000000000000000	0.0
98	0x0000000000000000	0.0
99	0x0000000000000000	0.0
100	0x0000000000000000	0.0
101	0x0000000000000000	0.0
102	0x0000000000000000	0.0
103	0x0000000000000000	0.0
104	0x0000000000000000	0.0
105	0x0000000000000000	0.0
106	0x0000000000000000	0.0
107	0x0000000000000000	0.0
108	0x0000000000000000	0.0
109	0x0000000000000000	0.0
110	0x0000000000000000	0.0
111	0x0000000000000000	0.0
112	0x0000000000000000	0.0
113	0x0000000000000000	0.0
114	0x0000000000000000	0.0
115	0x0000000000000000	0.0
116	0x0000000000000000	0.0
117	0x0000000000000000	0.0
118	0x0000000000000000	0.0
119	0x0000000000000000	0.0
120	0x0000000000000000	0.0
121	0x0000000000000000	0.0
122	0x0000000000000000	0.0
123	0x0000000000000000	0.0
124	0x0000000000000000	0.0
125	0x0000000000000000	0.0
126	0x3fdacf6c20000000	0.41891005635261536
127	0x3fe07f0e40000000	0.5155097246170044
128	0xbe42ea9760000000	-8.808622276035294e-09
129	0x3fdb44c360000000	0.42607197165489197
130	0x3fdff8f4e0000000	0.4995701014995575
131	0xbf7633dba0000000	-0.0054205493070185184
132	0x3fdbeb6140000000	0.4362414479255676
133	0x3fdef8a540000000	0.48392611742019653
134	0xbf89176960000000	-0.012251685373485088
135	0x3fdca7e9c0000000	0.447748601436615
136	0x3fde906d20000000	0.47756507992744446
137	0xbf93124660000000	-0.018624400720000267
138	0x3fdd1ab120000000	0.45475414395332336
139	0x3fde8e0de0000000	0.47742030024528503
140	0xbf993cd160000000	-0.024646064266562462
141	0x3fdb088620000000	0.422395259141922
142	0x3fdd209340000000	0.4551132321357727
143	0xbf8be083e0000000	-0.01361182238906622
144	0x3fdc8faf80000000	0.4462698698043823
145	0x3fddb3d220000000	0.4641003906726837
146	0xbf97134a60000000	-0.022534525021910667
147	0x3fdca2d440000000	0.4474382996559143
148	0x3fde8e6ca0000000	0.4774428904056549
149	0xbf9cefef80000000	-0.0282590314745903
150	0x3fdc34cf00000000	0.440723180770874
151	0x3fded2d7a0000000	0.4816187918186188
152	0xbfa05eaba0000000	-0.03197227790951729
153	0x3fdad8f360000000	0.41949161887168884
154	0x3fde05ece0000000	0.4691116511821747
155	0xbf8fc79360000000	-0.01551737915724516
156	0x3fdc7a6980000000	0.4449714422225952
157	0x3fde5fe140000000	0.4746020436286926
158	0xbf96fd61e0000000	-0.022450951859354973
159	0x3fdc5c5680000000	0.4431358575820923
160	0x3fdf183fa0000000	0.48585501313209534
161	0xbf9873cce0000000	-0.023879243060946465
162	0x3fdbdb6ee0000000	0.4352681338787079
163	0x3fdf436ec0000000	0.4884907603263855
164	0xbf9a124520000000	-0.025460319593548775
165	0x3fdacaa720000000	0.41861894726753235
166	0x3fdf142060000000	0.4856034219264984
167	0xbf9242ae80000000	-0.017832495272159576
168	0x3fdc447e40000000	0.4416804909706116
169	0x3fdf2e1580000000	0.4871877431869507
170	0xbf974c5620000000	-0.02275213785469532
171	0x3fdc2c4000000000	0.4402008056640625
172	0x3fdfcbe240000000	0.49681907892227173
173	0xbf94bb71a0000000	-0.020246291533112526
174	0x3fdbc8b600000000	0.4341254234313965
175	0x3fdfff01a0000000	0.49993935227394104
176	0xbf934ea7e0000000	-0.018854735419154167
177	0x3fdad36700000000	0.41915297508239746
178	0x3fe0163be0000000	0.5027140974998474
179	0xbf95588280000000	-0.020845450460910797
180	0x3fdbedafc0000000	0.4363822340965271
181	0x3fdff0be00000000	0.4990687370300293
182	0xbf97b73cc0000000	-0.0231599323451519
183	0x3fdbef9060000000	0.4364968240261078
184	0x3fe01e8660000000	0.5037261843681335
185	0xbf954580c0000000	-0.020772945135831833
186	0x3fdbb1c0a0000000	0.43272414803504944
187	0x3fe0308f20000000	0.5059276223182678
188	0xbf93bf46e0000000	-0.01928435079753399
189	0x3fe22affe0000000	0.5677489638328552
190	0x3feca2e0c0000000	0.8948825597763062
191	0x3e85fb4260000000	1.6377479994389432e-07
192	0x3fe1c347a0000000	0.5550878643989563
193	0x3febd8db00000000	0.8702216148376465
194	0xbf82179f40000000	-0.008834118023514748
195	0x3fe10c17a0000000	0.5327261090278625
196	0x3febe8f8a0000000	0.8721888661384583
197	0xbf87baad00000000	-0.011586524546146393
198	0x3fe0756120000000	0.5143285393714905
199	0x3fec46e320000000	0.8836532235145569
200	0xbf88938f80000000	-0.012000199407339096
201	0x3fdffcb5c0000000	0.4997991919517517
202	0x3fec7b0f40000000	0.8900219202041626
203	0xbf88508620000000	-0.011872337199747562
204	0x3fe0f577e0000000	0.5299643874168396
205	0x3fecb2b060000000	0.8968126177787781
206	0xbf8dd3af00000000	-0.0145639106631279
207	0x3fe0286b60000000	0.5049340128898621
208	0x3fed345d20000000	0.9126420617103577
209	0xbf93193aa0000000	-0.018650928512215614
210	0x3fdf4ed3c0000000	0.48918622732162476
211	0x3fed63db80000000	0.9184396266937256
212	0xbf93d75ea0000000	-0.019376257434487343
213	0x3fde921620000000	0.4776664078235626
214	0x3fed7d7ec0000000	0.9215692281723022
215	0xbf938c9980000000	-0.019091032445430756
216	0x3fe1041ac0000000	0.5317510366439819
217	0x3fed5f5840000000	0.9178887605667114
218	0xbf8559c920000000	-0.010425158776342869
219	0x3fe03894c0000000	0.5069068670272827
220	0x3fedd06c80000000	0.931692361831665
221	0xbf8c91e3c0000000	-0.013950137421488762
222	0x3fdf7c5d60000000	0.4919656217098236
223	0x3fedc9f400000000	0.9309024810791016
224	0xbf8c200b20000000	-0.01373299304395914
225	0x3fded66000000000	0.48183441162109375
226	0x3fedac17c0000000	0.9272574186325073
227	0xbf8a53a9e0000000	-0.01285488810390234
228	0x3fe1154ca0000000	0.5338500142097473
229	0x3fedc7f340000000	0.9306579828262329
230	0xbf79ff1540000000	-0.006346781738102436
231	0x3fe058d2c0000000	0.5108426809310913
232	0x3fee1cc720000000	0.9410129189491272
233	0xbf816f1c20000000	-0.008512706495821476
234	0x3fdfd6dc80000000	0.4974890947341919
235	0x3fee040b40000000	0.9379936456680298
236	0xbf801260e0000000	-0.007847554050385952
237	0x3fdf3a9be0000000	0.48795220255851746
238	0x3fedd89fa0000000	0.9326933026313782
239	0xbf7c2030e0000000	-0.006866637151688337
240	0x3fe1218fa0000000	0.5353468060493469
241	0x3fedf49060000000	0.9361039996147156
242	0xbf678a3dc0000000	-0.0028735357336699963
243	0x3fe088bdc0000000	0.516692042350769
244	0x3fee308900000000	0.9434247016906738
245	0xbf716ebec0000000	-0.004256005398929119
246	0x3fe0266840000000	0.5046883821487427
247	0x3fee218c20000000	0.9415951371192932
248	0xbf6fc7d2c0000000	-0.0038794628344476223
249	0x3fdfbb6d60000000	0.49581465125083923
250	0x3fee0396a0000000	0.9379380345344543
251	0xbf68c52080000000	-0.0030236849561333656
252	0x3fdbfba180000000	0.4372333288192749
253	0x3fe1a06c20000000	0.5508328080177307
254	0xbe581e4060000000	-2.2461795978756527e-08
255	0x3fdc933d80000000	0.44648683071136475
