WLASL/keypoints_hello_name_javi/-b4_y6LOSx0_-b4_y6LOSx0_4-8-rgb_front.npy (npy, 30368 bytes, 1 tensors)

array f8 [30, 126]
0.6700206995010376 0.5510991811752319 -5.209934883509959e-08 0.6786966919898987 0.5138776302337646 -0.0036373089533299208 0.6768679618835449 0.4840104877948761
-0.007477242033928633 0.6614950895309448 0.4749491214752197 -0.010934318415820599 0.647821307182312 0.4804551601409912 -0.014635196886956692 0.6638247966766357
0.47422394156455994 -0.008688042871654034 0.6562680602073669 0.48221659660339355 -0.01611623726785183 0.6581419110298157 0.4913734197616577 -0.02218428999185562
0.6597492694854736 0.49655526876449585 -0.02600146271288395 0.6535043716430664 0.49712178111076355 -0.010765668004751205 0.6429275274276733 0.5010321140289307
-0.016999756917357445 0.6499822735786438 0.5092602968215942 -0.019784770905971527 0.6568169593811035 0.5154409408569336 -0.02141209878027439 0.6465205550193787
0.5208829045295715 -0.012967349030077457 0.6385551691055298 0.5222570300102234 -0.01926693506538868 0.6468005776405334 0.5264096260070801 -0.0184883251786232
0.6536057591438293 0.5281339287757874 -0.01700592413544655 0.6433877348899841 0.5426681637763977 -0.015321279875934124 0.638748049736023 0.5414694547653198
-0.018770182505249977 0.644455075263977 0.5433324575424194 -0.01605232059955597 0.648937463760376 0.5422386527061462 -0.013441890478134155 0.0
0.0 0.0 0.0 0.0 0.0 0.0 0.0 0.0
0.0 0.0 0.0 0.0 0.0 0.0 0.0 0.0
0.0 0.0 0.0 0.0 0.0 0.0 0.0 0.0
0.0 0.0 0.0 0.0 0.0 0.0 0.0 0.0
0.0 0.0 0.0 0.0 0.0 0.0 0.0 0.0
0.0 0.0 0.0 0.0 0.0 0.0 0.0 0.0
0.0 0.0 0.0 0.0 0.0 0.0 0.0 0.0
0.0 0.0 0.0 0.0 0.0 0.0 0.4036842882633209 0.5461711287498474
-2.1921206183606046e-08 0.4043358564376831 0.5083034634590149 9.357916860608384e-05 0.41300877928733826 0.47679147124290466 -0.0026889066211879253 0.426152765750885
0.4618872106075287 -0.006265085190534592 0.4366965889930725 0.4602355360984802 -0.008932558819651604 0.4116910994052887 0.46297234296798706 -0.004186292178928852
0.4366058111190796 0.45210960507392883 -0.009561503306031227 0.4353567361831665 0.46185198426246643 -0.012438172474503517 0.42893996834754944 0.46645763516426086
-0.013863700442016125 0.4160770773887634 0.4803233742713928 -0.00739718833938241 0.4397040009498596 0.47187554836273193 -0.010599319823086262 0.43610143661499023
0.47979119420051575 -0.010311518795788288 0.4282049536705017 0.48457443714141846 -0.010330958291888237 0.4212522506713867 0.4985644817352295 -0.010790374130010605
0.4404740631580353 0.49113544821739197 -0.011310805566608906 0.4364203214645386 0.4970238208770752 -0.007970328442752361 0.4286971688270569 0.5002538561820984
-0.006333812605589628 0.4259711802005768 0.5166913866996765 -0.014566279947757721 0.4402490556240082 0.507532000541687 -0.01254219375550747 0.43662190437316895
0.5127978324890137 -0.00846148282289505 0.4296412765979767 0.5168380737304688 -0.006009956821799278 0.676501989364624 0.5457992553710938 7.626279163730487e-09
0.6783407330513 0.5137964487075806 -0.003210000693798065 0.6718177199363708 0.4836615324020386 -0.006934520788490772 0.6579726338386536 0.47129061818122864
-0.009399035945534706 0.6450828909873962 0.4752355217933655 -0.012830470688641071 0.6799538135528564 0.510761559009552 -0.016283603385090828 0.6643934845924377
0.5016816854476929 -0.022138260304927826 0.6560293436050415 0.4932548999786377 -0.025496330112218857 0.6513509154319763 0.48717015981674194 -0.027332643046975136
0.6733552813529968 0.5342159271240234 -0.017210662364959717 0.6521729230880737 0.5160249471664429 -0.02181151509284973 0.6438347101211548 0.504695475101471
-0.02334190532565117 0.6412233114242554 0.4996669292449951 -0.024973351508378983 0.6662036776542664 0.5519129633903503 -0.017448799684643745 0.645939826965332
0.5328717231750488 -0.021321440115571022 0.639401912689209 0.5223987698554993 -0.020709427073597908 0.6381576061248779 0.516602635383606 -0.020385004580020905
0.6590762734413147 0.5650948882102966 -0.01751123182475567 0.6429722905158997 0.5499773025512695 -0.020191609859466553 0.6372084617614746 0.5405271053314209
-0.019010189920663834 0.6348171234130859 0.5347550511360168 -0.018303222954273224 0.0 0.0 0.0 0.0
00000000: 0000 0040 cf70 e53f 0000 00c0 9aa2 e13f
00000010: 0000 00e0 7af8 6bbe 0000 0020 e2b7 e53f
00000020: 0000 0080 af71 e03f 0000 0060 fdcb 6dbf
00000030: 0000 0000 e7a8 e53f 0000 0020 07fa de3f
00000040: 0000 00e0 74a0 7ebf 0000 00c0 f72a e53f
00000050: 0000 0000 9165 de3f 0000 0060 bb64 86bf
00000060: 0000 00c0 f3ba e43f 0000 0000 c7bf de3f
00000070: 0000 00e0 0ef9 8dbf 0000 0080 0d3e e53f
00000080: 0000 0060 af59 de3f 0000 0060 09cb 81bf
00000090: 0000 00e0 2500 e53f 0000 0000 a3dc de3f
000000a0: 0000 0060 c680 90bf 0000 00a0 7f0f e53f
000000b0: 0000 0080 a972 df3f 0000 0080 7ab7 96bf
000000c0: 0000 0080 aa1c e53f 0000 00c0 8fc7 df3f
000000d0: 0000 00a0 20a0 9abf 0000 0000 82e9 e43f
000000e0: 0000 00e0 d7d0 df3f 0000 0080 4f0c 86bf
000000f0: 0000 00c0 dc92 e43f 0000 0080 7408 e03f
00000100: 0000 0060 6268 91bf 0000 00a0 a7cc e43f
00000110: 0000 0040 dc4b e03f 0000 0080 7542 94bf
00000120: 0000 0000 a504 e53f 0000 0000 7e7e e03f
00000130: 0000 00a0 0ded 95bf 0000 00e0 4bb0 e43f
00000140: 0000 00a0 12ab e03f 0000 0020 a08e 8abf
00000150: 0000 0040 0b6f e43f 0000 0060 54b6 e03f
00000160: 0000 0020 b6ba 93bf 0000 0020 97b2 e43f
00000170: 0000 0000 59d8 e03f 0000 0080 9aee 92bf
00000180: 0000 00a0 56ea e43f 0000 0020 79e6 e03f
00000190: 0000 0040 006a 91bf 0000 00e0 a196 e43f
000001a0: 0000 00a0 895d e13f 0000 0060 c360 8fbf
000001b0: 0000 00c0 9f70 e43f 0000 00c0 b753 e13f
000001c0: 0000 00a0 7d38 93bf 0000 0040 609f e43f
000001d0: 0000 00c0 fa62 e13f 0000 0000 0570 90bf
000001e0: 0000 0080 18c4 e43f 0000 00e0 045a e13f
000001f0: 0000 0000 6c87 8bbf 0000 0000 0000 0000
00000200: 0000 0000 0000 0000 0000 0000 0000 0000
00000210: 0000 0000 0000 0000 0000 0000 0000 0000
00000220: 0000 0000 0000 0000 0000 0000 0000 0000
00000230: 0000 0000 0000 0000 0000 0000 0000 0000
00000240: 0000 0000 0000 0000 0000 0000 0000 0000
00000250: 0000 0000 0000 0000 0000 0000 0000 0000
00000260: 0000 0000 0000 0000 0000 0000 0000 0000
00000270: 0000 0000 0000 0000 0000 0000 0000 0000
00000280: 0000 0000 0000 0000 0000 0000 0000 0000
00000290: 0000 0000 0000 0000 0000 0000 0000 0000
000002a0: 0000 0000 0000 0000 0000 0000 0000 0000
000002b0: 0000 0000 0000 0000 0000 0000 0000 0000
000002c0: 0000 0000 0000 0000 0000 0000 0000 0000
000002d0: 0000 0000 0000 0000 0000 0000 0000 0000
000002e0: 0000 0000 0000 0000 0000 0000 0000 0000
000002f0: 0000 0000 0000 0000 0000 0000 0000 0000
00000300: 0000 0000 0000 0000 0000 0000 0000 0000
00000310: 0000 0000 0000 0000 0000 0000 0000 0000
00000320: 0000 0000 0000 0000 0000 0000 0000 0000
00000330: 0000 0000 0000 0000 0000 0000 0000 0000
00000340: 0000 0000 0000 0000 0000 0000 0000 0000
00000350: 0000 0000 0000 0000 0000 0000 0000 0000
00000360: 0000 0000 0000 0000 0000 0000 0000 0000
00000370: 0000 0000 0000 0000 0000 0000 0000 0000
00000380: 0000 0000 0000 0000 0000 0000 0000 0000
00000390: 0000 0000 0000 0000 0000 0000 0000 0000
000003a0: 0000 0000 0000 0000 0000 0000 0000 0000
000003b0: 0000 0000 0000 0000 0000 0000 0000 0000
000003c0: 0000 0000 0000 0000 0000 0000 0000 0000
000003d0: 0000 0000 0000 0000 0000 0000 0000 0000
000003e0: 0000 0000 0000 0000 0000 0000 0000 0000
000003f0: 0000 00a0 f6d5 d93f 0000 00e0 3b7a e13f
00000400: 0000 00c0 a789 57be 0000 0080 a3e0 d93f
00000410: 0000 00a0 0544 e03f 0000 00e0 fd87 183f
00000420: 0000 0060 bc6e da3f 0000 0060 c083 de3f
00000430: 0000 00c0 0b07 66bf 0000 0040 1646 db3f
00000440: 0000 0060 8f8f dd3f 0000 0000 6ba9 79bf
00000450: 0000 0040 d6f2 db3f 0000 00c0 7f74 dd3f
00000460: 0000 00c0 3b4b 82bf 0000 00a0 2559 da3f
00000470: 0000 00c0 56a1 dd3f 0000 0040 a525 71bf
00000480: 0000 0080 59f1 db3f 0000 0020 5def dc3f
00000490: 0000 0040 fb94 83bf 0000 0080 e2dc db3f
000004a0: 0000 00a0 fb8e dd3f 0000 0040 2f79 89bf
000004b0: 0000 00a0 c073 db3f 0000 0020 71da dd3f
000004c0: 0000 0060 9264 8cbf 0000 00c0 01a1 da3f
000004d0: 0000 0040 9ebd de3f 0000 00a0 834c 7ebf
000004e0: 0000 0040 1c24 dc3f 0000 0080 3533 de3f
000004f0: 0000 00a0 18b5 85bf 0000 0000 16e9 db3f
00000500: 0000 0020 e6b4 de3f 0000 00a0 341e 85bf
00000510: 0000 00c0 b567 db3f 0000 0080 4403 df3f
00000520: 0000 00c0 6528 85bf 0000 0000 ccf5 da3f
00000530: 0000 0000 7be8 df3f 0000 0080 4319 86bf
00000540: 0000 0020 ba30 dc3f 0000 0060 c36e df3f
00000550: 0000 00a0 1e2a 87bf 0000 0080 4fee db3f
00000560: 0000 0000 3dcf df3f 0000 0060 bf52 80bf
00000570: 0000 0040 c66f db3f 0000 0060 1402 e03f
00000580: 0000 00e0 7bf1 79bf 0000 00a0 1c43 db3f
00000590: 0000 0060 bc88 e03f 0000 0000 edd4 8dbf
000005a0: 0000 0060 0a2d dc3f 0000 00c0 b33d e03f
000005b0: 0000 00c0 b8af 89bf 0000 0000 9df1 db3f
000005c0: 0000 0000 d768 e03f 0000 0000 4154 81bf
000005d0: 0000 0020 3e7f db3f 0000 0000 f089 e03f
000005e0: 0000 0080 e59d 78bf 0000 0080 e7a5 e53f
000005f0: 0000 0000 3077 e13f 0000 0060 9760 403e
00000600: 0000 00a0 f7b4 e53f 0000 0040 0571 e03f
00000610: 0000 0000 dc4b 6abf 0000 00e0 877f e53f
00000620: 0000 0080 4ff4 de3f 0000 0040 5f67 7cbf
00000630: 0000 00a0 1c0e e53f 0000 0020 a029 de3f
00000640: 0000 0040 cd3f 83bf 0000 00e0 84a4 e43f
00000650: 0000 0040 426a de3f 0000 00a0 dc46 8abf
00000660: 0000 0080 2ec2 e53f 0000 00a0 2858 e03f
00000670: 0000 0020 a6ac 90bf 0000 0020 b642 e53f
00000680: 0000 00c0 c60d e03f 0000 0080 69ab 96bf
00000690: 0000 0040 31fe e43f 0000 0000 7d91 df3f
000006a0: 0000 00c0 b51b 9abf 0000 00e0 ddd7 e43f
000006b0: 0000 00c0 cb2d df3f 0000 00a0 16fd 9bbf
000006c0: 0000 0060 208c e53f 0000 0000 4c18 e13f
000006d0: 0000 0000 ac9f 91bf 0000 00c0 99de e43f
000006e0: 0000 00c0 4683 e03f 0000 0000 c255 96bf
000006f0: 0000 0040 4b9a e43f 0000 0020 7726 e03f
00000700: 0000 00c0 f0e6 97bf 0000 00c0 e684 e43f
00000710: 0000 0000 8bfa df3f 0000 0040 9d92 99bf
00000720: 0000 0060 8a51 e53f 0000 0060 45a9 e13f
00000730: 0000 0020 19de 91bf 0000 0000 8aab e43f
00000740: 0000 0000 490d e13f 0000 00a0 49d5 95bf
00000750: 0000 0000 fb75 e43f 0000 00a0 7db7 e03f
00000760: 0000 0020 da34 95bf 0000 0080 c96b e43f
00000770: 0000 0040 0288 e03f 0000 0080 cedf 94bf
00000780: 0000 0020 2717 e53f 0000 00e0 4115 e23f
00000790: 0000 00e0 76ee 91bf 0000 00a0 3a93 e43f
000007a0: 0000 0000 6a99 e13f 0000 0000 1cad 94bf
000007b0: 0000 0000 0364 e43f 0000 0080 ff4b e13f
000007c0: 0000 0040 6877 93bf 0000 0000 6c50 e43f
000007d0: 0000 00a0 b61c e13f 0000 0080 14be 92bf
000007e0: 0000 0000 0000 0000 0000 0000 0000 0000
000007f0: 0000 0000 0000 0000 0000 0000 0000 0000
