WLASL/keypoints_hello_name_javi/-b4_y6LOSx0_-b4_y6LOSx0_10-8-rgb_front.npy (npy, 30368 bytes, 1 tensors)

array f8 [30, 126]
000000 00 00 00 80 84 6a de 3f 00 00 00 c0 43 d3 e2 3f
       0.47525131702423096 0.5882891416549683
000010 00 00 00 e0 f2 1b 4d be 00 00 00 20 06 11 de 3f
       -1.3555015776489654e-08 0.469789057970047
000020 00 00 00 a0 2c e6 e1 3f 00 00 00 20 59 72 62 bf
       0.5593474507331848 -0.0022517910692840815
000030 00 00 00 c0 cf 2f de 3f 00 00 00 80 23 ef e0 3f
       0.47166818380355835 0.5291917324066162
000040 00 00 00 20 09 b5 75 bf 00 00 00 00 ce 32 de 3f
       -0.005299602169543505 0.4718508720397949
000050 00 00 00 20 09 2b e0 3f 00 00 00 a0 63 ff 81 bf
       0.5052533745765686 -0.008787897415459156
000060 00 00 00 40 6a fc dd 3f 00 00 00 40 54 2b df 3f
       0.46853119134902954 0.4870195984840393
000070 00 00 00 00 8c 01 89 bf 00 00 00 c0 61 cf df 3f
       -0.012209981679916382 0.4970325827598572
000080 00 00 00 60 34 b8 e0 3f 00 00 00 c0 ab 1d 67 bf
       0.5224859118461609 -0.002821765374392271
000090 00 00 00 80 0d 5c e0 3f 00 00 00 c0 6f 80 e0 3f
       0.5112369060516357 0.5156782865524292
0000a0 00 00 00 60 19 36 75 bf 00 00 00 e0 7e b1 e0 3f
       -0.005178546067327261 0.521666944026947
0000b0 00 00 00 40 dc 70 e0 3f 00 00 00 e0 68 6e 7e bf
       0.5137768983840942 -0.007429513614624739
0000c0 00 00 00 00 48 f0 e0 3f 00 00 00 00 eb 71 e0 3f
       0.5293312072753906 0.5139060020446777
0000d0 00 00 00 00 e7 7e 83 bf 00 00 00 60 91 23 e0 3f
       -0.009519390761852264 0.5043417811393738
0000e0 00 00 00 00 eb 27 e1 3f 00 00 00 a0 bc cc 71 bf
       0.5361227989196777 -0.004345642868429422
0000f0 00 00 00 c0 f4 75 e0 3f 00 00 00 80 ae 48 e1 3f
       0.5143989324569702 0.5401222705841064
000100 00 00 00 20 71 ef 7e bf 00 00 00 80 8d 54 e0 3f
       -0.007552568335086107 0.5103213787078857
000110 00 00 00 a0 98 88 e1 3f 00 00 00 40 86 dd 82 bf
       0.5479243397712708 -0.0092115867882967
000120 00 00 00 00 c4 25 e0 3f 00 00 00 60 5d ad e1 3f
       0.5046100616455078 0.5524126887321472
000130 00 00 00 80 44 d6 85 bf 00 00 00 80 97 4d e0 3f
       -0.010662589222192764 0.5094716548919678
000140 00 00 00 c0 ed b9 e1 3f 00 00 00 00 6e 5a 78 bf
       0.5539463758468628 -0.005945615470409393
000150 00 00 00 00 af a8 e0 3f 00 00 00 60 4a b1 e1 3f
       0.5205912590026855 0.5528919100761414
000160 00 00 00 a0 a9 b0 85 bf 00 00 00 a0 3a 90 e0 3f
       -0.010590863414108753 0.5176060795783997
000170 00 00 00 60 63 ec e1 3f 00 00 00 60 73 bf 84 bf
       0.5601059794425964 -0.010130788199603558
000180 00 00 00 60 17 63 e0 3f 00 00 00 00 26 18 e2 3f
       0.512096107006073 0.5654478073120117
000190 00 00 00 80 19 28 83 bf 00 00 00 80 de 67 e0 3f
       -0.009353827685117722 0.5126793384552002
0001a0 00 00 00 40 12 58 e2 3f 00 00 00 60 4d ee 7e bf
       0.5732508897781372 -0.007551481481641531
0001b0 00 00 00 e0 96 db e0 3f 00 00 00 80 7e 3c e2 3f
       0.5268053412437439 0.5698845386505127
0001c0 00 00 00 20 96 bf 87 bf 00 00 00 80 e2 17 e1 3f
       -0.0115958908572793 0.534165620803833
0001d0 00 00 00 60 81 45 e2 3f 00 00 00 c0 4e f1 86 bf
       0.5709845423698425 -0.01120244525372982
0001e0 00 00 00 60 45 41 e1 3f 00 00 00 80 db 4d e2 3f
       0.5392176508903503 0.5720040798187256
0001f0 00 00 00 e0 63 dc 84 bf 00 00 00 40 f6 fb e1 3f
       -0.010185985825955868 0.5620070695877075
000200 00 00 00 80 84 5c ea 3f 00 00 00 c0 c9 da 72 3e
       0.8237936496734619 7.02390110518536e-08
000210 00 00 00 40 31 df e1 3f 00 00 00 80 a5 9d e9 3f
       0.5584951639175415 0.8004939556121826
000220 00 00 00 40 2a a8 8c bf 00 00 00 c0 82 6d e1 3f
       -0.01399262435734272 0.5446180105209351
000230 00 00 00 80 35 21 e9 3f 00 00 00 40 2d 77 98 bf
       0.7853038311004639 -0.023892123252153397
000240 00 00 00 40 05 03 e1 3f 00 00 00 00 9f d2 e8 3f
       0.5316187143325806 0.7757105827331543
000250 00 00 00 a0 b2 0c a0 bf 00 00 00 e0 c8 ce e0 3f
       -0.0313468761742115 0.525242269039154
000260 00 00 00 00 7d 4d e8 3f 00 00 00 e0 69 94 a3 bf
       0.7594590187072754 -0.0382416807115078
000270 00 00 00 c0 55 38 e1 3f 00 00 00 80 54 b7 e9 3f
       0.5381268262863159 0.8036291599273682
000280 00 00 00 c0 1a 28 9b bf 00 00 00 20 26 a3 e0 3f
       -0.026520173996686935 0.5199156403541565
000290 00 00 00 e0 49 62 e9 3f 00 00 00 e0 f8 fa a3 bf
       0.7932481169700623 -0.03902414068579674
0002a0 00 00 00 20 c1 5d e0 3f 00 00 00 c0 09 f3 e8 3f
       0.511444628238678 0.7796677350997925
0002b0 00 00 00 c0 d8 8c a7 bf 00 00 00 00 8d 3b e0 3f
       -0.04599644988775253 0.5072693824768066
0002c0 00 00 00 20 3f 9c e8 3f 00 00 00 80 3a 6e a9 bf
       0.7690730690956116 -0.04966910183429718
0002d0 00 00 00 00 ba 02 e1 3f 00 00 00 e0 28 6d ea 3f
       0.5315828323364258 0.8258251547813416
0002e0 00 00 00 40 64 be 97 bf 00 00 00 60 ee 83 e0 3f
       -0.023187223821878433 0.5161048769950867
0002f0 00 00 00 e0 1e d9 e9 3f 00 00 00 20 19 0e a2 bf
       0.8077539801597595 -0.03526381030678749
000300 00 00 00 c0 6e 99 e0 3f 00 00 00 00 b4 94 e9 3f
       0.518729567527771 0.7994022369384766
000310 00 00 00 c0 6b 39 a3 bf 00 00 00 e0 82 c1 e0 3f
       -0.037547461688518524 0.5236219763755798
000320 00 00 00 00 2c 8d e9 3f 00 00 00 e0 36 39 a3 bf
       0.7984828948974609 -0.037545885890722275
000330 00 00 00 a0 4e da e0 3f 00 00 00 20 5e e7 ea 3f
       0.5266488194465637 0.8407431244850159
000340 00 00 00 60 1d e4 94 bf 00 00 00 a0 cf 6c e0 3f
       -0.02040143869817257 0.5132825970649719
000350 00 00 00 c0 ac 32 ea 3f 00 00 00 a0 c8 b7 9e bf
       0.8186858892440796 -0.02999795414507389
000360 00 00 00 80 de 91 e0 3f 00 00 00 c0 58 f8 e9 3f
       0.5178062915802002 0.8115657567977905
000370 00 00 00 a0 43 43 9d bf 00 00 00 c0 21 bc e0 3f
       -0.02857690490782261 0.5229653120040894
000380 00 00 00 40 6f f9 e9 3f 00 00 00 40 8d a2 9a bf
       0.8116985559463501 -0.02601071074604988
000390 00 00 00 80 36 bf e0 3f 00 00 00 60 9d 2c eb 3f
       0.5233414173126221 0.8491961359977722
0003a0 00 00 00 c0 e2 1e 93 bf 00 00 00 c0 3a 6d e0 3f
       -0.018672507256269455 0.5133336782455444
0003b0 00 00 00 40 c4 81 ea 3f 00 00 00 40 53 c6 98 bf
       0.8283406496047974 -0.024194050580263138
0003c0 00 00 00 e0 cb 97 e0 3f 00 00 00 40 e0 40 ea 3f
       0.5185298323631287 0.820419430732727
0003d0 00 00 00 20 da 26 97 bf 00 00 00 60 cc c4 e0 3f
       -0.022609146311879158 0.5240232348442078
0003e0 00 00 00 e0 cd 33 ea 3f 00 00 00 e0 d1 cc 94 bf
       0.8188237547874451 -0.02031257562339306
0003f0 00 00 00 40 0b 8b dd 3f 00 00 00 60 89 af e2 3f
       0.4616115689277649 0.5839278101921082
000400 00 00 00 c0 0f 21 65 3e 00 00 00 60 e3 8f dd 3f
       3.935610237704168e-08 0.4619072377681732
000410 00 00 00 80 2d ad e1 3f 00 00 00 20 ae 05 48 bf
       0.5523898601531982 -0.0007330990047194064
000420 00 00 00 c0 28 e2 dd 3f 00 00 00 c0 48 a1 e0 3f
       0.4669286608695984 0.5196880102157593
000430 00 00 00 60 b4 9c 6d bf 00 00 00 60 30 e4 dd 3f
       -0.00361476163379848 0.46705254912376404
000440 00 00 00 00 f4 9c df 3f 00 00 00 00 b5 2f 7e bf
       0.4939546585083008 -0.007369715720415115
000450 00 00 00 20 a4 a0 dd 3f 00 00 00 80 88 77 de 3f
       0.46292975544929504 0.47604572772979736
000460 00 00 00 80 a5 f4 86 bf 00 00 00 80 7e 32 df 3f
       -0.011208813637495041 0.48745691776275635
000470 00 00 00 80 c9 54 e0 3f 00 00 00 80 c5 d8 5c bf
       0.5103499889373779 -0.001760666724294424
000480 00 00 00 20 b5 22 e0 3f 00 00 00 00 e7 e3 df 3f
       0.5042367577552795 0.49828505516052246
000490 00 00 00 c0 a3 5a 72 bf 00 00 00 e0 c9 85 e0 3f
       -0.004480971954762936 0.5163316130638123
0004a0 00 00 00 00 ba b3 df 3f 00 00 00 60 c7 7b 7b bf
       0.4953446388244629 -0.006709841545671225
0004b0 00 00 00 c0 e0 cf e0 3f 00 00 00 00 e5 aa df 3f
       0.5253757238388062 0.49480557441711426
0004c0 00 00 00 60 b6 48 81 bf 00 00 00 80 2a a1 df 3f
       -0.008439469151198864 0.4942117929458618
0004d0 00 00 00 a0 50 c1 e0 3f 00 00 00 60 48 81 71 bf
       0.5235980153083801 -0.004273684229701757
0004e0 00 00 00 e0 26 47 e0 3f 00 00 00 00 61 ea e0 3f
       0.5086855292320251 0.5286107063293457
0004f0 00 00 00 80 34 b1 80 bf 00 00 00 60 2a 3b e0 3f
       -0.008150491863489151 0.5072223544120789
000500 00 00 00 a0 b7 43 e1 3f 00 00 00 00 80 30 84 bf
       0.539516270160675 -0.009858131408691406
000510 00 00 00 c0 a5 1f e0 3f 00 00 00 00 38 72 e1 3f
       0.5038632154464722 0.5451927185058594
000520 00 00 00 60 89 25 86 bf 00 00 00 80 24 f9 df 3f
       -0.010813782922923565 0.4995814561843872
000530 00 00 00 80 94 50 e1 3f 00 00 00 e0 e3 df 7b bf
       0.5410864353179932 -0.006805315148085356
000540 00 00 00 20 cf 74 e0 3f 00 00 00 00 ad 60 e1 3f
       0.5142589211463928 0.5430512428283691
000550 00 00 00 20 91 03 86 bf 00 00 00 60 86 68 e0 3f
       -0.010748990811407566 0.5127593874931335
000560 00 00 00 c0 26 a9 e1 3f 00 00 00 60 01 b8 84 bf
       0.5518983602523804 -0.01011658739298582
000570 00 00 00 a0 94 49 e0 3f 00 00 00 a0 6c d1 e1 3f
       0.5089820027351379 0.5568144917488098
000580 00 00 00 80 92 d6 82 bf 00 00 00 80 af 18 e0 3f
       -0.009198326617479324 0.5030133724212646
000590 00 00 00 e0 d6 ed e1 3f 00 00 00 40 96 23 83 bf
       0.5602831244468689 -0.009345220401883125
0005a0 00 00 00 60 4e 94 e0 3f 00 00 00 20 f5 c4 e1 3f
       0.5181037783622742 0.5552926659584045
0005b0 00 00 00 60 c3 56 87 bf 00 00 00 c0 e8 de e0 3f
       -0.011395956389605999 0.5272105932235718
0005c0 00 00 00 a0 dc c6 e1 3f 00 00 00 e0 5b b7 84 bf
       0.5555251240730286 -0.01011535432189703
0005d0 00 00 00 20 5a 18 e1 3f 00 00 00 e0 53 c9 e1 3f
       0.5342226624488831 0.5558261275291443
0005e0 00 00 00 00 ca 06 82 bf 00 00 00 80 8f 5b e2 3f
       -0.008802011609077454 0.5736768245697021
0005f0 00 00 00 a0 72 fb e9 3f 00 00 00 00 e3 95 80 3e
       0.811944305896759 1.2357156720099738e-07
000600 00 00 00 40 06 54 e2 3f 00 00 00 e0 08 34 e9 3f
       0.5727568864822388 0.787601888179779
000610 00 00 00 20 2c 9c 83 bf 00 00 00 40 77 12 e2 3f
       -0.00957521889358759 0.5647541284561157
000620 00 00 00 20 d4 b9 e8 3f 00 00 00 80 6c 72 91 bf
       0.7726841568946838 -0.017038054764270782
000630 00 00 00 c0 cb cb e1 3f 00 00 00 80 1b b4 e8 3f
       0.5561274290084839 0.7719857692718506
000640 00 00 00 80 89 00 97 bf 00 00 00 a0 4b 95 e1 3f
       -0.022462986409664154 0.5494745373725891
000650 00 00 00 00 71 c8 e8 3f 00 00 00 e0 c6 65 9c bf
       0.774467945098877 -0.02773199789226055
000660 00 00 00 80 66 c2 e1 3f 00 00 00 a0 a3 2a e9 3f
       0.5549805164337158 0.786454975605011
000670 00 00 00 00 0e 28 97 bf 00 00 00 80 8a 30 e1 3f
       -0.022613734006881714 0.5371754169464111
000680 00 00 00 c0 b2 e1 e8 3f 00 00 00 c0 a4 3c a0 bf
       0.7775510549545288 -0.03171267360448837
000690 00 00 00 20 2b d8 e0 3f 00 00 00 40 e6 89 e8 3f
       0.5263877511024475 0.7668334245681763
0006a0 00 00 00 40 7d 86 a2 bf 00 00 00 e0 2a a3 e0 3f
       -0.03618232160806656 0.519917905330658
0006b0 00 00 00 a0 da 3f e8 3f 00 00 00 c0 90 95 a3 bf
       0.7577946782112122 -0.03825046867132187
0006c0 00 00 00 c0 06 95 e1 3f 00 00 00 40 66 c6 e9 3f
       0.5494416952133179 0.8054686784744263
0006d0 00 00 00 80 ee 77 94 bf 00 00 00 c0 a0 f4 e0 3f
       -0.019988752901554108 0.5298618078231812
0006e0 00 00 00 60 7c 73 e9 3f 00 00 00 a0 c0 21 9c bf
       0.7953473925590515 -0.02747250534594059
0006f0 00 00 00 60 92 b2 e0 3f 00 00 00 00 56 fb e8 3f
       0.521798312664032 0.7806806564331055
000700 00 00 00 00 1e 97 9d bf 00 00 00 00 72 9a e0 3f
       -0.02889677882194519 0.5188531875610352
000710 00 00 00 40 67 94 e8 3f 00 00 00 c0 54 02 9e bf
       0.7681156396865845 -0.02930576726794243
000720 00 00 00 00 63 71 e1 3f 00 00 00 00 08 2f ea 3f
       0.5450911521911621 0.8182411193847656
000730 00 00 00 a0 1c c6 91 bf 00 00 00 00 20 dd e0 3f
       -0.017357299104332924 0.5269927978515625
000740 00 00 00 80 20 cf e9 3f 00 00 00 80 db 08 97 bf
       0.8065340518951416 -0.02249472588300705
000750 00 00 00 a0 c1 b0 e0 3f 00 00 00 40 45 4e e9 3f
       0.5215767025947571 0.7908045053482056
000760 00 00 00 60 38 cd 96 bf 00 00 00 a0 d2 a4 e0 3f
       -0.022267227992415428 0.5201199650764465
000770 00 00 00 c0 32 de e8 3f 00 00 00 c0 f2 23 96 bf
       0.7771238088607788 -0.02162150666117668
000780 00 00 00 40 8a 5b e1 3f 00 00 00 80 79 68 ea 3f
       0.5424243211746216 0.8252532482147217
000790 00 00 00 e0 ce 42 8f bf 00 00 00 80 4b e6 e0 3f
       -0.015264145098626614 0.5281121730804443
0007a0 00 00 00 e0 39 07 ea 3f 00 00 00 60 65 dd 92 bf
       0.813382089138031 -0.01842268370091915
0007b0 00 00 00 40 cc b8 e0 3f 00 00 00 e0 8a 8d e9 3f
       0.522558331489563 0.7985281348228455
0007c0 00 00 00 a0 e7 a2 92 bf 00 00 00 00 72 a8 e0 3f
       -0.018199557438492775 0.5205621719360352
0007d0 00 00 00 80 b4 2c e9 3f 00 00 00 60 10 05 92 bf
       0.7867071628570557 -0.017597442492842674
0007e0 00 00 00 e0 cb 16 dd 3f 00 00 00 40 a1 1f e2 3f
       0.45451638102531433 0.5663610696792603
0007f0 00 00 00 c0 61 b5 7d 3e 00 00 00 a0 86 30 dd 3f
       1.1067287175592355e-07 0.45608678460121155
