WLASL/keypoints_hello_name_javi/-b4_y6LOSx0_-b4_y6LOSx0_8-8-rgb_front.npy (npy, 30368 bytes, 1 tensors)

array f8 [30, 126]
00000000: 0000 0000 0000 0000 0000 0000 0000 0000
00000010: 0000 0000 0000 0000 0000 0000 0000 0000
00000020: 0000 0000 0000 0000 0000 0000 0000 0000
00000030: 0000 0000 0000 0000 0000 0000 0000 0000
00000040: 0000 0000 0000 0000 0000 0000 0000 0000
00000050: 0000 0000 0000 0000 0000 0000 0000 0000
00000060: 0000 0000 0000 0000 0000 0000 0000 0000
00000070: 0000 0000 0000 0000 0000 0000 0000 0000
00000080: 0000 0000 0000 0000 0000 0000 0000 0000
00000090: 0000 0000 0000 0000 0000 0000 0000 0000
000000a0: 0000 0000 0000 0000 0000 0000 0000 0000
000000b0: 0000 0000 0000 0000 0000 0000 0000 0000
000000c0: 0000 0000 0000 0000 0000 0000 0000 0000
000000d0: 0000 0000 0000 0000 0000 0000 0000 0000
000000e0: 0000 0000 0000 0000 0000 0000 0000 0000
000000f0: 0000 0000 0000 0000 0000 0000 0000 0000
00000100: 0000 0000 0000 0000 0000 0000 0000 0000
00000110: 0000 0000 0000 0000 0000 0000 0000 0000
00000120: 0000 0000 0000 0000 0000 0000 0000 0000
00000130: 0000 0000 0000 0000 0000 0000 0000 0000
00000140: 0000 0000 0000 0000 0000 0000 0000 0000
00000150: 0000 0000 0000 0000 0000 0000 0000 0000
00000160: 0000 0000 0000 0000 0000 0000 0000 0000
00000170: 0000 0000 0000 0000 0000 0000 0000 0000
00000180: 0000 0000 0000 0000 0000 0000 0000 0000
00000190: 0000 0000 0000 0000 0000 0000 0000 0000
000001a0: 0000 0000 0000 0000 0000 0000 0000 0000
000001b0: 0000 0000 0000 0000 0000 0000 0000 0000
000001c0: 0000 0000 0000 0000 0000 0000 0000 0000
000001d0: 0000 0000 0000 0000 0000 0000 0000 0000
000001e0: 0000 0000 0000 0000 0000 0000 0000 0000
000001f0: 0000 0000 0000 0000 0000 0020 50d9 e33f
00000200: 0000 00a0 58b0 e53f 0000 0000 8676 4cbe
00000210: 0000 0040 49df e33f 0000 00c0 c466 e43f
00000220: 0000 0020 a3bb 423f 0000 0020 16c0 e33f
00000230: 0000 0060 9a7a e33f 0000 0040 4a89 53bf
00000240: 0000 0000 01ab e33f 0000 00e0 b2d6 e23f
00000250: 0000 00a0 c9cc 70bf 0000 00c0 bca6 e33f
00000260: 0000 0020 4d59 e23f 0000 0060 d732 7abf
00000270: 0000 0060 ffe5 e23f 0000 0040 7272 e33f
00000280: 0000 0080 82cd 583f 0000 0060 46c6 e23f
00000290: 0000 0020 e5cb e23f 0000 0040 10fa 5bbf
000002a0: 0000 0040 6bfe e23f 0000 0060 f801 e33f
000002b0: 0000 00a0 cb1e 75bf 0000 0060 501c e33f
000002c0: 0000 00c0 8257 e33f 0000 0040 2df9 7dbf
000002d0: 0000 0020 baa7 e23f 0000 00e0 ab09 e43f
000002e0: 0000 0020 251f 49bf 0000 0080 4e90 e23f
000002f0: 0000 0000 3356 e33f 0000 0040 0391 5abf
00000300: 0000 0000 bac5 e23f 0000 00e0 a676 e33f
00000310: 0000 0020 b031 65bf 0000 0040 18e6 e23f
00000320: 0000 00a0 99c2 e33f 0000 0000 9757 6dbf
00000330: 0000 00a0 0585 e23f 0000 0040 0ba1 e43f
00000340: 0000 0000 ca6d 6abf 0000 00c0 d174 e23f
00000350: 0000 0060 fde2 e33f 0000 00c0 7dbd 64bf
00000360: 0000 00c0 cca2 e23f 0000 0000 22f5 e33f
00000370: 0000 0020 405a 43bf 0000 00e0 5ec5 e23f
00000380: 0000 0000 033c e43f 0000 0080 46f0 253f
00000390: 0000 0020 7175 e23f 0000 0040 6b30 e53f
000003a0: 0000 0080 9292 78bf 0000 0080 ee66 e23f
000003b0: 0000 00a0 2b87 e43f 0000 00a0 9acc 70bf
000003c0: 0000 0020 0091 e23f 0000 00e0 5784 e43f
000003d0: 0000 0000 fdf5 42bf 0000 00e0 47b0 e23f
000003e0: 0000 00a0 10bb e43f 0000 0040 004b 603f
000003f0: 0000 00a0 ba10 dd3f 0000 0000 3bc4 e43f
00000400: 0000 0080 3c15 76be 0000 0060 f068 dc3f
00000410: 0000 0000 6fef e33f 0000 0080 b81f 64bf
00000420: 0000 0080 a8f9 db3f 0000 0000 2003 e33f
00000430: 0000 0040 d3b4 7ebf 0000 0060 1d7f db3f
00000440: 0000 0080 ac49 e23f 0000 00a0 dc76 89bf
00000450: 0000 0000 cde7 da3f 0000 00a0 71db e13f
00000460: 0000 0020 8bf6 90bf 0000 00e0 e215 dd3f
00000470: 0000 0080 74c2 e23f 0000 0060 41b0 87bf
00000480: 0000 00c0 62c5 dd3f 0000 0040 077d e13f
00000490: 0000 0000 72ac 90bf 0000 00a0 9287 dd3f
000004a0: 0000 0080 0dca e13f 0000 0060 87bc 91bf
000004b0: 0000 0080 f84b dd3f 0000 0000 6838 e23f
000004c0: 0000 0080 c07e 91bf 0000 00e0 60d5 dd3f
000004d0: 0000 0040 860d e33f 0000 0040 0d00 8abf
000004e0: 0000 0000 2b58 de3f 0000 00a0 20c6 e13f
000004f0: 0000 00a0 5cfa 8ebf 0000 00e0 e908 de3f
00000500: 0000 00a0 9507 e23f 0000 0060 6bff 8bbf
00000510: 0000 0080 04d4 dd3f 0000 0060 076f e23f
00000520: 0000 00a0 3f2f 8abf 0000 00e0 fc71 de3f
00000530: 0000 00a0 035e e33f 0000 0080 38c6 8bbf
00000540: 0000 00c0 f5e9 de3f 0000 0040 c21c e23f
00000550: 0000 0060 a52d 8dbf 0000 0020 989e de3f
00000560: 0000 0080 3b50 e23f 0000 0040 cc49 85bf
00000570: 0000 0060 9d66 de3f 0000 0020 c7b3 e23f
00000580: 0000 0080 a115 81bf 0000 0000 b2f3 de3f
00000590: 0000 00e0 09ac e33f 0000 0060 17c2 8dbf
000005a0: 0000 00c0 0f40 df3f 0000 00e0 88ba e23f
000005b0: 0000 0000 184e 8dbf 0000 0040 3ff9 de3f
000005c0: 0000 0080 87da e23f 0000 0040 b5a4 85bf
000005d0: 0000 0060 bec5 de3f 0000 0020 6a29 e33f
000005e0: 0000 0040 1d76 80bf 0000 0060 05cc e33f
000005f0: 0000 00a0 d4fd e43f 0000 0060 a45b 473e
00000600: 0000 00e0 75e7 e33f 0000 00c0 a6c9 e33f
00000610: 0000 0000 6fef 41bf 0000 00a0 f9d1 e33f
00000620: 0000 0020 48b9 e23f 0000 00e0 1372 64bf
00000630: 0000 0020 adc3 e33f 0000 00e0 47e3 e13f
00000640: 0000 0040 91be 75bf 0000 00a0 2ed6 e33f
00000650: 0000 00c0 634b e13f 0000 0080 c7ce 7fbf
00000660: 0000 0000 d2f5 e23f 0000 0000 d68d e23f
00000670: 0000 00e0 1277 623f 0000 0060 10b7 e23f
00000680: 0000 00e0 5442 e23f 0000 00c0 bb3e 023f
00000690: 0000 00e0 22e2 e23f 0000 0080 3776 e23f
000006a0: 0000 0000 f87e 69bf 0000 00e0 2d0d e33f
000006b0: 0000 00c0 95b2 e23f 0000 0000 505a 74bf
000006c0: 0000 0020 76b3 e23f 0000 0080 091d e33f
000006d0: 0000 0020 7f7a 503f 0000 00c0 6e7f e23f
000006e0: 0000 00e0 47b9 e23f 0000 0040 3a11 503f
000006f0: 0000 0000 08a8 e23f 0000 0040 b9e2 e23f
00000700: 0000 0060 288d 02bf 0000 00a0 ccd1 e23f
00000710: 0000 0000 5923 e33f 0000 0000 b10f 4dbf
00000720: 0000 0020 3289 e23f 0000 00a0 4bb8 e33f
00000730: 0000 0060 cfb4 40bf 0000 0020 8f5d e23f
00000740: 0000 00a0 2441 e33f 0000 0040 c6e3 333f
00000750: 0000 0000 0383 e23f 0000 0020 2b62 e33f
00000760: 0000 0000 8cd1 5c3f 0000 00a0 24ad e23f
00000770: 0000 0060 e09d e33f 0000 0080 8553 643f
00000780: 0000 0060 bb71 e23f 0000 0080 bf4a e43f
00000790: 0000 00a0 e337 63bf 0000 0080 f049 e23f
000007a0: 0000 00c0 3fdd e33f 0000 0040 8617 40bf
000007b0: 0000 0000 056d e23f 0000 00a0 1ef1 e33f
000007c0: 0000 0080 b5c9 663f 0000 00c0 e58e e23f
000007d0: 0000 00c0 a220 e43f 0000 0060 2105 763f
000007e0: 0000 0000 21e2 dc3f 0000 00c0 c32e e43f
000007f0: 0000 0040 3fe3 61be 0000 0080 2b3f dc3f
0.0 0.0 0.0 0.0 0.0 0.0 0.0 0.0
0.0 0.0 0.0 0.0 0.0 0.0 0.0 0.0
0.0 0.0 0.0 0.0 0.0 0.0 0.0 0.0
0.0 0.0 0.0 0.0 0.0 0.0 0.0 0.0
0.0 0.0 0.0 0.0 0.0 0.0 0.0 0.0
0.0 0.0 0.0 0.0 0.0 0.0 0.0 0.0
0.0 0.0 0.0 0.0 0.0 0.0 0.0 0.0
0.0 0.0 0.0 0.0 0.0 0.0 0.0 0.620277464389801
0.6777766346931458 -1.3254108921501029e-08 0.6210066080093384 0.6375449895858765 0.0005716845043934882 0.6171980500221252 0.6087161898612976 -0.0011924004647880793
0.6146245002746582 0.5887083411216736 -0.004101550672203302 0.6141036748886108 0.5734010338783264 -0.006396142300218344 0.5905758738517761 0.6077204942703247
0.0015138410963118076 0.5867034792900085 0.5873895287513733 -0.0017075689975172281 0.5935570001602173 0.5939905047416687 -0.005156321916729212 0.5972062945365906
0.6044324636459351 -0.007317711599171162 0.5829744935035706 0.6261805891990662 -0.0007666522287763655 0.580115556716919 0.6042723655700684 -0.001621487783268094
0.5866365432739258 0.6082338690757751 -0.0025871696416288614 0.5905877351760864 0.617504894733429 -0.0035818051546812057 0.5787380337715149 0.6446586847305298
-0.0032261796295642853 0.5767601728439331 0.6214587092399597 -0.0025317627005279064 0.5823730230331421 0.6236734390258789 -0.0005905926809646189 0.5865930914878845
0.6323256492614746 0.00016737804980948567 0.5768361687660217 0.6621605157852173 -0.005999157205224037 0.5750648975372314 0.6415002942085266 -0.004101375583559275
0.5802002549171448 0.6411551833152771 -0.0005786404944956303 0.5840186476707458 0.6478350758552551 0.0019888882525265217 0.45414605736732483 0.648953914642334
-8.226541581279889e-08 0.44390496611595154 0.6229777336120605 -0.00245653185993433 0.4371129274368286 0.5941314697265625 -0.007496667094528675 0.4296334683895111
0.57149338722229 -0.012433742173016071 0.4203979969024658 0.5580375790596008 -0.016565488651394844 0.45446082949638367 0.5862371921539307 -0.011566649191081524
0.4651724696159363 0.546512246131897 -0.0162828266620636 0.46139970421791077 0.5559146404266357 -0.017320742830634117 0.45776188373565674 0.5693855285644531
-0.017085082828998566 0.46614858508110046 0.5954009294509888 -0.01269541122019291 0.47413134574890137 0.5554354786872864 -0.015125964768230915 0.4692940413951874
0.5634258389472961 -0.013670767657458782 0.46606552600860596 0.5760533213615417 -0.012785431928932667 0.4757072627544403 0.6052263379096985 -0.013561669737100601
0.4830297827720642 0.566010594367981 -0.014247219078242779 0.4784298241138458 0.5722939968109131 -0.010394664481282234 0.4750131070613861 0.5844455361366272
-0.008342038840055466 0.4836239814758301 0.6147508025169373 -0.014530356042087078 0.48828500509262085 0.585270345211029 -0.014309108257293701 0.4839628338813782
0.5891759395599365 -0.010568061843514442 0.48081931471824646 0.5988054871559143 -0.008037785068154335 0.6186549067497253 0.6559851765632629 1.0876905598422582e-08
0.6220044493675232 0.6183656454086304 -0.0005473415367305279 0.6193817257881165 0.5851173996925354 -0.002495802706107497 0.6176362633705139 0.5589942336082458
-0.005308692343533039 0.6198952794075012 0.5404528379440308 -0.007765559479594231 0.5925073623657227 0.5798139572143555 0.0022540444042533636 0.5848466753959656
0.5705971121788025 3.479967563180253e-05 0.5901045203208923 0.5769307613372803 -0.003112301230430603 0.5953587889671326 0.5842999219894409 -0.0049689412117004395
0.5844069123268127 0.5972945690155029 0.0010057679610326886 0.578055739402771 0.5851172804832458 0.000980669865384698 0.5830116271972656 0.5901762247085571
-3.538398232194595e-05 0.5881102681159973 0.5980648994445801 -0.0008868803270161152 0.5792475342750549 0.6162469983100891 -0.0005098354886285961 0.5739207863807678
0.6017020344734192 0.00030349340522661805 0.5784926414489746 0.6057334542274475 0.0017589442431926727 0.5836356282234192 0.6130220293998718 0.0024812323972582817
0.5763832926750183 0.6341245174407959 -0.0023459859658032656 0.5715258121490479 0.6207579374313354 -0.000491085578687489 0.575808048248291 0.62318354845047
0.0027817292138934135 0.5799435377120972 0.6289838552474976 0.005375986453145742 0.45130181312561035 0.6307085752487183 -3.331840758846738e-08 0.4413555860519409
