WLASL/keypoints_hello_name_javi/-b4_y6LOSx0_-b4_y6LOSx0_3-8-rgb_front.npy (npy, 30368 bytes, 1 tensors)

array f8 [30, 126]
0.43690258264541626 0.703282356262207 7.613604680045682e-08 0.4421081840991974 0.6674999594688416 -0.002908368594944477 0.43829146027565 0.6306542754173279
-0.004992498084902763 0.4368988871574402 0.6018316745758057 -0.007449921686202288 0.43797945976257324 0.5774074196815491 -0.010556883178651333 0.42782410979270935
0.620389461517334 -0.0055084810592234135 0.4215386211872101 0.5927166938781738 -0.012619158253073692 0.41829460859298706 0.5740253925323486 -0.01823630928993225
0.4154125154018402 0.5565304160118103 -0.022435924038290977 0.42390066385269165 0.6297951340675354 -0.008820372633635998 0.4179530441761017 0.6005665063858032
-0.015362627804279327 0.4150116443634033 0.5807234644889832 -0.020270613953471184 0.41220104694366455 0.5618675947189331 -0.024012545123696327 0.4211180508136749
0.6458393931388855 -0.01276937685906887 0.41377994418144226 0.6182517409324646 -0.019614653661847115 0.41096431016921997 0.5999064445495605 -0.023067064583301544
0.40893441438674927 0.5820033550262451 -0.02553214505314827 0.4191659390926361 0.6668692231178284 -0.016976622864603996 0.4129112660884857 0.6510754823684692
-0.023652516305446625 0.410643607378006 0.6371026039123535 -0.02651899866759777 0.4095502495765686 0.6226488351821899 -0.02846524305641651 0.6086475253105164
0.7598966360092163 2.4201050052852224e-08 0.6019530892372131 0.7152584195137024 -0.002123260637745261 0.5928528904914856 0.6767004728317261 -0.004883553367108107
0.5878679156303406 0.645335853099823 -0.00763501413166523 0.5859214663505554 0.6195797324180603 -0.010956312529742718 0.5996879935264587 0.6898252367973328
-0.012474711053073406 0.5906941294670105 0.6627888083457947 -0.020942268893122673 0.5847072601318359 0.6448690891265869 -0.026737980544567108 0.5788649320602417
0.6277263164520264 -0.03129485622048378 0.5985841155052185 0.7052428126335144 -0.01629226841032505 0.5894713401794434 0.6791349053382874 -0.024194886907935143
0.5821516513824463 0.6615760326385498 -0.02894156239926815 0.575386106967926 0.6452454328536987 -0.03379308432340622 0.5958012342453003 0.7242255806922913
-0.020204516127705574 0.5882288217544556 0.7012016177177429 -0.02783285826444626 0.5818983912467957 0.6855132579803467 -0.03172702714800835 0.5762959122657776
0.6711969971656799 -0.03543306514620781 0.5919296145439148 0.7462249994277954 -0.024146191775798798 0.5859382748603821 0.7334422469139099 -0.031651340425014496
0.5792731046676636 0.7240030765533447 -0.03590530529618263 0.5723100304603577 0.7150877714157104 -0.03969975560903549 0.4387201964855194 0.7034040689468384
7.341394336890517e-08 0.4446159303188324 0.6680521965026855 -0.0026952549815177917 0.4413564205169678 0.6311253905296326 -0.004540726542472839 0.44025903940200806
0.6027892231941223 -0.006809437181800604 0.4418114721775055 0.5788432955741882 -0.009731335565447807 0.43080419301986694 0.6206085085868835 -0.004956201650202274
0.42498040199279785 0.5933223366737366 -0.011851088143885136 0.42214342951774597 0.5747133493423462 -0.0173573549836874 0.41964221000671387 0.5572233200073242
-0.021491648629307747 0.4268324077129364 0.6297504305839539 -0.008241195231676102 0.42162996530532837 0.6011130213737488 -0.014622809365391731 0.41914495825767517
0.5812007784843445 -0.019532237201929092 0.4166698157787323 0.5618505477905273 -0.023271160200238228 0.4239344894886017 0.6454833745956421 -0.012160802260041237
0.4172435700893402 0.6182944774627686 -0.018913844600319862 0.41497039794921875 0.600318193435669 -0.02239358052611351 0.41341155767440796 0.5825717449188232
-0.0248520877212286 0.4218354821205139 0.6661081910133362 -0.01632101833820343 0.4159955382347107 0.6507449746131897 -0.022909104824066162 0.4140264093875885
0.6371108293533325 -0.02576981671154499 0.4132230877876282 0.6229466199874878 -0.027697281911969185 0.6094094514846802 0.7597657442092896 2.4500959483475526e-08
0.6026515960693359 0.716057300567627 -0.0013298285193741322 0.5938133001327515 0.6768918633460999 -0.0037959073670208454 0.588613748550415 0.6451416015625
-0.0064356946386396885 0.5865855813026428 0.619268536567688 -0.00972913671284914 0.6007287502288818 0.6878520250320435 -0.011636451818048954 0.5913352370262146
0.6614218354225159 -0.01982695795595646 0.5854476094245911 0.6440738439559937 -0.025397874414920807 0.5797953009605408 0.6274499297142029 -0.029740186408162117
0.5995182991027832 0.7034645080566406 -0.015872199088335037 0.5900448560714722 0.6772156953811646 -0.02348512038588524 0.5826758742332458 0.6595925092697144
-0.028160428628325462 0.575748860836029 0.6431511044502258 -0.032867684960365295 0.5967572927474976 0.7229499816894531 -0.020135851576924324 0.5888670682907104
0.6998194456100464 -0.027556797489523888 0.5824185013771057 0.6838296055793762 -0.031332992017269135 0.5766847729682922 0.6690410375595093 -0.03488406911492348
0.5928985476493835 0.7453881502151489 -0.02435746043920517 0.5867944955825806 0.7319568395614624 -0.03136840835213661 0.580121636390686 0.7221068739891052
-0.035145148634910583 0.573257327079773 0.7128787040710449 -0.03859664127230644 0.4408304989337921 0.7044378519058228 7.269289881151053e-08 0.44693243503570557
00000000: 0000 0040 36f6 db3f 0000 0000 4a81 e63f
00000010: 0000 0080 0770 743e 0000 0020 804b dc3f
00000020: 0000 00e0 285c e53f 0000 0080 4ad3 67bf
00000030: 0000 00a0 f70c dc3f 0000 00e0 512e e43f
00000040: 0000 0080 0373 74bf 0000 00c0 26f6 db3f
00000050: 0000 0080 3442 e33f 0000 0020 cf83 7ebf
00000060: 0000 0000 db07 dc3f 0000 0020 1f7a e23f
00000070: 0000 00e0 d89e 85bf 0000 0060 7861 db3f
00000080: 0000 0000 3bda e33f 0000 00a0 0f90 76bf
00000090: 0000 0020 7dfa da3f 0000 0000 89f7 e23f
000000a0: 0000 00c0 12d8 89bf 0000 00c0 56c5 da3f
000000b0: 0000 0080 6a5e e23f 0000 0000 8aac 92bf
000000c0: 0000 0060 1e96 da3f 0000 00e0 18cf e13f
000000d0: 0000 0060 71f9 96bf 0000 0040 3021 db3f
000000e0: 0000 0020 4827 e43f 0000 0060 6a10 82bf
000000f0: 0000 0020 bebf da3f 0000 0040 d737 e33f
00000100: 0000 0000 7176 8fbf 0000 0000 8d8f da3f
00000110: 0000 0060 4995 e23f 0000 00e0 d1c1 94bf
00000120: 0000 0080 8061 da3f 0000 00c0 d1fa e13f
00000130: 0000 00a0 be96 98bf 0000 0020 99f3 da3f
00000140: 0000 0060 b7aa e43f 0000 00c0 d426 8abf
00000150: 0000 00e0 5e7b da3f 0000 00e0 b7c8 e33f
00000160: 0000 0020 dd15 94bf 0000 0040 3d4d da3f
00000170: 0000 0000 6f32 e33f 0000 0080 e49e 97bf
00000180: 0000 0040 fb2b da3f 0000 0080 c59f e23f
00000190: 0000 0040 1925 9abf 0000 0060 9dd3 da3f
000001a0: 0000 0020 fe56 e53f 0000 00e0 5162 91bf
000001b0: 0000 0060 236d da3f 0000 0040 9cd5 e43f
000001c0: 0000 0080 5d38 98bf 0000 0020 fc47 da3f
000001d0: 0000 0000 2563 e43f 0000 00e0 cb27 9bbf
000001e0: 0000 0040 1236 da3f 0000 0040 bdec e33f
000001f0: 0000 0020 fe25 9dbf 0000 0060 0a7a e33f
00000200: 0000 00c0 1251 e83f 0000 0080 55fc 593e
00000210: 0000 0020 3343 e33f 0000 00a0 65e3 e63f
00000220: 0000 00e0 cc64 61bf 0000 00a0 a6f8 e23f
00000230: 0000 00c0 87a7 e53f 0000 00e0 c600 74bf
00000240: 0000 0060 d0cf e23f 0000 0060 97a6 e43f
00000250: 0000 0080 e445 7fbf 0000 0060 debf e23f
00000260: 0000 00e0 98d3 e33f 0000 0060 4370 86bf
00000270: 0000 00e0 a430 e33f 0000 0060 0c13 e63f
00000280: 0000 0060 578c 89bf 0000 0060 f7e6 e23f
00000290: 0000 00e0 9035 e53f 0000 00e0 e371 95bf
000002a0: 0000 0000 ecb5 e23f 0000 0080 c4a2 e43f
000002b0: 0000 0080 3361 9bbf 0000 00c0 0f86 e23f
000002c0: 0000 0080 5516 e43f 0000 0020 e105 a0bf
000002d0: 0000 00e0 9927 e33f 0000 0060 5991 e63f
000002e0: 0000 00a0 ebae 90bf 0000 0000 f3dc e23f
000002f0: 0000 0020 79bb e53f 0000 0060 8bc6 98bf
00000300: 0000 0080 fca0 e23f 0000 0080 a12b e53f
00000310: 0000 0060 dba2 9dbf 0000 0020 9069 e23f
00000320: 0000 00c0 d9a5 e43f 0000 00c0 534d a1bf
00000330: 0000 00c0 cd10 e33f 0000 0020 db2c e73f
00000340: 0000 0020 7eb0 94bf 0000 0040 c5d2 e23f
00000350: 0000 0060 3e70 e63f 0000 0080 3780 9cbf
00000360: 0000 0060 e99e e23f 0000 0080 b9ef e53f
00000370: 0000 0060 863e a0bf 0000 0020 0471 e23f
00000380: 0000 0020 727a e53f 0000 0060 4824 a2bf
00000390: 0000 0060 16f1 e23f 0000 0040 13e1 e73f
000003a0: 0000 0080 c7b9 98bf 0000 00a0 01c0 e23f
000003b0: 0000 00e0 5b78 e73f 0000 00c0 9a34 a0bf
000003c0: 0000 00c0 6789 e23f 0000 0080 082b e73f
000003d0: 0000 0020 2e62 a2bf 0000 0020 5d50 e23f
000003e0: 0000 00c0 ffe1 e63f 0000 00c0 8653 a4bf
000003f0: 0000 00e0 fd13 dc3f 0000 0040 4982 e63f
00000400: 0000 00c0 f7b4 733e 0000 0060 9674 dc3f
00000410: 0000 0000 af60 e53f 0000 0000 5c14 66bf
00000420: 0000 0000 2f3f dc3f 0000 00e0 2d32 e43f
00000430: 0000 0000 4c99 72bf 0000 0040 342d dc3f
00000440: 0000 00a0 0c4a e33f 0000 0060 36e4 7bbf
00000450: 0000 00a0 a346 dc3f 0000 0060 e285 e23f
00000460: 0000 00c0 05ee 83bf 0000 00c0 4b92 db3f
00000470: 0000 0060 06dc e33f 0000 0040 f44c 74bf
00000480: 0000 0000 e132 db3f 0000 0020 7ffc e23f
00000490: 0000 0020 6245 88bf 0000 00e0 6504 db3f
000004a0: 0000 0040 0d64 e23f 0000 0060 20c6 91bf
000004b0: 0000 0000 6bdb da3f 0000 0000 c6d4 e13f
000004c0: 0000 0020 e801 96bf 0000 00e0 3851 db3f
000004d0: 0000 0060 ea26 e43f 0000 0080 c2e0 80bf
000004e0: 0000 0040 fcfb da3f 0000 0060 513c e33f
000004f0: 0000 0040 90f2 8dbf 0000 0060 45d3 da3f
00000500: 0000 0060 3299 e23f 0000 0040 4200 94bf
00000510: 0000 00e0 b7aa da3f 0000 0000 aefa e13f
00000520: 0000 0020 65d4 97bf 0000 0020 be21 db3f
00000530: 0000 00c0 cca7 e43f 0000 0040 c3e7 88bf
00000540: 0000 0060 1eb4 da3f 0000 0080 11c9 e33f
00000550: 0000 00a0 265e 93bf 0000 0000 e08e da3f
00000560: 0000 0080 ce35 e33f 0000 00c0 57ee 96bf
00000570: 0000 00c0 5575 da3f 0000 0080 6da4 e23f
00000580: 0000 0060 d372 99bf 0000 0040 5aff da3f
00000590: 0000 0020 c250 e53f 0000 0000 75b6 90bf
000005a0: 0000 00c0 ab9f da3f 0000 0020 e7d2 e43f
000005b0: 0000 0000 7c75 97bf 0000 00a0 687f da3f
000005c0: 0000 0040 3663 e43f 0000 0020 6763 9abf
000005d0: 0000 0040 3f72 da3f 0000 00c0 2def e33f
000005e0: 0000 0020 ad5c 9cbf 0000 0040 4880 e33f
000005f0: 0000 0040 0050 e83f 0000 00c0 c54e 5a3e
00000600: 0000 0000 ec48 e33f 0000 0000 f1e9 e63f
00000610: 0000 0080 b4c9 55bf 0000 00c0 8400 e33f
00000620: 0000 0020 19a9 e53f 0000 0040 9818 6fbf
00000630: 0000 0080 ecd5 e23f 0000 0000 00a5 e43f
00000640: 0000 00a0 505c 7abf 0000 0020 4fc5 e23f
00000650: 0000 0040 0cd1 e33f 0000 00a0 deec 83bf
00000660: 0000 0080 2b39 e33f 0000 0040 e202 e63f
00000670: 0000 0020 dad4 87bf 0000 00e0 37ec e23f
00000680: 0000 0020 5e2a e53f 0000 00a0 844d 94bf
00000690: 0000 00a0 fcbb e23f 0000 00c0 409c e43f
000006a0: 0000 0080 e601 9abf 0000 00e0 ae8d e23f
000006b0: 0000 00e0 1114 e43f 0000 0020 3674 9ebf
000006c0: 0000 0000 412f e33f 0000 0000 c882 e63f
000006d0: 0000 0040 cd40 90bf 0000 00c0 a5e1 e23f
000006e0: 0000 0040 c0ab e53f 0000 00c0 7b0c 98bf
000006f0: 0000 00e0 47a5 e23f 0000 00c0 611b e53f
00000700: 0000 0060 16d6 9cbf 0000 00e0 886c e23f
00000710: 0000 00a0 b194 e43f 0000 0080 08d4 a0bf
00000720: 0000 00c0 a218 e33f 0000 0000 6822 e73f
00000730: 0000 0020 7e9e 94bf 0000 00c0 ffd7 e23f
00000740: 0000 00c0 eb64 e63f 0000 0060 d937 9cbf
00000750: 0000 0020 2ca3 e23f 0000 00a0 eee1 e53f
00000760: 0000 00c0 e00a a0bf 0000 00a0 3374 e23f
00000770: 0000 00c0 c868 e53f 0000 0020 53dc a1bf
00000780: 0000 0060 06f9 e23f 0000 0040 38da e73f
00000790: 0000 0080 29f1 98bf 0000 0040 05c7 e23f
000007a0: 0000 00c0 306c e73f 0000 0020 850f a0bf
000007b0: 0000 0040 5b90 e23f 0000 00e0 7f1b e73f
000007c0: 0000 0080 8bfe a1bf 0000 00c0 1f58 e23f
000007d0: 0000 0000 e7cf e63f 0000 0060 f0c2 a3bf
000007e0: 0000 0020 9136 dc3f 0000 0040 c18a e63f
000007f0: 0000 0000 6b83 733e 0000 0080 8a9a dc3f
