WLASL/keypoints_hello_name_javi/-b4_y6LOSx0_-b4_y6LOSx0_2-8-rgb_front.npy (npy, 30368 bytes, 1 tensors)

array f8 [30, 126]
0.0 0.0 0.0 0.0 0.0 0.0 0.0 0.0
0.0 0.0 0.0 0.0 0.0 0.0 0.0 0.0
0.0 0.0 0.0 0.0 0.0 0.0 0.0 0.0
0.0 0.0 0.0 0.0 0.0 0.0 0.0 0.0
0.0 0.0 0.0 0.0 0.0 0.0 0.0 0.0
0.0 0.0 0.0 0.0 0.0 0.0 0.0 0.0
0.0 0.0 0.0 0.0 0.0 0.0 0.0 0.0
0.0 0.0 0.0 0.0 0.0 0.0 0.0 0.0
0.0 0.0 0.0 0.0 0.0 0.0 0.0 0.0
0.0 0.0 0.0 0.0 0.0 0.0 0.0 0.0
0.0 0.0 0.0 0.0 0.0 0.0 0.0 0.0
0.0 0.0 0.0 0.0 0.0 0.0 0.0 0.0
0.0 0.0 0.0 0.0 0.0 0.0 0.0 0.0
0.0 0.0 0.0 0.0 0.0 0.0 0.0 0.0
0.0 0.0 0.0 0.0 0.0 0.0 0.0 0.0
0.0 0.0 0.0 0.0 0.0 0.0 0.45167940855026245 0.6285995244979858
1.281851211842877e-07 0.4662812352180481 0.610276997089386 -0.0038627905305474997 0.47852659225463867 0.5828136801719666 -0.007428518962115049 0.48994243144989014
0.5668848156929016 -0.011713434010744095 0.49966245889663696 0.5569276213645935 -0.01619875244796276 0.46314743161201477 0.5421048402786255 -0.0024165816139429808
0.4660756587982178 0.5070448517799377 -0.009382222779095173 0.47112083435058594 0.48510658740997314 -0.015702754259109497 0.4764350354671478 0.4682532548904419
-0.020019760355353355 0.45826470851898193 0.5448298454284668 -0.005889511201530695 0.4607352614402771 0.507303774356842 -0.012388067319989204 0.46650466322898865
0.4814509153366089 -0.018758932128548622 0.4723958373069763 0.46182361245155334 -0.023106135427951813 0.453426718711853 0.551636278629303 -0.010312944650650024
0.45620664954185486 0.5175577402114868 -0.016480702906847 0.4631626009941101 0.4958046078681946 -0.020623618736863136 0.4698158800601959 0.4792352020740509
-0.023064950481057167 0.4490605592727661 0.5630981922149658 -0.015301806852221489 0.45157140493392944 0.5382410287857056 -0.02008877880871296 0.45550018548965454
0.5215797424316406 -0.021812262013554573 0.45933961868286133 0.5081815123558044 -0.02275783009827137 0.6246483325958252 0.8033393621444702 4.506503969992082e-08
0.6126854419708252 0.7768841981887817 -5.770144343841821e-05 0.592643141746521 0.7542955279350281 -0.0030263636726886034 0.5748034715652466 0.7395765781402588
-0.005728778429329395 0.559156060218811 0.7308120131492615 -0.00956273078918457 0.5924038290977478 0.7498713731765747 -0.01675763539969921 0.5712097883224487
0.7298904061317444 -0.024770503863692284 0.554029107093811 0.7260172367095947 -0.029406510293483734 0.5408369302749634 0.7274827361106873 -0.032450832426548004
0.5915957689285278 0.7682608962059021 -0.021112099289894104 0.5676965117454529 0.7515972256660461 -0.02805100940167904 0.5492229461669922 0.7517260909080505
-0.031651571393013 0.5355425477027893 0.7555577754974365 -0.034743815660476685 0.5925236344337463 0.7930752038955688 -0.024511542171239853 0.5680211782455444
0.7822349667549133 -0.03032994642853737 0.5507113933563232 0.7824302911758423 -0.03342331200838089 0.5375295281410217 0.7840559482574463 -0.03625340014696121
0.5946682691574097 0.8215441703796387 -0.02733384631574154 0.5762137174606323 0.8231739401817322 -0.03434121608734131 0.5624973177909851 0.8261637091636658
-0.03751443699002266 0.5506900548934937 0.8292520046234131 -0.03952087089419365 0.4476306736469269 0.6581141948699951 8.93929623657641e-08 0.4619692862033844
00000000: 0000 0000 0000 0000 0000 0000 0000 0000
00000010: 0000 0000 0000 0000 0000 0000 0000 0000
00000020: 0000 0000 0000 0000 0000 0000 0000 0000
00000030: 0000 0000 0000 0000 0000 0000 0000 0000
00000040: 0000 0000 0000 0000 0000 0000 0000 0000
00000050: 0000 0000 0000 0000 0000 0000 0000 0000
00000060: 0000 0000 0000 0000 0000 0000 0000 0000
00000070: 0000 0000 0000 0000 0000 0000 0000 0000
00000080: 0000 0000 0000 0000 0000 0000 0000 0000
00000090: 0000 0000 0000 0000 0000 0000 0000 0000
000000a0: 0000 0000 0000 0000 0000 0000 0000 0000
000000b0: 0000 0000 0000 0000 0000 0000 0000 0000
000000c0: 0000 0000 0000 0000 0000 0000 0000 0000
000000d0: 0000 0000 0000 0000 0000 0000 0000 0000
000000e0: 0000 0000 0000 0000 0000 0000 0000 0000
000000f0: 0000 0000 0000 0000 0000 0000 0000 0000
00000100: 0000 0000 0000 0000 0000 0000 0000 0000
00000110: 0000 0000 0000 0000 0000 0000 0000 0000
00000120: 0000 0000 0000 0000 0000 0000 0000 0000
00000130: 0000 0000 0000 0000 0000 0000 0000 0000
00000140: 0000 0000 0000 0000 0000 0000 0000 0000
00000150: 0000 0000 0000 0000 0000 0000 0000 0000
00000160: 0000 0000 0000 0000 0000 0000 0000 0000
00000170: 0000 0000 0000 0000 0000 0000 0000 0000
00000180: 0000 0000 0000 0000 0000 0000 0000 0000
00000190: 0000 0000 0000 0000 0000 0000 0000 0000
000001a0: 0000 0000 0000 0000 0000 0000 0000 0000
000001b0: 0000 0000 0000 0000 0000 0000 0000 0000
000001c0: 0000 0000 0000 0000 0000 0000 0000 0000
000001d0: 0000 0000 0000 0000 0000 0000 0000 0000
000001e0: 0000 0000 0000 0000 0000 0000 0000 0000
000001f0: 0000 0000 0000 0000 0000 0000 0000 0000
00000200: 0000 0000 0000 0000 0000 0000 0000 0000
00000210: 0000 0000 0000 0000 0000 0000 0000 0000
00000220: 0000 0000 0000 0000 0000 0000 0000 0000
00000230: 0000 0000 0000 0000 0000 0000 0000 0000
00000240: 0000 0000 0000 0000 0000 0000 0000 0000
00000250: 0000 0000 0000 0000 0000 0000 0000 0000
00000260: 0000 0000 0000 0000 0000 0000 0000 0000
00000270: 0000 0000 0000 0000 0000 0000 0000 0000
00000280: 0000 0000 0000 0000 0000 0000 0000 0000
00000290: 0000 0000 0000 0000 0000 0000 0000 0000
000002a0: 0000 0000 0000 0000 0000 0000 0000 0000
000002b0: 0000 0000 0000 0000 0000 0000 0000 0000
000002c0: 0000 0000 0000 0000 0000 0000 0000 0000
000002d0: 0000 0000 0000 0000 0000 0000 0000 0000
000002e0: 0000 0000 0000 0000 0000 0000 0000 0000
000002f0: 0000 0000 0000 0000 0000 0000 0000 0000
00000300: 0000 0000 0000 0000 0000 0000 0000 0000
00000310: 0000 0000 0000 0000 0000 0000 0000 0000
00000320: 0000 0000 0000 0000 0000 0000 0000 0000
00000330: 0000 0000 0000 0000 0000 0000 0000 0000
00000340: 0000 0000 0000 0000 0000 0000 0000 0000
00000350: 0000 0000 0000 0000 0000 0000 0000 0000
00000360: 0000 0000 0000 0000 0000 0000 0000 0000
00000370: 0000 0000 0000 0000 0000 0000 0000 0000
00000380: 0000 0000 0000 0000 0000 0000 0000 0000
00000390: 0000 0000 0000 0000 0000 0000 0000 0000
000003a0: 0000 0000 0000 0000 0000 0000 0000 0000
000003b0: 0000 0000 0000 0000 0000 0000 0000 0000
000003c0: 0000 0000 0000 0000 0000 0000 0000 0000
000003d0: 0000 0000 0000 0000 0000 0000 0000 0000
000003e0: 0000 0000 0000 0000 0000 0000 0000 0000
000003f0: 0000 00c0 50e8 dc3f 0000 00c0 7c1d e43f
00000400: 0000 0040 6834 813e 0000 0040 8dd7 dd3f
00000410: 0000 00a0 6387 e33f 0000 00e0 dba4 6fbf
00000420: 0000 0000 2ea0 de3f 0000 00e0 68a6 e23f
00000430: 0000 00e0 5d6d 7ebf 0000 0080 375b df3f
00000440: 0000 00a0 eb23 e23f 0000 0080 36fd 87bf
00000450: 0000 0040 78fa df3f 0000 00e0 59d2 e13f
00000460: 0000 00e0 6796 90bf 0000 0020 35a4 dd3f
00000470: 0000 0040 ec58 e13f 0000 0060 f0cb 63bf
00000480: 0000 0000 2fd4 dd3f 0000 0020 b639 e03f
00000490: 0000 00a0 fc36 83bf 0000 0000 d826 de3f
000004a0: 0000 0080 fc0b df3f 0000 0000 6214 90bf
000004b0: 0000 0060 e97d de3f 0000 0080 dcf7 dd3f
000004c0: 0000 0060 0f80 94bf 0000 0080 3554 dd3f
000004d0: 0000 0000 3f6f e13f 0000 00a0 991f 78bf
000004e0: 0000 00c0 af7c dd3f 0000 0020 d53b e03f
000004f0: 0000 0040 ea5e 89bf 0000 0060 36db dd3f
00000500: 0000 0080 17d0 de3f 0000 00a0 8a35 93bf
00000510: 0000 00c0 bb3b de3f 0000 00a0 848e dd3f
00000520: 0000 0080 22a9 97bf 0000 0080 f104 dd3f
00000530: 0000 0020 01a7 e13f 0000 0000 f41e 85bf
00000540: 0000 0060 7d32 dd3f 0000 0040 d58f e03f
00000550: 0000 0040 51e0 90bf 0000 00c0 74a4 dd3f
00000560: 0000 0040 43bb df3f 0000 00a0 5b1e 95bf
00000570: 0000 00a0 7611 de3f 0000 0020 caab de3f
00000580: 0000 00a0 569e 97bf 0000 0080 68bd dc3f
00000590: 0000 0080 e604 e23f 0000 00c0 8d56 8fbf
000005a0: 0000 00c0 8be6 dc3f 0000 0040 4539 e13f
000005b0: 0000 0020 2792 94bf 0000 0040 ea26 dd3f
000005c0: 0000 0000 c8b0 e03f 0000 0020 f455 96bf
000005d0: 0000 0000 d265 dd3f 0000 00e0 0543 e03f
000005e0: 0000 0020 d44d 97bf 0000 0080 1efd e33f
000005f0: 0000 00c0 f4b4 e93f 0000 0020 b131 683e
00000600: 0000 0080 1e9b e33f 0000 0040 3cdc e83f
00000610: 0000 0080 8e40 0ebf 0000 00c0 eef6 e23f
00000620: 0000 0060 3023 e83f 0000 00a0 beca 68bf
00000630: 0000 0040 ca64 e23f 0000 0080 9caa e73f
00000640: 0000 0040 0f77 77bf 0000 0040 9be4 e13f
00000650: 0000 00e0 cf62 e73f 0000 0000 a095 83bf
00000660: 0000 00e0 f8f4 e23f 0000 0040 f2fe e73f
00000670: 0000 00e0 e928 91bf 0000 00c0 5947 e23f
00000680: 0000 0020 435b e73f 0000 0060 705d 99bf
00000690: 0000 0040 9bba e13f 0000 0080 883b e73f
000006a0: 0000 0080 bd1c 9ebf 0000 0040 894e e13f
000006b0: 0000 00e0 8947 e73f 0000 0040 659d a0bf
000006c0: 0000 0040 5aee e23f 0000 00e0 9795 e83f
000006d0: 0000 0000 699e 95bf 0000 00e0 912a e23f
000006e0: 0000 00a0 150d e83f 0000 0060 67b9 9cbf
000006f0: 0000 0000 3c93 e13f 0000 00e0 230e e83f
00000700: 0000 0080 a234 a0bf 0000 0020 2a23 e13f
00000710: 0000 0080 872d e83f 0000 0000 f1c9 a1bf
00000720: 0000 0020 f4f5 e23f 0000 0040 df60 e93f
00000730: 0000 00c0 8d19 99bf 0000 00c0 3a2d e23f
00000740: 0000 00a0 1108 e93f 0000 0040 d00e 9fbf
00000750: 0000 0080 6d9f e13f 0000 0040 ab09 e93f
00000760: 0000 0040 dc1c a1bf 0000 0020 7133 e13f
00000770: 0000 0080 fc16 e93f 0000 0040 ce8f a2bf
00000780: 0000 00c0 8507 e33f 0000 0000 174a ea3f
00000790: 0000 0060 67fd 9bbf 0000 00c0 5770 e23f
000007a0: 0000 00e0 7057 ea3f 0000 0000 2c95 a1bf
000007b0: 0000 0060 faff e13f 0000 00e0 ee6f ea3f
000007c0: 0000 00a0 1735 a3bf 0000 00c0 409f e13f
000007d0: 0000 0080 3b89 ea3f 0000 0060 143c a4bf
000007e0: 0000 0020 fba5 dc3f 0000 0080 450f e53f
000007f0: 0000 00a0 09ff 773e 0000 00a0 e790 dd3f
