prueba 5 - WLASL/keypoints_hello_name_javi/-b4_y6LOSx0_-b4_y6LOSx0_15-8-rgb_front.npy (npy, 30368 bytes, 1 tensors)

array f8 [30, 126]
00000000: 0000 0040 9465 dd3f 0000 0060 1dd9 e23f
00000010: 0000 00a0 ea90 71be 0000 0000 a940 de3f
00000020: 0000 0080 3c5a e23f 0000 00e0 3646 77bf
00000030: 0000 0040 e6d6 de3f 0000 0040 db54 e13f
00000040: 0000 00c0 3a9a 80bf 0000 0040 d4f6 de3f
00000050: 0000 0040 2764 e03f 0000 0060 2c12 85bf
00000060: 0000 00a0 7b89 de3f 0000 0000 a8d2 df3f
00000070: 0000 0080 360a 8abf 0000 0060 9c57 de3f
00000080: 0000 00a0 282c e03f 0000 00e0 7681 7fbf
00000090: 0000 00a0 e47d de3f 0000 00c0 5248 de3f
000000a0: 0000 0060 6252 8bbf 0000 0060 127d de3f
000000b0: 0000 00c0 de05 dd3f 0000 0000 94b8 90bf
000000c0: 0000 0000 c277 de3f 0000 0040 a3e0 db3f
000000d0: 0000 00e0 7ba4 92bf 0000 0060 c184 dd3f
000000e0: 0000 0060 fa1b e03f 0000 0080 0138 7fbf
000000f0: 0000 00e0 1ce6 dd3f 0000 0080 9a37 e03f
00000100: 0000 0040 8fd8 91bf 0000 0000 87f0 dd3f
00000110: 0000 0020 d520 e13f 0000 00e0 2f66 93bf
00000120: 0000 0040 5fef dd3f 0000 00c0 edc4 e13f
00000130: 0000 0080 b0fe 91bf 0000 00a0 efcd dc3f
00000140: 0000 0080 c050 e03f 0000 0080 2974 80bf
00000150: 0000 0040 b13e dd3f 0000 0020 c6a1 e03f
00000160: 0000 00e0 f880 91bf 0000 00e0 055e dd3f
00000170: 0000 0040 7b67 e13f 0000 0000 c38b 8fbf
00000180: 0000 00c0 896c dd3f 0000 0080 d2e9 e13f
00000190: 0000 0040 0368 88bf 0000 0080 6d2b dc3f
000001a0: 0000 0080 b6ae e03f 0000 0020 e969 82bf
000001b0: 0000 0080 0996 dc3f 0000 0080 0beb e03f
000001c0: 0000 0000 8bd1 8ebf 0000 0040 23f1 dc3f
000001d0: 0000 0000 2c80 e13f 0000 00a0 1027 8cbf
000001e0: 0000 0000 542b dd3f 0000 0060 d0e2 e13f
000001f0: 0000 00a0 d141 86bf 0000 0080 fa0a e23f
00000200: 0000 0000 6fbb ec3f 0000 00c0 b9c6 7f3e
00000210: 0000 0080 2380 e13f 0000 0080 3adc eb3f
00000220: 0000 0000 f2c8 71bf 0000 00e0 c5d1 e03f
00000230: 0000 00e0 3cde eb3f 0000 0040 5be1 78bf
00000240: 0000 00e0 fd37 e03f 0000 00a0 4023 ec3f
00000250: 0000 0020 7889 78bf 0000 00e0 1187 df3f
00000260: 0000 0080 8230 ec3f 0000 0000 7aae 75bf
00000270: 0000 0000 dd9b e03f 0000 0000 49cf ec3f
00000280: 0000 0020 e726 86bf 0000 00a0 8f8d df3f
00000290: 0000 00a0 0f51 ed3f 0000 00a0 5c4d 88bf
000002a0: 0000 0000 96b8 de3f 0000 0080 9a76 ed3f
000002b0: 0000 0000 50e4 84bf 0000 0000 8f2c de3f
000002c0: 0000 0040 698c ed3f 0000 00c0 c43b 81bf
000002d0: 0000 0000 2fb8 e03f 0000 00c0 ab90 ed3f
000002e0: 0000 0040 9c5b 80bf 0000 0080 72a3 df3f
000002f0: 0000 0000 aff8 ed3f 0000 0060 c07b 81bf
00000300: 0000 00c0 7c00 df3f 0000 0000 56cb ed3f
00000310: 0000 0060 d718 77bf 0000 00c0 21b4 de3f
00000320: 0000 0020 da91 ed3f 0000 0040 913b 69bf
00000330: 0000 00a0 27d9 e03f 0000 0000 9607 ee3f
00000340: 0000 0080 3943 73bf 0000 00e0 cc07 e03f
00000350: 0000 0060 f356 ee3f 0000 0020 2310 70bf
00000360: 0000 0040 3982 df3f 0000 00a0 a110 ee3f
00000370: 0000 0020 19ee 4abf 0000 00c0 cb49 df3f
00000380: 0000 0000 1bc6 ed3f 0000 0020 d36d 553f
00000390: 0000 0080 b9f7 e03f 0000 0000 ef44 ee3f
000003a0: 0000 00c0 49d0 5bbf 0000 0000 4e5a e03f
000003b0: 0000 00c0 727a ee3f 0000 00c0 c475 31bf
000003c0: 0000 0060 7117 e03f 0000 0080 523f ee3f
000003d0: 0000 00a0 20ad 623f 0000 00a0 b7f0 df3f
000003e0: 0000 0000 2afa ed3f 0000 0060 edee 713f
000003f0: 0000 0020 db56 dd3f 0000 0020 6c01 e33f
00000400: 0000 0040 0b04 6fbe 0000 0080 c542 de3f
00000410: 0000 00a0 bf6e e23f 0000 0060 241a 77bf
00000420: 0000 0040 d1cd de3f 0000 0080 255e e13f
00000430: 0000 0000 c798 7fbf 0000 0020 e8da de3f
00000440: 0000 0040 a465 e03f 0000 0000 fe1c 84bf
00000450: 0000 0020 9f4c de3f 0000 00c0 fcb0 df3f
00000460: 0000 00e0 44b6 88bf 0000 00c0 596c de3f
00000470: 0000 00c0 805a e03f 0000 00c0 2b62 79bf
00000480: 0000 0020 5094 de3f 0000 0000 e9cb de3f
00000490: 0000 0040 e12a 88bf 0000 00c0 e094 de3f
000004a0: 0000 0080 c983 dd3f 0000 0080 cd30 8ebf
000004b0: 0000 0040 a192 de3f 0000 0080 5857 dc3f
000004c0: 0000 0040 a20f 91bf 0000 0020 4fa8 dd3f
000004d0: 0000 0000 483c e03f 0000 00c0 a40b 7abf
000004e0: 0000 0040 2fef dd3f 0000 0080 f953 e03f
000004f0: 0000 00c0 6a56 91bf 0000 0060 33ef dd3f
00000500: 0000 0080 0f47 e13f 0000 0060 2a9f 92bf
00000510: 0000 0020 77ee dd3f 0000 0080 6404 e23f
00000520: 0000 0040 b499 90bf 0000 0040 dded dc3f
00000530: 0000 0060 7662 e03f 0000 0080 1e4f 7dbf
00000540: 0000 00c0 dd4a dd3f 0000 0080 f19d e03f
00000550: 0000 0020 f0d5 91bf 0000 00a0 3567 dd3f
00000560: 0000 00e0 1276 e13f 0000 00e0 db82 8fbf
00000570: 0000 00c0 a17d dd3f 0000 0080 8017 e23f
00000580: 0000 0080 1393 86bf 0000 0060 ac3a dc3f
00000590: 0000 00a0 4cb6 e03f 0000 00e0 736e 81bf
000005a0: 0000 0080 ba8d dc3f 0000 0080 ced7 e03f
000005b0: 0000 0060 2647 90bf 0000 0060 06e9 dc3f
000005c0: 0000 00c0 016e e13f 0000 0060 de85 8ebf
000005d0: 0000 0020 052e dd3f 0000 0040 d5e2 e13f
000005e0: 0000 0000 d357 88bf 0000 0020 030b e23f
000005f0: 0000 0080 9db4 ec3f 0000 0000 418c 813e
00000600: 0000 00e0 d27b e13f 0000 00e0 ffdc eb3f
00000610: 0000 0080 4da6 71bf 0000 0080 cfce e03f
00000620: 0000 0000 95e8 eb3f 0000 00e0 b040 79bf
00000630: 0000 0000 7d32 e03f 0000 0020 482e ec3f
00000640: 0000 0060 cdea 79bf 0000 00a0 ff70 df3f
00000650: 0000 0000 8834 ec3f 0000 0060 975f 78bf
00000660: 0000 00c0 1296 e03f 0000 00a0 fdcc ec3f
00000670: 0000 0020 5343 83bf 0000 0080 7d83 df3f
00000680: 0000 0020 1951 ed3f 0000 00c0 2ac8 84bf
00000690: 0000 0020 9db3 de3f 0000 0020 ee7e ed3f
000006a0: 0000 00c0 99c2 81bf 0000 0040 0623 de3f
000006b0: 0000 0040 5b9c ed3f 0000 0040 ae57 7dbf
000006c0: 0000 0020 53b5 e03f 0000 0000 d38c ed3f
000006d0: 0000 00a0 b6ee 7abf 0000 0020 03a4 df3f
000006e0: 0000 0000 a0ed ed3f 0000 0020 90ea 7abf
000006f0: 0000 0040 72fe de3f 0000 0020 4fcb ed3f
00000700: 0000 00e0 04c5 6ebf 0000 00a0 afad de3f
00000710: 0000 00c0 aca2 ed3f 0000 0040 3d41 57bf
00000720: 0000 0060 53da e03f 0000 00c0 1a06 ee3f
00000730: 0000 0080 01d8 6bbf 0000 00e0 860b e03f
00000740: 0000 0080 b257 ee3f 0000 0020 031d 61bf
00000750: 0000 00e0 c77d df3f 0000 0000 4e1e ee3f
00000760: 0000 0020 cf5d 533f 0000 0040 9e36 df3f
00000770: 0000 0000 6de3 ed3f 0000 0000 8100 6a3f
00000780: 0000 00a0 6df9 e03f 0000 00a0 ac45 ee3f
00000790: 0000 0000 2974 42bf 0000 0080 785a e03f
000007a0: 0000 00a0 2c81 ee3f 0000 0000 9243 523f
000007b0: 0000 00c0 0414 e03f 0000 0040 5150 ee3f
000007c0: 0000 0000 fa8b 6f3f 0000 0000 62de df3f
000007d0: 0000 00a0 4c1a ee3f 0000 0080 fb58 783f
000007e0: 0000 0000 7859 dd3f 0000 00e0 d308 e33f
000007f0: 0000 0000 2934 6cbe 0000 00e0 d84b de3f
0.4593248963356018 0.5890032649040222 -6.543874775388758e-08 0.47269654273986816 0.5735151767730713 -0.005682196002453566 0.48186641931533813 0.541608452796936
-0.008106669411063194 0.4838152527809143 0.5122257471084595 -0.010288569144904613 0.47714129090309143 0.49723243713378906 -0.012714792042970657 0.474097341299057
0.505390465259552 -0.007691826205700636 0.4764339029788971 0.47316426038742065 -0.013340729288756847 0.476383775472641 0.4534832835197449 -0.01632910966873169
0.4760594367980957 0.43558579683303833 -0.018205581232905388 0.46122774481773376 0.5034152865409851 -0.007621770724654198 0.46716997027397156 0.5067875385284424
-0.01742767170071602 0.4678056240081787 0.535257875919342 -0.018944500014185905 0.4677351117134094 0.5552891492843628 -0.017573125660419464 0.4500693380832672
0.5098574161529541 -0.008034061640501022 0.45695143938064575 0.519747793674469 -0.01709355227649212 0.4588637053966522 0.5438820123672485 -0.015403293073177338
0.45974963903427124 0.5597927570343018 -0.01191713847219944 0.4401506185531616 0.5213272571563721 -0.00899107102304697 0.44665753841400146 0.5286920070648193
-0.015048108994960785 0.45221787691116333 0.5468959808349609 -0.013746385462582111 0.45576953887939453 0.5589372515678406 -0.010867726989090443 0.5638401508331299
0.8978800773620605 1.1837583713258937e-07 0.5468919277191162 0.8706333637237549 -0.004342027008533478 0.5256070494651794 0.8708786368370056 -0.006074291653931141
0.5068349242210388 0.8793032765388489 -0.005990475881844759 0.49261900782585144 0.8809216022491455 -0.0052933469414711 0.5190262794494629 0.9003033638000488
-0.010816388763487339 0.49301519989967346 0.9161451458930969 -0.011866305954754353 0.48001623153686523 0.9207279682159424 -0.010201096534729004 0.4714696407318115
0.9233900308609009 -0.008414780721068382 0.5224833488464355 0.9239100217819214 -0.007987232878804207 0.49435102939605713 0.9366068840026855 -0.00853681843727827
0.4844047427177429 0.9310712814331055 -0.005638924892991781 0.4797443747520447 0.9240542054176331 -0.00308016175404191 0.5265081524848938 0.9384260177612305
-0.00470278225839138 0.5009521842002869 0.9481140971183777 -0.0039216396398842335 0.49232321977615356 0.9395301938056946 -0.0008218405419029295 0.48887914419174194
0.9304327964782715 0.001307922531850636 0.5302398204803467 0.9459147453308105 -0.0016976089682430029 0.5110235214233398 0.9524472951889038 -0.0002664189669303596
0.5028616786003113 0.9452297687530518 0.0022798192221671343 0.4990672171115875 0.9367876052856445 0.004378249403089285 0.45842626690864563 0.5939236283302307
-5.7771423200847494e-08 0.47282540798187256 0.5760191082954407 -0.005640165414661169 0.481312096118927 0.5427424907684326 -0.007714059203863144 0.48211100697517395
0.5124074220657349 -0.009820923209190369 0.47342661023139954 0.4951774477958679 -0.012066400609910488 0.47536319494247437 0.5110477209091187 -0.00619713868945837
0.4778023064136505 0.48119568824768066 -0.011800536885857582 0.4778367877006531 0.46116864681243896 -0.014741521328687668 0.4776995778083801 0.4428311586380005
-0.016661200672388077 0.4633977711200714 0.5073585510253906 -0.00635876040905714 0.46772366762161255 0.5102508068084717 -0.016931217163801193 0.46772465109825134
0.5399243831634521 -0.018185293301939964 0.4676797688007355 0.5630362033843994 -0.016211334615945816 0.4520180821418762 0.5120193362236023 -0.007155532017350197
0.45769447088241577 0.519280195236206 -0.017417671158909798 0.4594244062900543 0.5456632971763611 -0.015386312268674374 0.4607929587364197 0.5653688907623291
-0.011022713035345078 0.44108113646507263 0.5222533345222473 -0.008511452935636044 0.44615042209625244 0.526343584060669 -0.01589641533792019 0.4517227113246918
0.5446785688400269 -0.014903771691024303 0.4559338390827179 0.5589395761489868 -0.011886261403560638 0.5638442635536194 0.897047758102417 1.307417960560997e-07
0.5463652014732361 0.8707274794578552 -0.004308989271521568 0.5252454280853271 0.8721413612365723 -0.0061652096919715405 0.5061631202697754 0.8806496262550354
-0.006327440496534109 0.49127188324928284 0.8814125061035156 -0.005950537975877523 0.5183194875717163 0.9000232815742493 -0.009405755437910557 0.49240052700042725
0.9161496758460999 -0.010147413238883018 0.47971275448799133 0.9217444062232971 -0.008671952411532402 0.4708877205848694 0.925336480140686 -0.007163696922361851
0.5221343636512756 0.9234404563903809 -0.006575311068445444 0.4943855106830597 0.9352569580078125 -0.006571352947503328 0.48428016901016235 0.9310680031776428
-0.003756055375561118 0.4793509542942047 0.9261077642440796 -0.0014193628448992968 0.5266510844230652 0.9382451772689819 -0.003398898057639599 0.5014070868492126
0.9482052326202393 -0.002089029410853982 0.4920520484447479 0.9411993026733398 0.0011820337967947125 0.4877086281776428 0.9340119361877441 0.003174068406224251
0.530447781085968 0.9460051655769348 -0.0005631637759506702 0.5110437870025635 0.9532683491706848 0.0011147428303956985 0.5024436712265015 0.947304368019104
0.003850925713777542 0.49794816970825195 0.9407103657722473 0.005944235250353813 0.4585857391357422 0.5948275923728943 -5.253357926449098e-08 0.47337934374809265
