prueba 5 - WLASL/keypoints_hello_name_javi/-b4_y6LOSx0_-b4_y6LOSx0_7-8-rgb_front.npy (npy, 30368 bytes, 1 tensors)

array f8 [30, 126]
000000 00 00 00 c0 54 e4 dd 3f 00 00 00 c0 3a 48 e8 3f
       0.46706122159957886 0.7588170766830444
000010 00 00 00 e0 ad cb 75 3e 00 00 00 c0 fe fb dc 3f
       8.119501870851309e-08 0.4528805613517761
000020 00 00 00 a0 27 a0 e7 3f 00 00 00 20 07 64 82 bf
       0.7383001446723938 -0.008979850448668003
000030 00 00 00 60 e8 7a dc 3f 00 00 00 20 37 ce e6 3f
       0.4450016915798187 0.712672770023346
000040 00 00 00 e0 0b 77 91 bf 00 00 00 00 53 05 dc 3f
       -0.017055688425898552 0.43782496452331543
000050 00 00 00 e0 19 fc e5 3f 00 00 00 80 79 4a 98 bf
       0.6870240569114685 -0.023721598088741302
000060 00 00 00 c0 70 67 db 3f 00 00 00 40 b1 7b e5 3f
       0.4281885027885437 0.6713491678237915
000070 00 00 00 20 b2 13 9f bf 00 00 00 20 45 17 de 3f
       -0.03034857101738453 0.4701702892780304
000080 00 00 00 e0 a3 23 e6 3f 00 00 00 a0 d3 f5 93 bf
       0.6918506026268005 -0.019492441788315773
000090 00 00 00 00 5c 47 de 3f 00 00 00 c0 fb 89 e4 3f
       0.47310543060302734 0.6418436765670776
0000a0 00 00 00 00 84 07 9b bf 00 00 00 c0 91 59 de 3f
       -0.026395857334136963 0.47421687841415405
0000b0 00 00 00 00 61 a9 e3 3f 00 00 00 c0 60 0f 9e bf
       0.6144261360168457 -0.02935553714632988
0000c0 00 00 00 c0 97 62 de 3f 00 00 00 c0 7b 07 e3 3f
       0.47476762533187866 0.5946635007858276
0000d0 00 00 00 40 d0 58 9f bf 00 00 00 e0 dd e9 de 3f
       -0.03061223402619362 0.48302409052848816
0000e0 00 00 00 c0 ab 41 e6 3f 00 00 00 60 2b df 92 bf
       0.6955164670944214 -0.018429448828101158
0000f0 00 00 00 a0 ae 19 df 3f 00 00 00 00 c8 84 e4 3f
       0.4859425127506256 0.6412086486816406
000100 00 00 00 a0 ff e4 98 bf 00 00 00 e0 e5 00 df 3f
       -0.024311060085892677 0.48442980647087097
000110 00 00 00 60 26 90 e3 3f 00 00 00 00 09 80 9a bf
       0.611346423625946 -0.025879040360450745
000120 00 00 00 40 38 e0 de 3f 00 00 00 00 1c eb e2 3f
       0.48243528604507446 0.5911998748779297
000130 00 00 00 00 6c 30 9b bf 00 00 00 20 f6 7d df 3f
       -0.026551902294158936 0.49206307530403137
000140 00 00 00 60 b7 6c e6 3f 00 00 00 60 78 d3 91 bf
       0.7007710337638855 -0.017408257350325584
000150 00 00 00 80 42 af df 3f 00 00 00 c0 9b c7 e4 3f
       0.49507200717926025 0.6493662595748901
000160 00 00 00 20 28 65 96 bf 00 00 00 20 4c 92 df 3f
       -0.021870257332921028 0.4933042824268341
000170 00 00 00 e0 1f ec e3 3f 00 00 00 20 2e 8b 97 bf
       0.6225737929344177 -0.02299186773598194
000180 00 00 00 00 74 66 df 3f 00 00 00 e0 71 55 e3 3f
       0.4906282424926758 0.6041802763938904
000190 00 00 00 60 de f8 97 bf 00 00 00 40 13 da df 3f
       -0.023410296067595482 0.4976852536201477
0001a0 00 00 00 a0 47 95 e6 3f 00 00 00 e0 0d 5a 91 bf
       0.7057226300239563 -0.016945092007517815
0001b0 00 00 00 c0 af 23 e0 3f 00 00 00 20 3c 70 e5 3f
       0.5043562650680542 0.669950544834137
0001c0 00 00 00 80 96 34 95 bf 00 00 00 c0 ac 35 e0 3f
       -0.020708419382572174 0.5065521001815796
0001d0 00 00 00 40 e5 bc e4 3f 00 00 00 a0 55 44 96 bf
       0.6480585336685181 -0.021745050325989723
0001e0 00 00 00 e0 08 38 e0 3f 00 00 00 e0 ad 25 e4 3f
       0.506840169429779 0.6295995116233826
0001f0 00 00 00 80 ce 6b 96 bf 00 00 00 20 fb 70 e3 3f
       -0.021895624697208405 0.6075416207313538
000200 00 00 00 60 3c 17 e7 3f 00 00 00 c0 28 f5 81 3e
       0.7215864062309265 1.33794941348242e-07
000210 00 00 00 60 31 da e3 3f 00 00 00 e0 af 7d e6 3f
       0.6203848719596863 0.702842652797699
000220 00 00 00 c0 3e 39 89 bf 00 00 00 40 51 0a e4 3f
       -0.01231621764600277 0.626259446144104
000230 00 00 00 40 01 e2 e5 3f 00 00 00 20 68 01 96 bf
       0.6838384866714478 -0.021489741280674934
000240 00 00 00 40 a0 28 e4 3f 00 00 00 00 0b 58 e5 3f
       0.629959225654602 0.6669974327087402
000250 00 00 00 a0 8a 37 9d bf 00 00 00 e0 80 4e e4 3f
       -0.028532186523079872 0.6345829367637634
000260 00 00 00 00 2e fc e4 3f 00 00 00 40 25 3a a2 bf
       0.6557836532592773 -0.03559986501932144
000270 00 00 00 20 4e 65 e3 3f 00 00 00 00 15 6e e5 3f
       0.6061163544654846 0.6696877479553223
000280 00 00 00 40 b8 5b 99 bf 00 00 00 c0 39 2c e3 3f
       -0.02476394549012184 0.5991486310958862
000290 00 00 00 20 2b 5f e4 3f 00 00 00 60 e8 e9 a0 bf
       0.6366172432899475 -0.03303457424044609
0002a0 00 00 00 80 3f fb e2 3f 00 00 00 00 6a c0 e3 3f
       0.5931699275970459 0.6172380447387695
0002b0 00 00 00 a0 3c 27 a3 bf 00 00 00 c0 42 c9 e2 3f
       -0.037408728152513504 0.5870679616928101
0002c0 00 00 00 e0 c4 42 e3 3f 00 00 00 40 9c ae a4 bf
       0.6019005179405212 -0.04039467126131058
0002d0 00 00 00 e0 7c fd e2 3f 00 00 00 c0 ea 9b e5 3f
       0.5934433341026306 0.6752828359603882
0002e0 00 00 00 60 fc d0 96 bf 00 00 00 a0 4d a4 e2 3f
       -0.022281592711806297 0.5825565457344055
0002f0 00 00 00 20 02 79 e4 3f 00 00 00 20 d8 72 9e bf
       0.6397715210914612 -0.02973497100174427
000300 00 00 00 00 7f 66 e2 3f 00 00 00 40 d3 c1 e3 3f
       0.5750117301940918 0.6174103021621704
000310 00 00 00 80 3d 16 a1 bf 00 00 00 c0 5e 2c e2 3f
       -0.03337280452251434 0.5679162740707397
000320 00 00 00 60 bb 35 e3 3f 00 00 00 40 0e 86 a2 bf
       0.6003090739250183 -0.036179013550281525
000330 00 00 00 20 7b b3 e2 3f 00 00 00 e0 a0 d2 e5 3f
       0.5844092965126038 0.6819614768028259
000340 00 00 00 e0 bc 4b 94 bf 00 00 00 00 be 54 e2 3f
       -0.019820166751742363 0.5728445053100586
000350 00 00 00 c0 2a e6 e4 3f 00 00 00 a0 38 8f 9a bf
       0.6530965566635132 -0.025936970487236977
000360 00 00 00 e0 d0 12 e2 3f 00 00 00 a0 a8 55 e4 3f
       0.5647968649864197 0.635456383228302
000370 00 00 00 20 2f e2 9e bf 00 00 00 c0 da d7 e1 3f
       -0.03015969879925251 0.5575994253158569
000380 00 00 00 20 96 e7 e3 3f 00 00 00 00 40 f2 a0 bf
       0.6220198273658752 -0.03309822082519531
000390 00 00 00 00 ee 89 e2 3f 00 00 00 80 e5 07 e6 3f
       0.5793371200561523 0.6884639263153076
0003a0 00 00 00 60 6a 7c 92 bf 00 00 00 60 fe 18 e2 3f
       -0.018052732571959496 0.5655509829521179
0003b0 00 00 00 c0 ca 7b e5 3f 00 00 00 e0 1e 68 98 bf
       0.6713613271713257 -0.02383468858897686
0003c0 00 00 00 20 e7 cb e1 3f 00 00 00 60 62 23 e5 3f
       0.5561404824256897 0.6605693697929382
0003d0 00 00 00 40 7b 24 9c bf 00 00 00 40 ca 88 e1 3f
       -0.02748291566967964 0.5479480028152466
0003e0 00 00 00 c0 8a dc e4 3f 00 00 00 a0 a6 97 9e bf
       0.6519216299057007 -0.0298753771930933
0003f0 00 00 00 60 57 05 de 3f 00 00 00 00 3d 0a e9 3f
       0.469076007604599 0.7824997901916504
000400 00 00 00 c0 31 71 5b 3e 00 00 00 00 87 1f dd 3f
       2.5557508109841365e-08 0.4550492763519287
000410 00 00 00 e0 45 58 e8 3f 00 00 00 80 8a 2e 81 bf
       0.7607755064964294 -0.008389551192522049
000420 00 00 00 20 81 96 dc 3f 00 00 00 60 11 72 e7 3f
       0.4466860592365265 0.7326743006706238
000430 00 00 00 20 8e 79 90 bf 00 00 00 20 39 17 dc 3f
       -0.0160886961966753 0.4389174282550812
000440 00 00 00 a0 a7 a5 e6 3f 00 00 00 40 b4 17 97 bf
       0.7077215313911438 -0.022551361471414566
000450 00 00 00 40 b3 6e db 3f 00 00 00 60 0c 26 e6 3f
       0.42863160371780396 0.6921445727348328
000460 00 00 00 80 47 c8 9d bf 00 00 00 a0 65 18 de 3f
       -0.02908431738615036 0.4702390730381012
000470 00 00 00 a0 6e 0a e7 3f 00 00 00 a0 24 74 94 bf
       0.7200234532356262 -0.019974300637841225
000480 00 00 00 80 74 50 de 3f 00 00 00 c0 cb 73 e5 3f
       0.47366058826446533 0.6703852415084839
000490 00 00 00 e0 97 cd 9c bf 00 00 00 00 14 62 de 3f
       -0.02812802605330944 0.47473621368408203
0004a0 00 00 00 c0 0b 8d e4 3f 00 00 00 20 e1 79 a0 bf
       0.6422175168991089 -0.03217986598610878
0004b0 00 00 00 00 86 6d de 3f 00 00 00 e0 0d df e3 3f
       0.4754347801208496 0.6209782958030701
0004c0 00 00 00 c0 01 8a a1 bf 00 00 00 80 0e fc de 3f
       -0.03425603359937668 0.484134316444397
0004d0 00 00 00 80 e8 33 e7 3f 00 00 00 00 25 60 94 bf
       0.7250864505767822 -0.019898012280464172
0004e0 00 00 00 80 b9 36 df 3f 00 00 00 60 81 74 e5 3f
       0.48771512508392334 0.6704718470573425
0004f0 00 00 00 c0 ef f6 9b bf 00 00 00 60 0f 1e df 3f
       -0.027309175580739975 0.4862097203731537
000500 00 00 00 a0 83 6b e4 3f 00 00 00 e0 c7 c5 9e bf
       0.6381242871284485 -0.030051348730921745
000510 00 00 00 40 55 f5 de 3f 00 00 00 a0 0a b8 e3 3f
       0.4837239384651184 0.6162160038948059
000520 00 00 00 a0 6a 18 a0 bf 00 00 00 e0 e9 a5 df 3f
       -0.03143628314137459 0.4945015609264374
000530 00 00 00 c0 07 63 e7 3f 00 00 00 c0 ef 46 94 bf
       0.7308386564254761 -0.019801851361989975
000540 00 00 00 a0 b2 de df 3f 00 00 00 80 c9 b5 e5 3f
       0.497967392206192 0.6784408092498779
000550 00 00 00 a0 23 85 9a bf 00 00 00 40 fa b0 df 3f
       -0.025898510590195656 0.49517685174942017
000560 00 00 00 80 c0 b7 e4 3f 00 00 00 a0 37 86 9c bf
       0.6474306583404541 -0.027855748310685158
000570 00 00 00 80 b6 77 df 3f 00 00 00 a0 97 03 e4 3f
       0.49168169498443604 0.6254385113716125
000580 00 00 00 c0 c8 35 9d bf 00 00 00 00 15 0e e0 3f
       -0.02852548286318779 0.5017189979553223
000590 00 00 00 a0 91 87 e7 3f 00 00 00 40 65 9a 94 bf
       0.7352989315986633 -0.020120222121477127
0005a0 00 00 00 40 c0 40 e0 3f 00 00 00 a0 a8 58 e6 3f
       0.5079041719436646 0.698322594165802
0005b0 00 00 00 20 95 6e 99 bf 00 00 00 c0 8a 4c e0 3f
       -0.024835901334881783 0.5093435049057007
0005c0 00 00 00 a0 93 96 e5 3f 00 00 00 a0 03 9f 9a bf
       0.6746309399604797 -0.025997215881943703
0005d0 00 00 00 80 16 4b e0 3f 00 00 00 e0 fc f5 e4 3f
       0.5091660022735596 0.6550278067588806
0005e0 00 00 00 c0 37 c4 9a bf 00 00 00 c0 df b2 e3 3f
       -0.026139136403799057 0.615585207939148
0005f0 00 00 00 00 e8 d9 e7 3f 00 00 00 40 75 2f 84 3e
       0.7453498840332031 1.503928217516659e-07
000600 00 00 00 40 df 24 e4 3f 00 00 00 40 5e 41 e7 3f
       0.6295009851455688 0.7267295122146606
000610 00 00 00 c0 b9 c3 8e bf 00 00 00 00 45 5a e4 3f
       -0.015021754428744316 0.636019229888916
000620 00 00 00 40 89 88 e6 3f 00 00 00 20 0b 73 99 bf
       0.7041670083999634 -0.024852918460965157
000630 00 00 00 c0 0e 8d e4 3f 00 00 00 e0 3a f0 e5 3f
       0.6422189474105835 0.6855749487876892
000640 00 00 00 a0 63 7b a0 bf 00 00 00 80 a8 d3 e4 3f
       -0.032191384583711624 0.6508371829986572
000650 00 00 00 c0 e0 8f e5 3f 00 00 00 80 64 30 a4 bf
       0.6738132238388062 -0.03943170607089996
000660 00 00 00 60 1b 7f e3 3f 00 00 00 c0 10 19 e6 3f
       0.6092659831047058 0.6905597448348999
000670 00 00 00 c0 95 a8 98 bf 00 00 00 c0 71 4e e3 3f
       -0.02408060058951378 0.6033257246017456
000680 00 00 00 c0 7a 11 e5 3f 00 00 00 a0 22 97 a0 bf
       0.6583837270736694 -0.032403070479631424
000690 00 00 00 60 2b 2a e3 3f 00 00 00 40 8d 6e e4 3f
       0.5988976359367371 0.6384950876235962
0006a0 00 00 00 60 c2 2b a3 bf 00 00 00 00 cf 06 e3 3f
       -0.03744323179125786 0.594581127166748
0006b0 00 00 00 60 9a de e3 3f 00 00 00 e0 9c 0f a5 bf
       0.6209232211112976 -0.04113474115729332
0006c0 00 00 00 80 aa 13 e3 3f 00 00 00 00 be 3d e6 3f
       0.5961506366729736 0.6950368881225586
0006d0 00 00 00 60 1e 00 95 bf 00 00 00 40 c9 ca e2 3f
       -0.020508265122771263 0.5872541666030884
0006e0 00 00 00 60 a1 2c e5 3f 00 00 00 20 cf 84 9c bf
       0.661698043346405 -0.027850376442074776
0006f0 00 00 00 a0 ba 9c e2 3f 00 00 00 20 47 74 e4 3f
       0.5816319584846497 0.6391940712928772
000700 00 00 00 a0 94 42 a0 bf 00 00 00 e0 ef 72 e2 3f
       -0.03175796940922737 0.576530396938324
000710 00 00 00 20 18 d1 e3 3f 00 00 00 e0 1a db a1 bf
       0.6192741990089417 -0.03487476333975792
000720 00 00 00 e0 2d cc e2 3f 00 00 00 20 64 74 e6 3f
       0.5874242186546326 0.7017078995704651
000730 00 00 00 00 cd ea 91 bf 00 00 00 40 c2 79 e2 3f
       -0.01749725639820099 0.577363133430481
000740 00 00 00 40 e3 80 e5 3f 00 00 00 a0 9a bf 98 bf
       0.6719833612442017 -0.024168411269783974
000750 00 00 00 80 27 4a e2 3f 00 00 00 e0 f6 eb e4 3f
       0.571552038192749 0.6538042426109314
000760 00 00 00 20 ae 5f 9d bf 00 00 00 00 91 1f e2 3f
       -0.028685303404927254 0.5663533210754395
000770 00 00 00 40 7a 6c e4 3f 00 00 00 20 81 3e a0 bf
       0.6382418870925903 -0.03172687068581581
000780 00 00 00 20 2e aa e2 3f 00 00 00 80 8b aa e6 3f
       0.5832739472389221 0.7083184719085693
000790 00 00 00 80 93 c5 8f bf 00 00 00 00 e2 3a e2 3f
       -0.015513565391302109 0.5696878433227539
0007a0 00 00 00 40 2a 1d e6 3f 00 00 00 c0 9f 58 96 bf
       0.6910601854324341 -0.021822448819875717
0007b0 00 00 00 40 b8 f1 e1 3f 00 00 00 20 ea c8 e5 3f
       0.5607568025588989 0.6807757019996643
0007c0 00 00 00 a0 43 91 9a bf 00 00 00 00 ba b2 e1 3f
       -0.02594476379454136 0.5530672073364258
0007d0 00 00 00 60 a1 80 e5 3f 00 00 00 60 d2 5c 9d bf
       0.671951949596405 -0.028674399480223656
0007e0 00 00 00 40 64 e9 de 3f 00 00 00 00 26 02 ea 3f
       0.48299509286880493 0.8127622604370117
0007f0 00 00 00 20 e3 20 27 be 00 00 00 00 b2 e1 dd 3f
       -2.6925077722950164e-09 0.4669003486633301
