prueba 5 - WLASL/keypoints_hello_name_javi/-b4_y6LOSx0_-b4_y6LOSx0_13-8-rgb_front.npy (npy, 30368 bytes, 1 tensors)

array f8 [30, 126]
0	0x3fdd059700000000	0.45346617698669434
1	0x3fe1814a00000000	0.547032356262207
2	0x3e76c4aca0000000	8.481837454610286e-08
3	0x3fdddb7f80000000	0.46652209758758545
4	0x3fe10d6940000000	0.5328871011734009
5	0xbf748b7900000000	-0.005015823990106583
6	0x3fde374120000000	0.472122460603714
7	0x3fe03a1f60000000	0.5070950388908386
8	0xbf7d5093a0000000	-0.0071569220162928104
9	0x3fde478260000000	0.47311457991600037
10	0x3fdeffbd00000000	0.4843590259552002
11	0xbf81e77d80000000	-0.008742313832044601
12	0x3fde352880000000	0.4719945192337036
13	0x3fddd94ca0000000	0.46638789772987366
14	0xbf84e2e480000000	-0.010198388248682022
15	0x3fdda43640000000	0.46314769983291626
16	0x3fde6fe700000000	0.47557997703552246
17	0xbf7751bba0000000	-0.005693180952221155
18	0x3fddcdb1c0000000	0.4656795859336853
19	0x3fdc6be060000000	0.4440842568874359
20	0xbf848af040000000	-0.010030629113316536
21	0x3fddd9fb80000000	0.46642959117889404
22	0x3fdb2f5140000000	0.424763023853302
23	0xbf8ac4c240000000	-0.013070600107312202
24	0x3fddd80780000000	0.46631038188934326
25	0x3fda3672c0000000	0.4095732569694519
26	0xbf8e9bab60000000	-0.014945353381335735
27	0x3fdd193420000000	0.45466330647468567
28	0x3fde40ede0000000	0.4727129638195038
29	0xbf7a17e500000000	-0.0063704438507556915
30	0x3fdd3e7740000000	0.45693761110305786
31	0x3fdbf1ff60000000	0.43664535880088806
32	0xbf83a85940000000	-0.009598443284630775
33	0x3fdd4b3080000000	0.4577142000198364
34	0x3fda933480000000	0.41523468494415283
35	0xbf88d6d400000000	-0.012128502130508423
36	0x3fdd4f3f00000000	0.4579617977142334
37	0x3fd97b1dc0000000	0.39813941717147827
38	0xbf8cafa4c0000000	-0.01400688849389553
39	0x3fdc8638a0000000	0.4456922113895416
40	0x3fde743500000000	0.4758427143096924
41	0xbf7f9e06e0000000	-0.007719065528362989
42	0x3fdc924620000000	0.4464278519153595
43	0x3fdc2dd480000000	0.4402972459793091
44	0xbf86807f60000000	-0.010987277142703533
45	0x3fdc9fc9e0000000	0.44725272059440613
46	0x3fdad7c6a0000000	0.41941991448402405
47	0xbf8bf6a3e0000000	-0.013654022477567196
48	0x3fdcb06d00000000	0.44826817512512207
49	0x3fd9cc2580000000	0.4030851125717163
50	0xbf8fc4b800000000	-0.015511929988861084
51	0x3fdbf2c080000000	0.43669140338897705
52	0x3fdf07c000000000	0.4848480224609375
53	0xbf837971c0000000	-0.009508980438113213
54	0x3fdbc22b80000000	0.4337261915206909
55	0x3fdd4611e0000000	0.45740172266960144
56	0xbf894c3e60000000	-0.012352454476058483
57	0x3fdbaf61e0000000	0.43257948756217957
58	0x3fdc207fc0000000	0.4394835829734802
59	0xbf8bddf5c0000000	-0.013606948778033257
60	0x3fdba7fa00000000	0.4321274757385254
61	0x3fdb281c20000000	0.42432311177253723
62	0xbf8d9aa9e0000000	-0.014455153606832027
63	0x3fe204ab80000000	0.5630700588226318
64	0x3fec86fdc0000000	0.891478419303894
65	0x3e7cfebf20000000	1.0801517902336855e-07
66	0x3fe1668720000000	0.5437656044960022
67	0x3febf62dc0000000	0.8738011121749878
68	0xbf79665520000000	-0.006201107520610094
69	0x3fe0ab4160000000	0.5209051966667175
70	0x3fec3316c0000000	0.8812364339828491
71	0xbf7ea8d920000000	-0.0074852448888123035
72	0x3fe019eb60000000	0.5031639933586121
73	0x3feca7eb80000000	0.8954980373382568
74	0xbf7cf031c0000000	-0.0070650046691298485
75	0x3fdf51c880000000	0.48936665058135986
76	0x3fecfa7380000000	0.9055726528167725
77	0xbf78bd2440000000	-0.0060397544875741005
78	0x3fe0980b60000000	0.5185601115226746
79	0x3fecfda860000000	0.9059640765190125
80	0xbf81b56f60000000	-0.008646841160953045
81	0x3fdfa9b240000000	0.49473243951797485
82	0x3fed9f2a40000000	0.9256793260574341
83	0xbf85914640000000	-0.010530995205044746
84	0x3fdec6f860000000	0.48089417815208435
85	0x3feddeeca0000000	0.9334624409675598
86	0xbf864adfe0000000	-0.010884999297559261
87	0x3fde1b3f40000000	0.4704130291938782
88	0x3fee0a1900000000	0.9387326240539551
89	0xbf8613ee20000000	-0.01078020129352808
90	0x3fe0b87700000000	0.5225176811218262
91	0x3fed9177e0000000	0.9240073561668396
92	0xbf75312220000000	-0.005173810292035341
93	0x3fdff05060000000	0.4990426003932953
94	0x3fee0de4e0000000	0.9391960501670837
95	0xbf7ad78ac0000000	-0.006553213112056255
96	0x3fdf5a3a00000000	0.4898819923400879
97	0x3fee0522c0000000	0.9381269216537476
98	0xbf79349580000000	-0.006153663620352745
99	0x3fdf1ea580000000	0.4862455129623413
100	0x3fedf41c20000000	0.9360485672950745
101	0xbf7697cd60000000	-0.00551586365327239
102	0x3fe0dacb20000000	0.52670818567276
103	0x3fedeb9940000000	0.9350095987319946
104	0xbf5b856960000000	-0.001679757027886808
105	0x3fe02a3be0000000	0.5051555037498474
106	0x3fee4c8520000000	0.9468408226966858
107	0xbf5996b520000000	-0.0015618103789165616
108	0x3fdfe33500000000	0.4982426166534424
109	0x3fee20d4e0000000	0.9415077567100525
110	0x3f25628a20000000	0.00016315399261657149
111	0x3fdfc52ea0000000	0.4964100420475006
112	0x3fedf57e20000000	0.9362173676490784
113	0x3f5656b580000000	0.001363446470350027
114	0x3fe0f3e400000000	0.5297718048095703
115	0x3fee171a00000000	0.9403200149536133
116	0x3f53bea820000000	0.001205124077387154
117	0x3fe06aa220000000	0.5130167603492737
118	0x3fee612e80000000	0.9493629932403564
119	0x3f5e7aae20000000	0.0018603039206936955
120	0x3fe0383ce0000000	0.5068649649620056
121	0x3fee3919c0000000	0.9444702863693237
122	0x3f6d34db20000000	0.0035652427468448877
123	0x3fe02de2e0000000	0.5056013464927673
124	0x3fee124dc0000000	0.9397343397140503
125	0x3f747ba8e0000000	0.0050007435493171215
126	0x3fdd651820000000	0.4592953026294708
127	0x3fe1c7a9c0000000	0.555622935295105
128	0x3e7af0c860000000	1.0036139741487204e-07
129	0x3fde2b4ae0000000	0.47139236330986023
130	0x3fe13ca0a0000000	0.5386508107185364
131	0xbf7486e020000000	-0.00501143978908658
132	0x3fde99c580000000	0.47813546657562256
133	0x3fe06b00a0000000	0.5130618214607239
134	0xbf7e6bcde0000000	-0.007427028845995665
135	0x3fdec5bae0000000	0.4808184802532196
136	0x3fdf76eb60000000	0.49163326621055603
137	0xbf840286e0000000	-0.009770444594323635
138	0x3fdea80f60000000	0.4790075719356537
139	0x3fde5759a0000000	0.474081426858902
140	0xbf88e13f00000000	-0.012148372828960419
141	0x3fddd0db00000000	0.46587252616882324
142	0x3fde670bc0000000	0.47503942251205444
143	0xbf77aed160000000	-0.005781953688710928
144	0x3fddeaeaa0000000	0.4674631655216217
145	0x3fdc4762e0000000	0.44185706973075867
146	0xbf86db7de0000000	-0.011160834692418575
147	0x3fddefd2e0000000	0.46776267886161804
148	0x3fdaf4f540000000	0.42120105028152466
149	0xbf8f8ab340000000	-0.015401268377900124
150	0x3fdde572a0000000	0.4671293795108795
151	0x3fd9e04e80000000	0.4043155908584595
152	0xbf92997fc0000000	-0.01816367730498314
153	0x3fdd383680000000	0.45655596256256104
154	0x3fde57a580000000	0.4740995168685913
155	0xbf7e6562e0000000	-0.007420908194035292
156	0x3fdd2f5380000000	0.456013560295105
157	0x3fdbea8100000000	0.4361879825592041
158	0xbf881622e0000000	-0.011760971508920193
159	0x3fdd26b040000000	0.45548635721206665
160	0x3fda637680000000	0.41232073307037354
161	0xbf8f7a6720000000	-0.015370183624327183
162	0x3fdd104ba0000000	0.45411959290504456
163	0x3fd93f2e40000000	0.39448124170303345
164	0xbf922c66a0000000	-0.01774750091135502
165	0x3fdcaaa500000000	0.44791531562805176
166	0x3fdebe83c0000000	0.48037809133529663
167	0xbf83fa8f00000000	-0.009755246341228485
168	0x3fdc7ba460000000	0.4450465142726898
169	0x3fdc6f4640000000	0.4442916512489319
170	0xbf8c9bc0a0000000	-0.01396894920617342
171	0x3fdc6051e0000000	0.44337889552116394
172	0x3fdaf4b340000000	0.42118531465530396
173	0xbf91c71880000000	-0.017361052334308624
174	0x3fdc494d00000000	0.4419739246368408
175	0x3fd9ce9960000000	0.4032348096370697
176	0xbf94077660000000	-0.019559716805815697
177	0x3fdc267c80000000	0.43984901905059814
178	0x3fdf981760000000	0.4936579167842865
179	0xbf89bc8d40000000	-0.012566665187478065
180	0x3fdbc18140000000	0.4336856007575989
181	0x3fddfd9680000000	0.4686027765274048
182	0xbf91814f80000000	-0.017094843089580536
183	0x3fdb855b40000000	0.430014431476593
184	0x3fdcdd2d40000000	0.45099955797195435
185	0xbf93b3db80000000	-0.019240789115428925
186	0x3fdb59fd20000000	0.4273674786090851
187	0x3fdbea5f00000000	0.43617987632751465
188	0xbf94c7e4c0000000	-0.020293783396482468
189	0x3fe2078000000000	0.56341552734375
190	0x3fec797980000000	0.8898284435272217
191	0x3e7e8b4ae0000000	1.1378568132158762e-07
192	0x3fe1696280000000	0.544114351272583
193	0x3febc9f9a0000000	0.8684051632881165
194	0xbf77d70060000000	-0.005820275750011206
195	0x3fe0ac9620000000	0.5210676789283752
196	0x3fec0160a0000000	0.8751681447029114
197	0xbf7c1acb40000000	-0.006861490197479725
198	0x3fe01bfd20000000	0.5034165978431702
199	0x3fec792c40000000	0.8897916078567505
200	0xbf799361a0000000	-0.006244069430977106
201	0x3fdf55bcc0000000	0.4896079897880554
202	0x3fecccc0a0000000	0.8999941945075989
203	0xbf7455c860000000	-0.0049646212719380856
204	0x3fe09985c0000000	0.5187405347824097
205	0x3fecef5340000000	0.9042145013809204
206	0xbf8193f200000000	-0.008582964539527893
207	0x3fdf9f9fa0000000	0.4941176474094391
208	0x3fed91c980000000	0.9240462779998779
209	0xbf84d83380000000	-0.010177996009588242
210	0x3fdec04700000000	0.4804856777191162
211	0x3fedc9d180000000	0.9308860301971436
212	0xbf84d550e0000000	-0.010172492824494839
213	0x3fde19f6c0000000	0.4703347086906433
214	0x3fedf1ef80000000	0.9357831478118896
215	0xbf84111340000000	-0.009798193350434303
216	0x3fe0bec020000000	0.5232849717140198
217	0x3fed8ec340000000	0.9236770868301392
218	0xbf75597060000000	-0.005212248768657446
219	0x3fdfebdee0000000	0.49877139925956726
220	0x3fee0cbce0000000	0.9390549063682556
221	0xbf79bdf380000000	-0.006284667178988457
222	0x3fdf5b31c0000000	0.4899410605430603
223	0x3fedf838c0000000	0.936550498008728
224	0xbf76971c60000000	-0.005515204276889563
225	0x3fdf2367a0000000	0.4865359365940094
226	0x3fede24e00000000	0.9338750839233398
227	0xbf72fc6e20000000	-0.004635267425328493
228	0x3fe0e4cd20000000	0.5279298424720764
229	0x3fedea9a40000000	0.9348880052566528
230	0xbf5bef72a0000000	-0.0017050380120053887
231	0x3fe02b8dc0000000	0.5053166151046753
232	0x3fee487440000000	0.9463444948196411
233	0xbf553ec9a0000000	-0.0012967080110684037
234	0x3fdfe47e40000000	0.4983211159706116
235	0x3fee1542e0000000	0.9400953650474548
236	0x3f4cc44da0000000	0.0008778933552093804
237	0x3fdfc0ece0000000	0.4961502254009247
238	0x3fede91440000000	0.9347020387649536
239	0x3f62bc28a0000000	0.002286986680701375
240	0x3fe0ff1840000000	0.5311394929885864
241	0x3fee1486e0000000	0.9400057196617126
242	0x3f5434a980000000	0.0012332587502896786
243	0x3fe06e3b00000000	0.513455867767334
244	0x3fee59eac0000000	0.9484761953353882
245	0x3f60467040000000	0.00198671268299222
246	0x3fe039bfc0000000	0.5070494413375854
247	0x3fee284c80000000	0.9424192905426025
248	0x3f708f6000000000	0.004042983055114746
249	0x3fe02e3900000000	0.5056424140930176
250	0x3fedfdc920000000	0.9372296929359436
251	0x3f77866400000000	0.005743399262428284
252	0x3fdd47de40000000	0.4575114846229553
253	0x3fe1f40ec0000000	0.5610421895980835
254	0x3e7d838ba0000000	1.0994765631267e-07
255	0x3fde083f00000000	0.4692533016204834
