prueba 5 - WLASL/keypoints_hello_name_javi/-b4_y6LOSx0_-b4_y6LOSx0_11-8-rgb_front.npy (npy, 30368 bytes, 1 tensors)

array f8 [30, 126]
000000 00 00 00 80 9d 9c de 3f 00 00 00 a0 70 49 df 3f
       0.4783090353012085 0.4888574182987213
000010 00 00 00 80 42 d4 85 3e 00 00 00 00 c7 7c df 3f
       1.6263976476693642e-07 0.4919908046722412
000020 00 00 00 80 fb fe dd 3f 00 00 00 c0 e4 60 38 3f
       0.46868789196014404 0.0003719862434081733
000030 00 00 00 00 e8 b3 df 3f 00 00 00 c0 09 91 dc 3f
       0.49535560607910156 0.44635242223739624
000040 00 00 00 a0 72 0e 32 bf 00 00 00 c0 44 ee df 3f
       -0.0002755193563643843 0.49891775846481323
000050 00 00 00 80 8e 92 db 3f 00 00 00 20 80 bf 5c bf
       0.430820107460022 -0.001754641649313271
000060 00 00 00 c0 ff 18 e0 3f 00 00 00 20 c7 bf da 3f
       0.5030516386032104 0.4179551899433136
000070 00 00 00 20 e5 fb 66 bf 00 00 00 e0 39 25 de 3f
       -0.002805659780278802 0.4710220992565155
000080 00 00 00 80 8d e3 da 3f 00 00 00 80 a8 a2 6b 3f
       0.42013871669769287 0.0033734599128365517
000090 00 00 00 c0 0e 58 df 3f 00 00 00 e0 57 ea d9 3f
       0.48974961042404175 0.40492817759513855
0000a0 00 00 00 a0 3c 2c 2d bf 00 00 00 e0 fa 0e e0 3f
       -0.00022257080127019435 0.5018286108970642
0000b0 00 00 00 c0 40 23 d9 3f 00 00 00 00 60 ec 72 bf
       0.3927766680717468 -0.004619956016540527
0000c0 00 00 00 80 7b 5d e0 3f 00 00 00 a0 09 9f d8 3f
       0.5114114284515381 0.38470688462257385
0000d0 00 00 00 20 fd 0b 80 bf 00 00 00 60 79 1a de 3f
       -0.007835366763174534 0.47036585211753845
0000e0 00 00 00 60 08 df da 3f 00 00 00 00 3d ed 42 3f
       0.41986283659935 0.0005775974132120609
0000f0 00 00 00 a0 b7 6a df 3f 00 00 00 80 cc 9e d9 3f
       0.4908885061740875 0.40031731128692627
000100 00 00 00 a0 36 dd 5e bf 00 00 00 20 f3 16 e0 3f
       -0.0018837960669770837 0.5028014779090881
000110 00 00 00 80 05 e3 d8 3f 00 00 00 a0 3a 20 71 bf
       0.38885629177093506 -0.004181126598268747
000120 00 00 00 20 0f 66 e0 3f 00 00 00 e0 57 38 d8 3f
       0.5124583840370178 0.37843891978263855
000130 00 00 00 20 28 07 79 bf 00 00 00 20 83 55 de 3f
       -0.0061103408224880695 0.4739692509174347
000140 00 00 00 80 d7 0c db 3f 00 00 00 e0 d6 76 67 bf
       0.4226588010787964 -0.0028642842080444098
000150 00 00 00 20 f6 a4 df 3f 00 00 00 00 bc bc d9 3f
       0.49444344639778137 0.4021444320678711
000160 00 00 00 c0 9f f5 76 bf 00 00 00 e0 ad 2e e0 3f
       -0.0056053390726447105 0.5056981444358826
000170 00 00 00 80 19 f1 d8 3f 00 00 00 a0 f7 9a 7c bf
       0.3897155523300171 -0.006983725819736719
000180 00 00 00 60 b5 77 e0 3f 00 00 00 00 c4 48 d8 3f
       0.5146128535270691 0.3794412612915039
000190 00 00 00 40 bc 7b 80 bf 00 00 00 60 fd ce de 3f
       -0.008048506453633308 0.48138365149497986
0001a0 00 00 00 00 4c 6d db 3f 00 00 00 a0 7c 1f 7b bf
       0.4285459518432617 -0.0066218250431120396
0001b0 00 00 00 c0 d5 ec df 3f 00 00 00 c0 33 91 da 3f
       0.49883025884628296 0.4151124358177185
0001c0 00 00 00 a0 11 b0 81 bf 00 00 00 e0 3a 42 e0 3f
       -0.00863660592585802 0.5080847144126892
0001d0 00 00 00 80 fb 1b da 3f 00 00 00 60 6a e9 81 bf
       0.40795791149139404 -0.00874598603695631
0001e0 00 00 00 20 8b 7d e0 3f 00 00 00 80 a7 b6 d9 3f
       0.515325129032135 0.4017733335494995
0001f0 00 00 00 20 29 ea 81 bf 00 00 00 80 78 a5 e1 3f
       -0.008747407235205173 0.5514490604400635
000200 00 00 00 00 1e 80 ec 3f 00 00 00 40 ac 18 7f 3e
       0.8906393051147461 1.1584303649669891e-07
000210 00 00 00 a0 fd 15 e1 3f 00 00 00 60 18 a5 eb 3f
       0.5339344143867493 0.8639032244682312
000220 00 00 00 c0 53 49 44 bf 00 00 00 20 52 5a e0 3f
       -0.0006190928397700191 0.5110254883766174
000230 00 00 00 e0 9a 9d eb 3f 00 00 00 e0 9c 8b 52 bf
       0.8629888892173767 -0.00113191909622401
000240 00 00 00 a0 b8 83 df 3f 00 00 00 c0 76 cb eb 3f
       0.4924146234989166 0.8685868978500366
000250 00 00 00 20 17 ea 4a bf 00 00 00 e0 4b 9d de 3f
       -0.0008213627734221518 0.47835060954093933
000260 00 00 00 a0 69 c8 eb 3f 00 00 00 00 61 ae 2c 3f
       0.8682144284248352 0.0002188199432566762
000270 00 00 00 80 1a 43 e0 3f 00 00 00 80 19 72 ec 3f
       0.5081913471221924 0.8889281749725342
000280 00 00 00 40 25 2f 80 bf 00 00 00 c0 e9 da de 3f
       -0.007902422919869423 0.482111394405365
000290 00 00 00 20 0c 05 ed 3f 00 00 00 80 8d 8d 83 bf
       0.9068661332130432 -0.009547334164381027
0002a0 00 00 00 80 99 59 de 3f 00 00 00 40 bd 03 ed 3f
       0.4742187261581421 0.9067064523696899
0002b0 00 00 00 20 68 be 7c bf 00 00 00 a0 7c 67 de 3f
       -0.007017523515969515 0.47506633400917053
0002c0 00 00 00 c0 e9 ea ec 3f 00 00 00 60 40 73 6c bf
       0.90367591381073 -0.003472924930974841
0002d0 00 00 00 e0 4f 62 e0 3f 00 00 00 80 3c 29 ed 3f
       0.5120009779930115 0.9112837314605713
0002e0 00 00 00 20 e2 45 7c bf 00 00 00 20 0f 05 df 3f
       -0.006902583409100771 0.4846837818622589
0002f0 00 00 00 40 56 a7 ed 3f 00 00 00 60 08 2a 80 bf
       0.926676869392395 -0.007892671041190624
000300 00 00 00 80 3b 7b de 3f 00 00 00 a0 d2 82 ed 3f
       0.47627151012420654 0.9222195744514465
000310 00 00 00 60 eb 86 72 bf 00 00 00 80 1a 7b de 3f
       -0.004523200448602438 0.4762636423110962
000320 00 00 00 20 78 52 ed 3f 00 00 00 40 b6 44 4e bf
       0.9163170456886292 -0.000923718442209065
000330 00 00 00 00 63 85 e0 3f 00 00 00 60 17 ab ed 3f
       0.5162825584411621 0.927135169506073
000340 00 00 00 00 6e 20 76 bf 00 00 00 60 34 7c df 3f
       -0.005402021110057831 0.49195584654808044
000350 00 00 00 c0 66 05 ee 3f 00 00 00 40 af d4 74 bf
       0.9381593465805054 -0.0050856443122029305
000360 00 00 00 40 08 05 df 3f 00 00 00 00 d7 cf ed 3f
       0.4846821427345276 0.9316210746765137
000370 00 00 00 c0 09 3b 59 bf 00 00 00 e0 50 fe de 3f
       -0.0015399546828120947 0.48427221179008484
000380 00 00 00 20 f1 97 ed 3f 00 00 00 e0 4e d5 5c 3f
       0.9247975945472717 0.0017598409904167056
000390 00 00 00 e0 89 a8 e0 3f 00 00 00 a0 c1 fa ed 3f
       0.5205735564231873 0.9368599057197571
0003a0 00 00 00 a0 59 b6 6e bf 00 00 00 60 06 08 e0 3f
       -0.0037490606773644686 0.5009796023368835
0003b0 00 00 00 c0 f8 39 ee 3f 00 00 00 c0 2f ab 67 bf
       0.944576621055603 -0.00288924528285861
0003c0 00 00 00 80 66 9e df 3f 00 00 00 c0 3e 0e ee 3f
       0.4940429925918579 0.9392389059066772
0003d0 00 00 00 a0 6e 34 2b bf 00 00 00 00 7b 82 df 3f
       -0.00020755625155288726 0.4923388957977295
0003e0 00 00 00 a0 38 db ed 3f 00 00 00 00 99 af 66 3f
       0.9330103993415833 0.002769278362393379
0003f0 00 00 00 a0 01 90 de 3f 00 00 00 c0 23 6f df 3f
       0.47753944993019104 0.4911584258079529
000400 00 00 00 e0 3d 5c 86 3e 00 00 00 e0 2e 70 df 3f
       1.6659735990742774e-07 0.4912221133708954
000410 00 00 00 e0 dd 15 de 3f 00 00 00 40 6e 7a 41 3f
       0.47008463740348816 0.000533393700607121
000420 00 00 00 20 e6 ac df 3f 00 00 00 c0 3b 9d dc 3f
       0.49492791295051575 0.4470967650413513
000430 00 00 00 c0 13 c9 ef 3e 00 00 00 00 30 eb df 3f
       1.5156487279455177e-05 0.4987297058105469
000440 00 00 00 c0 5e a1 db 3f 00 00 00 00 88 df 56 bf
       0.4317242503166199 -0.0013960674405097961
000450 00 00 00 a0 81 19 e0 3f 00 00 00 00 ea c6 da 3f
       0.5031135678291321 0.41839075088500977
000460 00 00 00 40 91 ba 63 bf 00 00 00 a0 e6 1b de 3f
       -0.002408298198133707 0.4704529345035553
000470 00 00 00 c0 c0 fc da 3f 00 00 00 60 08 27 71 3f
       0.4216768145561218 0.004187615122646093
000480 00 00 00 c0 c3 4d df 3f 00 00 00 60 35 fa d9 3f
       0.48912137746810913 0.40589651465415955
000490 00 00 00 00 26 37 51 3f 00 00 00 e0 40 07 e0 3f
       0.0010507460683584213 0.5008854269981384
0004a0 00 00 00 e0 cf 29 d9 3f 00 00 00 60 16 89 6a bf
       0.39317700266838074 -0.003239196492359042
0004b0 00 00 00 a0 fa 53 e0 3f 00 00 00 20 14 a4 d8 3f
       0.5102513432502747 0.3850145637989044
0004c0 00 00 00 c0 05 6e 7a bf 00 00 00 20 59 16 de 3f
       -0.006452581845223904 0.4701140224933624
0004d0 00 00 00 00 9d f1 da 3f 00 00 00 80 fa d6 55 3f
       0.42099690437316895 0.0013329931534826756
0004e0 00 00 00 60 ab 61 df 3f 00 00 00 00 fe af d9 3f
       0.49033626914024353 0.4013667106628418
0004f0 00 00 00 80 3e b5 46 bf 00 00 00 00 48 10 e0 3f
       -0.0006929927039891481 0.5019874572753906
000500 00 00 00 80 ce dd d8 3f 00 00 00 20 93 26 6a bf
       0.3885380029678345 -0.0031922219786792994
000510 00 00 00 00 14 5f e0 3f 00 00 00 00 62 2f d8 3f
       0.5116062164306641 0.37789201736450195
000520 00 00 00 c0 ab f8 75 bf 00 00 00 20 79 55 de 3f
       -0.005364104174077511 0.4739668667316437
000530 00 00 00 40 9b 1a db 3f 00 00 00 a0 b4 89 61 bf
       0.4234989285469055 -0.002140858443453908
000540 00 00 00 00 13 9e df 3f 00 00 00 c0 c1 bd d9 3f
       0.49402308464050293 0.4022068381309509
000550 00 00 00 c0 28 65 72 bf 00 00 00 e0 b7 2a e0 3f
       -0.004491004161536694 0.5052146315574646
000560 00 00 00 40 46 e5 d8 3f 00 00 00 80 5c a8 78 bf
       0.3889937996864319 -0.006019936874508858
000570 00 00 00 c0 09 73 e0 3f 00 00 00 a0 f9 33 d8 3f
       0.5140427350997925 0.3781723082065582
000580 00 00 00 c0 d0 ee 7d bf 00 00 00 80 83 cf de 3f
       -0.007307830266654491 0.48141562938690186
000590 00 00 00 a0 7b 74 db 3f 00 00 00 60 ac 3d 78 bf
       0.42898455262184143 -0.005918191280215979
0005a0 00 00 00 a0 61 e8 df 3f 00 00 00 e0 e2 99 da 3f
       0.4985584318637848 0.41564247012138367
0005b0 00 00 00 00 d2 78 7f bf 00 00 00 40 4b 3d e0 3f
       -0.007683582603931427 0.5074821710586548
0005c0 00 00 00 40 e4 24 da 3f 00 00 00 c0 dd 7f 7f bf
       0.40850168466567993 -0.007690302096307278
0005d0 00 00 00 00 8f 76 e0 3f 00 00 00 40 48 c4 d9 3f
       0.514472484588623 0.4026051163673401
0005e0 00 00 00 00 4b 5b 7f bf 00 00 00 e0 f5 c5 e1 3f
       -0.007655423134565353 0.5554150938987732
0005f0 00 00 00 c0 38 bb ec 3f 00 00 00 c0 19 4b 7c 3e
       0.897854208946228 1.0540098571709677e-07
000600 00 00 00 60 66 35 e1 3f 00 00 00 e0 26 fa eb 3f
       0.537768542766571 0.8742861151695251
000610 00 00 00 60 4a 75 68 bf 00 00 00 00 95 88 e0 3f
       -0.0029856159817427397 0.5166726112365723
000620 00 00 00 c0 11 fb eb 3f 00 00 00 e0 36 db 72 bf
       0.8743981122970581 -0.004603590350598097
000630 00 00 00 c0 17 de df 3f 00 00 00 00 5f 32 ec 3f
       0.49793046712875366 0.8811488151550293
000640 00 00 00 00 9d 7c 75 bf 00 00 00 a0 41 f6 de 3f
       -0.0052457936108112335 0.48378029465675354
000650 00 00 00 80 9d 4a ec 3f 00 00 00 c0 b4 72 74 bf
       0.884108304977417 -0.0049922047182917595
000660 00 00 00 80 0c 72 e0 3f 00 00 00 00 b5 ef ec 3f
       0.5139219760894775 0.9042611122131348
000670 00 00 00 c0 72 59 7d bf 00 00 00 00 cd 39 df 3f
       -0.007165382616221905 0.4879028797149658
000680 00 00 00 60 cf 81 ed 3f 00 00 00 80 fa a6 83 bf
       0.9220959544181824 -0.009595829993486404
000690 00 00 00 20 38 a1 de 3f 00 00 00 c0 4e 72 ed 3f
       0.4785900413990021 0.9202035665512085
0006a0 00 00 00 e0 70 0e 82 bf 00 00 00 60 06 95 de 3f
       -0.008816606365144253 0.4778457581996918
0006b0 00 00 00 e0 35 43 ed 3f 00 00 00 00 56 00 7b bf
       0.9144544005393982 -0.006592117249965668
0006c0 00 00 00 60 98 93 e0 3f 00 00 00 00 25 a0 ed 3f
       0.5180169939994812 0.9257988929748535
0006d0 00 00 00 00 2b f1 74 bf 00 00 00 20 bb 5b df 3f
       -0.00511280819773674 0.4899738132953644
0006e0 00 00 00 c0 17 2b ee 3f 00 00 00 60 1b 22 79 bf
       0.9427603483200073 -0.006136042531579733
0006f0 00 00 00 a0 b3 bc de 3f 00 00 00 40 ad f8 ed 3f
       0.4802674353122711 0.9366060495376587
000700 00 00 00 40 15 35 73 bf 00 00 00 60 43 a6 de 3f
       -0.0046892957761883736 0.47889789938926697
000710 00 00 00 20 e0 ae ed 3f 00 00 00 c0 65 3b 68 bf
       0.9275971055030823 -0.0029580104164779186
000720 00 00 00 c0 8c b3 e0 3f 00 00 00 80 c5 11 ee 3f
       0.5219177007675171 0.9396693706512451
000730 00 00 00 80 ea 9b 67 bf 00 00 00 40 50 ce df 3f
       -0.002881963737308979 0.4969673752784729
000740 00 00 00 a0 62 72 ee 3f 00 00 00 60 78 ec 65 bf
       0.9514630436897278 -0.002676234347745776
000750 00 00 00 a0 ae 4f df 3f 00 00 00 c0 01 30 ee 3f
       0.4892384111881256 0.9433602094650269
000760 00 00 00 e0 ac 7b 50 bf 00 00 00 60 29 47 df 3f
       -0.0010060489876195788 0.4887183606624603
000770 00 00 00 00 fd e4 ed 3f 00 00 00 a0 e3 59 38 3f
       0.9342026710510254 0.0003715687489602715
000780 00 00 00 80 8c c9 e0 3f 00 00 00 80 29 48 ee 3f
       0.5246031284332275 0.9463088512420654
000790 00 00 00 40 80 de 48 bf 00 00 00 c0 8e 2c e0 3f
       -0.0007589460583403707 0.5054391622543335
0007a0 00 00 00 a0 a8 82 ee 3f 00 00 00 e0 f2 9b 33 bf
       0.953449547290802 -0.000299212260870263
0007b0 00 00 00 40 e0 da df 3f 00 00 00 00 93 4d ee 3f
       0.4977341294288635 0.9469695091247559
0007c0 00 00 00 a0 ae 83 54 3f 00 00 00 a0 e2 b8 df 3f
       0.001252098591066897 0.4956595003604889
0007d0 00 00 00 20 d6 12 ee 3f 00 00 00 80 3e f6 67 3f
       0.9397993683815002 0.0029250355437397957
0007e0 00 00 00 00 21 99 de 3f 00 00 00 80 d6 88 df 3f
       0.47809624671936035 0.4927269220352173
0007f0 00 00 00 20 f4 c7 86 3e 00 00 00 80 4a 6f df 3f
       1.6973218919247302e-07 0.49116766452789307
