prueba 5 - WLASL/keypoints_hello_name_javi/-b4_y6LOSx0_-b4_y6LOSx0_9-8-rgb_front.npy (npy, 30368 bytes, 1 tensors)

array f8 [30, 126]
0.48387426137924194 0.8956243991851807 3.728634112576401e-08 0.4987121820449829 0.8784007430076599 -0.001429238123819232 0.5158076286315918 0.8782938718795776
-0.002204356249421835 0.5276548266410828 0.8863406777381897 -0.0028169676661491394 0.536244809627533 0.8928222060203552 -0.003133157966658473 0.5154253840446472
0.8903442621231079 -0.004081650637090206 0.5306670665740967 0.8999128341674805 -0.00740555115044117 0.5405706763267517 0.9042108654975891 -0.009392190724611282
0.547637403011322 0.9058617353439331 -0.010282660834491253 0.5122577548027039 0.9094544649124146 -0.005056529305875301 0.5277879238128662 0.917509913444519
-0.00691298907622695 0.5379591584205627 0.9176275730133057 -0.007566286716610193 0.5454419255256653 0.9167549014091492 -0.007897984236478806 0.5087992548942566
0.9256424903869629 -0.005972161889076233 0.5236186981201172 0.9322747588157654 -0.007504327688366175 0.5325790643692017 0.9307489395141602 -0.0059522176161408424
0.5391523241996765 0.9293521642684937 -0.004530586302280426 0.5054522156715393 0.9380805492401123 -0.007081206887960434 0.5187299847602844 0.9424733519554138
-0.007993757724761963 0.5262030959129333 0.9403238296508789 -0.005705920979380608 0.5312161445617676 0.937682569026947 -0.0034285474102944136 0.5956605672836304
0.8881136178970337 1.5304776468383352e-07 0.5804758071899414 0.8611910939216614 -0.004690630827099085 0.5581929683685303 0.8559336066246033 -0.00866667740046978
0.538112223148346 0.8632137179374695 -0.010862737894058228 0.5228347182273865 0.8682578802108765 -0.01271187886595726 0.5612513422966003 0.8766387104988098
-0.019428204745054245 0.5308810472488403 0.8871588110923767 -0.025345604866743088 0.517795741558075 0.8849614858627319 -0.0250393059104681 0.5126551389694214
0.8792603611946106 -0.023016411811113358 0.563404381275177 0.9008435606956482 -0.01794382743537426 0.5301344394683838 0.9085853695869446 -0.02284606546163559
0.5150995254516602 0.9031039476394653 -0.02136106602847576 0.5086643099784851 0.8952507376670837 -0.019343512132763863 0.5649132132530212 0.9174031615257263
-0.015807468444108963 0.5343819260597229 0.9263200759887695 -0.018572308123111725 0.5199307799339294 0.9198720455169678 -0.01765558123588562 0.5128317475318909
0.9107196927070618 -0.016604358330368996 0.5655001401901245 0.9270129799842834 -0.013633627444505692 0.5417163372039795 0.9336827397346497 -0.015360320918262005
0.5296751260757446 0.9288075566291809 -0.015033339150249958 0.5227148532867432 0.9221670627593994 -0.014242884702980518 0.48368531465530396 0.8960838913917542
3.633790157664407e-08 0.49842697381973267 0.8783625364303589 -0.0016047870740294456 0.5156858563423157 0.8786236643791199 -0.0024225148372352123 0.5274385213851929
0.8874268531799316 -0.002972859889268875 0.5358368158340454 0.8944219350814819 -0.003209090093150735 0.515205442905426 0.891427218914032 -0.004335254430770874
0.5302049517631531 0.9009999632835388 -0.0075024086982011795 0.5395601987838745 0.9052029252052307 -0.0093644168227911 0.5461467504501343 0.9067858457565308
-0.010210391134023666 0.511896550655365 0.9104889035224915 -0.00511725852265954 0.5272465348243713 0.918663740158081 -0.006879549939185381 0.5368261933326721
0.9181015491485596 -0.007449486292898655 0.5437012910842896 0.9168254137039185 -0.007766664959490299 0.5083343386650085 0.9264537692070007 -0.005832737311720848
0.5230293273925781 0.9331181049346924 -0.007304416969418526 0.5313506722450256 0.9305735230445862 -0.005696513690054417 0.5372365713119507 0.9286158680915833
-0.004262283444404602 0.5049720406532288 0.9386100769042969 -0.0067393421195447445 0.5181155800819397 0.9428888559341431 -0.007606595754623413 0.525141179561615
0.9398753643035889 -0.005342520773410797 0.5296430587768555 0.9365747570991516 -0.0031223089899867773 0.5958837270736694 0.888663113117218 1.524521024975911e-07
0.5805108547210693 0.8613811731338501 -0.004684978164732456 0.5582613348960876 0.8558290600776672 -0.008621797896921635 0.5379638075828552 0.8626537919044495
-0.010784360580146313 0.5225579142570496 0.8677424192428589 -0.01257307268679142 0.5612193942070007 0.8763644695281982 -0.01929616555571556 0.5307612419128418
0.8866400122642517 -0.02498602867126465 0.5177882313728333 0.8843455910682678 -0.024463308975100517 0.5127926468849182 0.8787283897399902 -0.022312771528959274
0.5633075833320618 0.9009239077568054 -0.017783353105187416 0.5299519896507263 0.9086571931838989 -0.02251807227730751 0.5151606202125549 0.9028908014297485
-0.020888332277536392 0.5088750720024109 0.8947028517723083 -0.0187867172062397 0.5647323131561279 0.9177756309509277 -0.015610631555318832 0.5340742468833923
0.9265478253364563 -0.018268223851919174 0.519859790802002 0.9200876951217651 -0.017209218814969063 0.5129140615463257 0.9108368754386902 -0.01608535833656788
0.5652661919593811 0.9274439811706543 -0.013411070220172405 0.5414385795593262 0.9333807229995728 -0.015062643215060234 0.5297492742538452 0.9282703995704651
-0.014589006081223488 0.52308189868927 0.9214655160903931 -0.013707718811929226 0.4838924705982208 0.8969682455062866 3.552252181293625e-08 0.49849840998649597
00000000: 0000 00c0 cbf7 de3f 0000 0080 f4a8 ec3f
00000010: 0000 0080 9804 643e 0000 0080 e6ea df3f
00000020: 0000 00e0 db1b ec3f 0000 00c0 a86a 57bf
00000030: 0000 0000 7f81 e03f 0000 00c0 fb1a ec3f
00000040: 0000 00c0 de0e 62bf 0000 0060 8ce2 e03f
00000050: 0000 0020 e75c ec3f 0000 0000 9c13 67bf
00000060: 0000 00e0 ea28 e13f 0000 00e0 ff91 ec3f
00000070: 0000 0060 b5aa 69bf 0000 0060 5d7e e03f
00000080: 0000 0040 b37d ec3f 0000 00c0 ebb7 70bf
00000090: 0000 0080 39fb e03f 0000 0000 16cc ec3f
000000a0: 0000 0080 4855 7ebf 0000 00e0 5a4c e13f
000000b0: 0000 00a0 4bef ec3f 0000 0080 363c 83bf
000000c0: 0000 00e0 3e86 e13f 0000 00c0 d1fc ec3f
000000d0: 0000 0060 130f 85bf 0000 0060 6a64 e03f
000000e0: 0000 0040 401a ed3f 0000 00c0 27b6 74bf
000000f0: 0000 0080 a3e3 e03f 0000 00c0 3d5c ed3f
00000100: 0000 0060 cb50 7cbf 0000 0020 f636 e13f
00000110: 0000 0080 345d ed3f 0000 00a0 d3fd 7ebf
00000120: 0000 00a0 4274 e13f 0000 0060 0e56 ed3f
00000130: 0000 0080 d12c 80bf 0000 0060 1548 e03f
00000140: 0000 0000 dd9e ed3f 0000 0000 4476 78bf
00000150: 0000 0000 7cc1 e03f 0000 00e0 31d5 ed3f
00000160: 0000 00a0 dbbc 7ebf 0000 0040 e30a e13f
00000170: 0000 0000 b2c8 ed3f 0000 0040 5a61 78bf
00000180: 0000 0060 bc40 e13f 0000 00c0 40bd ed3f
00000190: 0000 0000 aa8e 72bf 0000 0020 aa2c e03f
000001a0: 0000 0080 c104 ee3f 0000 0000 2f01 7dbf
000001b0: 0000 00a0 6f99 e03f 0000 00e0 bd28 ee3f
000001c0: 0000 0000 085f 80bf 0000 00e0 a7d6 e03f
000001d0: 0000 0000 2217 ee3f 0000 0080 175f 77bf
000001e0: 0000 0000 b9ff e03f 0000 00e0 7e01 ee3f
000001f0: 0000 0060 2f16 6cbf 0000 00c0 a60f e33f
00000200: 0000 0040 6d6b ec3f 0000 0060 ae8a 843e
00000210: 0000 0000 4293 e23f 0000 00a0 e08e eb3f
00000220: 0000 00a0 7b36 73bf 0000 0080 b7dc e13f
00000230: 0000 00e0 ce63 eb3f 0000 00c0 d5bf 81bf
00000240: 0000 0020 3738 e13f 0000 0060 729f eb3f
00000250: 0000 0000 343f 86bf 0000 00e0 0fbb e03f
00000260: 0000 00c0 c4c8 eb3f 0000 0080 af08 8abf
00000270: 0000 0060 c5f5 e13f 0000 00a0 6c0d ec3f
00000280: 0000 00c0 fce4 93bf 0000 0040 fafc e03f
00000290: 0000 00e0 9a63 ec3f 0000 00c0 32f4 99bf
000002a0: 0000 0060 c891 e03f 0000 00c0 9a51 ec3f
000002b0: 0000 0060 e7a3 99bf 0000 00c0 ab67 e03f
000002c0: 0000 00a0 e622 ec3f 0000 0040 9d91 97bf
000002d0: 0000 00a0 6807 e23f 0000 00e0 b5d3 ec3f
000002e0: 0000 00e0 dd5f 92bf 0000 0080 dcf6 e03f
000002f0: 0000 00a0 2113 ed3f 0000 0080 f564 97bf
00000300: 0000 0000 b27b e03f 0000 0040 3ae6 ec3f
00000310: 0000 00e0 acdf 95bf 0000 0060 fa46 e03f
00000320: 0000 00e0 e4a5 ec3f 0000 0020 c9ce 93bf
00000330: 0000 00e0 c413 e23f 0000 00e0 5d5b ed3f
00000340: 0000 0040 d52f 90bf 0000 0020 a819 e13f
00000350: 0000 0000 6aa4 ed3f 0000 0080 9e04 93bf
00000360: 0000 00e0 45a3 e03f 0000 0080 976f ed3f
00000370: 0000 0000 4e14 92bf 0000 0020 1e69 e03f
00000380: 0000 00a0 9d24 ed3f 0000 00a0 bb00 91bf
00000390: 0000 00c0 9318 e23f 0000 0020 17aa ed3f
000003a0: 0000 0080 f2eb 8bbf 0000 0080 bd55 e13f
000003b0: 0000 00a0 bae0 ed3f 0000 0060 3b75 8fbf
000003c0: 0000 0040 19f3 e03f 0000 00a0 cab8 ed3f
000003d0: 0000 00a0 ccc9 8ebf 0000 0080 14ba e03f
000003e0: 0000 0080 6482 ed3f 0000 00a0 5f2b 8dbf
000003f0: 0000 0040 b3f4 de3f 0000 0020 b8ac ec3f
00000400: 0000 0040 3e82 633e 0000 0040 3ae6 df3f
00000410: 0000 00c0 8b1b ec3f 0000 0000 f74a 5abf
00000420: 0000 00a0 7f80 e03f 0000 0060 af1d ec3f
00000430: 0000 00c0 61d8 63bf 0000 00c0 c6e0 e03f
00000440: 0000 0000 cd65 ec3f 0000 0000 8a5a 68bf
00000450: 0000 0040 9325 e13f 0000 00c0 1a9f ec3f
00000460: 0000 0020 f349 6abf 0000 0020 907c e03f
00000470: 0000 0060 9286 ec3f 0000 0000 d8c1 71bf
00000480: 0000 0060 70f7 e03f 0000 00e0 fdd4 ec3f
00000490: 0000 0080 d8ba 7ebf 0000 00c0 1344 e13f
000004a0: 0000 0020 6cf7 ec3f 0000 00c0 a62d 83bf
000004b0: 0000 00c0 087a e13f 0000 00c0 6304 ed3f
000004c0: 0000 0080 2fe9 84bf 0000 00e0 7461 e03f
000004d0: 0000 00a0 b922 ed3f 0000 00a0 d5f5 74bf
000004e0: 0000 0020 34df e03f 0000 0080 b165 ed3f
000004f0: 0000 0020 bb2d 7cbf 0000 0020 ae2d e13f
00000500: 0000 0080 1661 ed3f 0000 0040 5a83 7ebf
00000510: 0000 0040 0066 e13f 0000 0040 a256 ed3f
00000520: 0000 0040 f0cf 7fbf 0000 0060 4644 e03f
00000530: 0000 0060 82a5 ed3f 0000 0080 11e4 77bf
00000540: 0000 0000 a8bc e03f 0000 0080 1adc ed3f
00000550: 0000 0080 3ceb 7dbf 0000 0020 d300 e13f
00000560: 0000 0020 42c7 ed3f 0000 0040 3a55 77bf
00000570: 0000 00c0 0a31 e13f 0000 00a0 38b7 ed3f
00000580: 0000 0000 5475 71bf 0000 0020 bb28 e03f
00000590: 0000 0000 1809 ee3f 0000 0060 b69a 7bbf
000005a0: 0000 0020 6794 e03f 0000 0040 252c ee3f
000005b0: 0000 0000 1828 7fbf 0000 00e0 f4cd e03f
000005c0: 0000 0080 7513 ee3f 0000 0000 0ae2 75bf
000005d0: 0000 0000 d6f2 e03f 0000 00a0 6bf8 ed3f
000005e0: 0000 00e0 f493 69bf 0000 00c0 7a11 e33f
000005f0: 0000 00a0 ed6f ec3f 0000 00e0 3676 843e
00000600: 0000 0080 8b93 e23f 0000 0040 6f90 eb3f
00000610: 0000 0040 8e30 73bf 0000 00e0 46dd e13f
00000620: 0000 00a0 f362 eb3f 0000 0020 4ea8 81bf
00000630: 0000 00e0 ff36 e13f 0000 0020 dc9a eb3f
00000640: 0000 0060 1c16 86bf 0000 0060 cbb8 e03f
00000650: 0000 00c0 8bc4 eb3f 0000 0040 e9bf 89bf
00000660: 0000 0060 82f5 e13f 0000 0080 2d0b ec3f
00000670: 0000 00c0 5fc2 93bf 0000 0000 fffb e03f
00000680: 0000 00e0 5a5f ec3f 0000 0000 f095 99bf
00000690: 0000 00a0 b891 e03f 0000 0020 8f4c ec3f
000006a0: 0000 00e0 e80c 99bf 0000 0020 cc68 e03f
000006b0: 0000 0000 8b1e ec3f 0000 00c0 28d9 96bf
000006c0: 0000 00a0 9d06 e23f 0000 0060 5ed4 ec3f
000006d0: 0000 00a0 cc35 92bf 0000 00e0 5df5 e03f
000006e0: 0000 0040 b813 ed3f 0000 0040 fa0e 97bf
000006f0: 0000 0020 327c e03f 0000 0040 7be4 ec3f
00000700: 0000 0040 c063 95bf 0000 0060 b448 e03f
00000710: 0000 00e0 67a1 ec3f 0000 0040 d33c 93bf
00000720: 0000 0080 4912 e23f 0000 0000 6b5e ed3f
00000730: 0000 0080 77f8 8fbf 0000 00e0 2217 e13f
00000740: 0000 00a0 47a6 ed3f 0000 00c0 e7b4 92bf
00000750: 0000 0000 b1a2 e03f 0000 00c0 5b71 ed3f
00000760: 0000 0020 4b9f 91bf 0000 00c0 ca69 e03f
00000770: 0000 0060 9325 ed3f 0000 0020 ae78 90bf
00000780: 0000 0020 a916 e23f 0000 0000 9fad ed3f
00000790: 0000 0060 4377 8bbf 0000 0000 7753 e13f
000007a0: 0000 0040 41de ed3f 0000 00c0 29d9 8ebf
000007b0: 0000 00c0 b4f3 e03f 0000 0020 64b4 ed3f
000007c0: 0000 0040 d7e0 8dbf 0000 0040 16bd e03f
000007d0: 0000 0040 a57c ed3f 0000 00e0 ca12 8cbf
000007e0: 0000 0020 18f8 de3f 0000 00c0 f6b3 ec3f
000007f0: 0000 00a0 2d12 633e 0000 00e0 65e7 df3f
