How2Sign/extracted_keypoints_holistic_full/-b4_y6LOSx0_0-8-rgb_front.npy (npy, 179696 bytes, 1 tensors)

array f8 [87, 258]
0	0x3fe101e000000000	0.5314788818359375
1	0x3fd7d9c0c0000000	0.3726655840873718
2	0xbfe0ff5dc0000000	-0.5311726331710815
3	0x3fefff9500000000	0.9999489784240723
4	0x3fe164ffc0000000	0.5435789823532104
5	0x3fd5d7d000000000	0.3412971496582031
6	0xbfe03adac0000000	-0.5071843862533569
7	0x3fefff5b60000000	0.9999215006828308
8	0x3fe1a78960000000	0.5517012476921082
9	0x3fd5c436c0000000	0.3401009440422058
10	0xbfe03bf9e0000000	-0.507321298122406
11	0x3fefff6420000000	0.9999256730079651
12	0x3fe1e67360000000	0.5593811869621277
13	0x3fd5c076c0000000	0.3398720622062683
14	0xbfe03b64a0000000	-0.5072501301765442
15	0x3fefff6560000000	0.9999262690544128
16	0x3fe0d6e060000000	0.5262300372123718
17	0x3fd61212a0000000	0.34485307335853577
18	0xbfdf9703a0000000	-0.49359217286109924
19	0x3fefff31a0000000	0.9999015927314758
20	0x3fe0b057c0000000	0.5215262174606323
21	0x3fd621e820000000	0.34581950306892395
22	0xbfdf968100000000	-0.4935610294342041
23	0x3fefff2400000000	0.9998950958251953
24	0x3fe0896000000000	0.5167694091796875
25	0x3fd63d4560000000	0.34748968482017517
26	0xbfdf9a09a0000000	-0.49377670884132385
27	0x3fefff0220000000	0.9998789429664612
28	0x3fe2721aa0000000	0.5764287114143372
29	0x3fd6dc2340000000	0.35718613862991333
30	0xbfd3b0a5c0000000	-0.3076567053794861
31	0x3fefff76a0000000	0.9999344944953918
32	0x3fe0817800000000	0.5158042907714844
33	0x3fd7549360000000	0.3645370900630951
34	0xbfcf3f6560000000	-0.2441221922636032
35	0x3feffea640000000	0.9998351335525513
36	0x3fe197d140000000	0.549782395362854
37	0x3fd9d8b5c0000000	0.4038519263267517
38	0xbfdd4cffc0000000	-0.4578246474266052
39	0x3fefffe040000000	0.999984860420227
40	0x3fe0cec040000000	0.5252381563186646
41	0x3fd9ed7d00000000	0.4051201343536377
42	0xbfdc0b7160000000	-0.43819841742515564
43	0x3fefffbfa0000000	0.9999693036079407
44	0x3fe4823c00000000	0.6408977508544922
45	0x3fe16cb5a0000000	0.5445201992988586
46	0xbfcacc81a0000000	-0.20936603844165802
47	0x3fefffcde0000000	0.9999760985374451
48	0x3fde3b89c0000000	0.47238391637802124
49	0x3fe1924740000000	0.549106240272522
50	0xbfab3df140000000	-0.05320695787668228
51	0x3feffe4ba0000000	0.9997919201850891
52	0x3fe5b78440000000	0.6786519289016724
53	0x3fea020c80000000	0.8127501010894775
54	0xbfd205d0c0000000	-0.28160494565963745
55	0x3feff887e0000000	0.9990882277488708
56	0x3fdb5be940000000	0.42748481035232544
57	0x3fe9194160000000	0.7843329310417175
58	0xbf889f0280000000	-0.01202203705906868
59	0x3fefbe2ba0000000	0.9919641613960266
60	0x3fe2bd4d40000000	0.5856081247329712
61	0x3fe9efae00000000	0.8105077743530273
62	0xbfe2db88c0000000	-0.5892986059188843
63	0x3fefe7a780000000	0.997028112411499
64	0x3fdef03840000000	0.48341184854507446
65	0x3feae93240000000	0.8409663438796997
66	0xbfd41911c0000000	-0.31403011083602905
67	0x3feecd4d40000000	0.9625612497329712
68	0x3fe1d767a0000000	0.5575445294380188
69	0x3feb646b80000000	0.8560082912445068
70	0xbfe5a449a0000000	-0.6763046383857727
71	0x3fefa00e40000000	0.9882880449295044
72	0x3fdfc736c0000000	0.4965340495109558
73	0x3fec52d740000000	0.8851124048233032
74	0xbfd87b6920000000	-0.38253238797187805
75	0x3fed7a3460000000	0.9211675524711609
76	0x3fe169f3e0000000	0.5441836714744568
77	0x3feaa22140000000	0.8322912454605103
78	0xbfe5fab780000000	-0.6868550777435303
79	0x3fefa70360000000	0.9891373515129089
80	0x3fe02617e0000000	0.5046500563621521
81	0x3febac6220000000	0.8647928833961487
82	0xbfdacb46a0000000	-0.41865697503089905
83	0x3feda29480000000	0.9260962009429932
84	0x3fe1aae000000000	0.5521087646484375
85	0x3fe9ef5360000000	0.8104645609855652
86	0xbfe318e8a0000000	-0.596790611743927
87	0x3fef86cc20000000	0.9852047562599182
88	0x3fe01a9100000000	0.5032429695129395
89	0x3feb1e7b40000000	0.8474708795547485
90	0xbfd562d580000000	-0.3341573476791382
91	0x3fed5d3ba0000000	0.9176309704780579
92	0x3fe34afdc0000000	0.602904200553894
93	0x3fef922880000000	0.9865915775299072
94	0xbfa47739c0000000	-0.03997211903333664
95	0x3fef1a80a0000000	0.9719851613044739
96	0x3fdf56b860000000	0.48966798186302185
97	0x3fef691bc0000000	0.9815806150436401
98	0x3fa5094360000000	0.04108629748225212
99	0x3fef03e900000000	0.9692273139953613
100	0x3fe3688de0000000	0.6065129637718201
101	0x3ff5728ec0000000	1.340468168258667
102	0xbfa5ccc380000000	-0.042577847838401794
103	0x3fc9243c80000000	0.19641834497451782
104	0x3fdf4d8060000000	0.48910531401634216
105	0x3ff5568ba0000000	1.3336292505264282
106	0x3fb54fc040000000	0.08324815332889557
107	0x3fc66ebd20000000	0.1752544790506363
108	0x3fe3652300000000	0.6060957908630371
109	0x3ffa49d6c0000000	1.6430270671844482
110	0x3fd2bd4080000000	0.29280102252960205
111	0x3fa0aa9680000000	0.03255148231983185
112	0x3fdf65b300000000	0.4905822277069092
113	0x3ffa53bf40000000	1.6454460620880127
114	0x3fd6777960000000	0.35104212164878845
115	0x3faa24d0c0000000	0.05106212943792343
116	0x3fe37fec00000000	0.6093654632568359
117	0x3ffaf4a3e0000000	1.684726595878601
118	0x3fd3e87920000000	0.3110640347003937
119	0x3f99a43820000000	0.025040509179234505
120	0x3fdf697540000000	0.49081164598464966
121	0x3ffb0feea0000000	1.6913896799087524
122	0x3fd796f9c0000000	0.3685898184776306
123	0x3fad526080000000	0.05726911127567291
124	0x3fe2db0e40000000	0.5892401933670044
125	0x3ffbf02c20000000	1.7461358308792114
126	0x3fa6438e20000000	0.0434841550886631
127	0x3f91c4eac0000000	0.017352741211652756
128	0x3fe017fcc0000000	0.5029281377792358
129	0x3ffbeca080000000	1.7452702522277832
130	0x3fb704c300000000	0.0899164080619812
131	0x3fa341e600000000	0.03761214017868042
132	0x3fe2ab4800000000	0.5834083557128906
133	0x3fec043a40000000	0.8755160570144653
134	0x3e74a6b5c0000000	7.693175518852513e-08
135	0x3fe205e9a0000000	0.5632217526435852
136	0x3feb858220000000	0.8600473999977112
137	0xbf153c6160000000	-8.100838022073731e-05
138	0x3fe15f8340000000	0.5429092645645142
139	0x3febb7a400000000	0.8661670684814453
140	0xbf5ffb6f60000000	-0.00195203663315624
141	0x3fe0e52be0000000	0.5279750227928162
142	0x3fec39b240000000	0.8820430040359497
143	0xbf6d44a260000000	-0.003572766436263919
144	0x3fe096bdc0000000	0.518401026725769
145	0x3fecab5c40000000	0.8959180116653442
146	0xbf7667aa00000000	-0.005469955503940582
147	0x3fe13a7000000000	0.5383834838867188
148	0x3febb77960000000	0.8661467432975769
149	0xbf860a6620000000	-0.010762021876871586
150	0x3fe05c26a0000000	0.5112488865852356
151	0x3fec4e0060000000	0.8845216631889343
152	0xbf8f3c3b20000000	-0.015251600183546543
153	0x3fdfded140000000	0.497974693775177
154	0x3fecb62000000000	0.8972320556640625
155	0xbf90c733c0000000	-0.016384895890951157
156	0x3fdf431400000000	0.48846912384033203
157	0x3fed04dba0000000	0.9068430066108704
158	0xbf90d2f800000000	-0.016429781913757324
159	0x3fe164c380000000	0.5435502529144287
160	0x3fec5e36c0000000	0.8865007162094116
161	0xbf8a10bc60000000	-0.012727233581244946
162	0x3fe0779c40000000	0.5146008729934692
163	0x3fed136500000000	0.9086174964904785
164	0xbf918d0000000000	-0.017139434814453125
165	0x3fdff42fc0000000	0.4992789626121521
166	0x3fed80d3e0000000	0.9219760298728943
167	0xbf92617860000000	-0.017949944362044334
168	0x3fdf4029e0000000	0.4882912337779999
169	0x3fedcae440000000	0.9310170412063599
170	0xbf9272c560000000	-0.018015941604971886
171	0x3fe19953e0000000	0.5499667525291443
172	0x3fecee2be0000000	0.9040736556053162
173	0xbf8ca22780000000	-0.013981159776449203
174	0x3fe0ca16e0000000	0.5246691107749939
175	0x3fed915740000000	0.9239917993545532
176	0xbf90d75380000000	-0.01644640415906906
177	0x3fe05be9c0000000	0.51121985912323
178	0x3fede3b820000000	0.9340477585792542
179	0xbf910af160000000	-0.016643306240439415
180	0x3fe00d5320000000	0.5016265511512756
181	0x3fee11c4a0000000	0.9396689534187317
182	0xbf90f7bc80000000	-0.016570039093494415
183	0x3fe1d08840000000	0.5567055940628052
184	0x3fed598be0000000	0.9171809554100037
185	0xbf8eb50340000000	-0.014993691816926003
186	0x3fe13cd200000000	0.5386743545532227
187	0x3fedd9e500000000	0.9328484535217285
188	0xbf90da83a0000000	-0.01645856536924839
189	0x3fe0e2c980000000	0.5276839733123779
190	0x3fee175b40000000	0.940351128578186
191	0xbf9060e1e0000000	-0.01599457673728466
192	0x3fe09e2fa0000000	0.5193098187446594
193	0x3fee422940000000	0.9455763101577759
194	0xbf8f4be340000000	-0.015281463041901588
195	0x0000000000000000	0.0
196	0x0000000000000000	0.0
197	0x0000000000000000	0.0
198	0x0000000000000000	0.0
199	0x0000000000000000	0.0
200	0x0000000000000000	0.0
201	0x0000000000000000	0.0
202	0x0000000000000000	0.0
203	0x0000000000000000	0.0
204	0x0000000000000000	0.0
205	0x0000000000000000	0.0
206	0x0000000000000000	0.0
207	0x0000000000000000	0.0
208	0x0000000000000000	0.0
209	0x0000000000000000	0.0
210	0x0000000000000000	0.0
211	0x0000000000000000	0.0
212	0x0000000000000000	0.0
213	0x0000000000000000	0.0
214	0x0000000000000000	0.0
215	0x0000000000000000	0.0
216	0x0000000000000000	0.0
217	0x0000000000000000	0.0
218	0x0000000000000000	0.0
219	0x0000000000000000	0.0
220	0x0000000000000000	0.0
221	0x0000000000000000	0.0
222	0x0000000000000000	0.0
223	0x0000000000000000	0.0
224	0x0000000000000000	0.0
225	0x0000000000000000	0.0
226	0x0000000000000000	0.0
227	0x0000000000000000	0.0
228	0x0000000000000000	0.0
229	0x0000000000000000	0.0
230	0x0000000000000000	0.0
231	0x0000000000000000	0.0
232	0x0000000000000000	0.0
233	0x0000000000000000	0.0
234	0x0000000000000000	0.0
235	0x0000000000000000	0.0
236	0x0000000000000000	0.0
237	0x0000000000000000	0.0
238	0x0000000000000000	0.0
239	0x0000000000000000	0.0
240	0x0000000000000000	0.0
241	0x0000000000000000	0.0
242	0x0000000000000000	0.0
243	0x0000000000000000	0.0
244	0x0000000000000000	0.0
245	0x0000000000000000	0.0
246	0x0000000000000000	0.0
247	0x0000000000000000	0.0
248	0x0000000000000000	0.0
249	0x0000000000000000	0.0
250	0x0000000000000000	0.0
251	0x0000000000000000	0.0
252	0x0000000000000000	0.0
253	0x0000000000000000	0.0
254	0x0000000000000000	0.0
255	0x0000000000000000	0.0
