How2Sign/extracted_keypoints_holistic_full/-b4_y6LOSx0_15-8-rgb_front.npy (npy, 169376 bytes, 1 tensors)

array f8 [82, 258]
000000 00 00 00 a0 06 4c e1 3f 00 00 00 40 d4 78 d8 3f
       0.5405305027961731 0.3823748230934143
000010 00 00 00 20 e0 ba d1 bf 00 00 00 80 61 ff ef 3f
       -0.27703097462654114 0.9999244213104248
000020 00 00 00 40 eb a1 e1 3f 00 00 00 20 37 b0 d6 3f
       0.5510154962539673 0.354505330324173
000030 00 00 00 40 43 11 d2 bf 00 00 00 80 bd fe ef 3f
       -0.2823036313056946 0.9998462200164795
000040 00 00 00 40 eb e0 e1 3f 00 00 00 40 3f ab d6 3f
       0.5587059259414673 0.3542020916938782
000050 00 00 00 40 43 13 d2 bf 00 00 00 20 c7 fe ef 3f
       -0.2824257016181946 0.9998508095741272
000060 00 00 00 40 51 20 e2 3f 00 00 00 00 59 a3 d6 3f
       0.566444993019104 0.35371994972229004
000070 00 00 00 40 72 11 d2 bf 00 00 00 60 ea fe ef 3f
       -0.28231483697891235 0.9998676180839539
000080 00 00 00 c0 af 2a e1 3f 00 00 00 60 0b ca d6 3f
       0.5364607572555542 0.3560818135738373
000090 00 00 00 c0 6e ae ce bf 00 00 00 80 6a fe ef 3f
       -0.23969826102256775 0.9998066425323486
0000a0 00 00 00 40 82 07 e1 3f 00 00 00 80 e0 d8 d6 3f
       0.532166600227356 0.3569871187210083
0000b0 00 00 00 40 05 aa ce bf 00 00 00 40 29 fe ef 3f
       -0.23956361413002014 0.9997755289077759
0000c0 00 00 00 60 61 e8 e0 3f 00 00 00 80 b4 f2 d6 3f
       0.52836674451828 0.35856354236602783
0000d0 00 00 00 00 dd b1 ce bf 00 00 00 a0 3b fe ef 3f
       -0.23980295658111572 0.9997842907905579
0000e0 00 00 00 80 ab b9 e2 3f 00 00 00 20 e7 9a d7 3f
       0.5851647853851318 0.36882951855659485
0000f0 00 00 00 60 90 f3 cd bf 00 00 00 00 0c ff ef 3f
       -0.2339954823255539 0.9998836517333984
000100 00 00 00 20 24 e6 e0 3f 00 00 00 80 58 2c d8 3f
       0.5280933976173401 0.3777066469192505
000110 00 00 00 c0 e8 f2 99 bf 00 00 00 60 59 fc ef 3f
       -0.025340687483549118 0.9995543360710144
000120 00 00 00 40 e3 d4 e1 3f 00 00 00 20 e9 64 da 3f
       0.5572372674942017 0.41240909695625305
000130 00 00 00 60 c0 51 d0 bf 00 00 00 20 c6 ff ef 3f
       -0.25498971343040466 0.999972403049469
000140 00 00 00 20 f5 2d e1 3f 00 00 00 80 97 7f da 3f
       0.5368600487709045 0.4140375852584839
000150 00 00 00 60 70 77 c9 bf 00 00 00 60 45 ff ef 3f
       -0.19895748794078827 0.9999110102653503
000160 00 00 00 a0 31 ad e4 3f 00 00 00 40 39 d6 e1 3f
       0.6461418271064758 0.5574003458023071
000170 00 00 00 c0 17 78 cb bf 00 00 00 40 e0 ff ef 3f
       -0.21460244059562683 0.999984860420227
000180 00 00 00 a0 4f 2f df 3f 00 00 00 80 40 33 e1 3f
       0.48726263642311096 0.5375063419342041
000190 00 00 00 80 7f 09 c1 3f 00 00 00 60 59 fe ef 3f
       0.13310235738754272 0.9997984766960144
0001a0 00 00 00 00 18 d0 e5 3f 00 00 00 e0 da 53 ea 3f
       0.6816520690917969 0.8227362036705017
0001b0 00 00 00 40 89 ba d7 bf 00 00 00 e0 89 fc ef 3f
       -0.3707602620124817 0.9995774626731873
0001c0 00 00 00 c0 0c 1c da 3f 00 00 00 20 00 8b e7 3f
       0.40796202421188354 0.7357178330421448
0001d0 00 00 00 a0 80 bf a7 bf 00 00 00 c0 d6 f4 ef 3f
       -0.04638292267918587 0.9986375570297241
0001e0 00 00 00 c0 6a 9d e2 3f 00 00 00 e0 b3 6c eb 3f
       0.5817159414291382 0.8570193648338318
0001f0 00 00 00 c0 1c 49 df bf 00 00 00 20 79 fd ef 3f
       -0.48883742094039917 0.9996915459632874
000200 00 00 00 60 ba 87 dc 3f 00 00 00 40 0f a3 e2 3f
       0.44578418135643005 0.5824047327041626
000210 00 00 00 e0 5d 55 e0 bf 00 00 00 00 34 fb ef 3f
       -0.5104207396507263 0.9994144439697266
000220 00 00 00 40 90 8b e1 3f 00 00 00 80 e8 90 ec 3f
       0.5482865571975708 0.8926889896392822
000230 00 00 00 e0 59 3d e1 bf 00 00 00 80 77 eb ef 3f
       -0.5387391448020935 0.9974935054779053
000240 00 00 00 40 41 55 dc 3f 00 00 00 a0 ef 54 e1 3f
       0.4427035450935364 0.5416181683540344
000250 00 00 00 00 3d 8f e2 bf 00 00 00 60 6f e3 ef 3f
       -0.5799851417541504 0.9965130686759949
000260 00 00 00 e0 0f 3c e1 3f 00 00 00 a0 51 b2 eb 3f
       0.5385817885398865 0.8655174374580383
000270 00 00 00 40 fd 8a e0 bf 00 00 00 40 28 e9 ef 3f
       -0.5169664621353149 0.9972115755081177
000280 00 00 00 c0 65 d9 dc 3f 00 00 00 60 cf c6 e0 3f
       0.4507688879966736 0.5242688059806824
000290 00 00 00 e0 78 b0 e1 bf 00 00 00 20 dd dc ef 3f
       -0.5527920126914978 0.9957109093666077
0002a0 00 00 00 c0 e3 71 e1 3f 00 00 00 40 53 58 eb 3f
       0.5451525449752808 0.8545318841934204
0002b0 00 00 00 c0 50 7b de bf 00 00 00 60 0d e4 ef 3f
       -0.47627657651901245 0.996588408946991
0002c0 00 00 00 00 c8 3b dd 3f 00 00 00 20 bb 38 e1 3f
       0.4567737579345703 0.5381751656532288
0002d0 00 00 00 e0 0b 71 e0 bf 00 00 00 60 d3 da ef 3f
       -0.5137996077537537 0.9954621195793152
0002e0 00 00 00 80 59 2c e3 3f 00 00 00 20 e4 65 ef 3f
       0.5991637706756592 0.9811878800392151
0002f0 00 00 00 40 8d bc b6 bf 00 00 00 40 0e 31 ee 3f
       -0.08881457149982452 0.9434882402420044
000300 00 00 00 c0 e8 66 df 3f 00 00 00 a0 4f ce ee 3f
       0.4906560778617859 0.9626844525337219
000310 00 00 00 00 24 0b b7 3f 00 00 00 e0 76 49 ee 3f
       0.09001374244689941 0.9464678168296814
000320 00 00 00 00 1c e9 e2 3f 00 00 00 a0 7c 12 f5 3f
       0.5909557342529297 1.3170133829116821
000330 00 00 00 60 bf d1 bc bf 00 00 00 a0 77 c8 88 3f
       -0.11257549375295639 0.012101111002266407
000340 00 00 00 00 be ce de 3f 00 00 00 e0 cb df f4 3f
       0.4813685417175293 1.3046377897262573
000350 00 00 00 00 12 75 ce 3f 00 00 00 80 64 fa 88 3f
       0.23794770240783691 0.012196335941553116
000360 00 00 00 40 9e da e2 3f 00 00 00 e0 a7 c7 f9 3f
       0.5891867876052856 1.6112440824508667
000370 00 00 00 80 a4 cf c5 3f 00 00 00 20 f2 9b 32 3f
       0.1703992486000061 0.00028395329718478024
000380 00 00 00 00 62 bb de 3f 00 00 00 c0 ec c8 f9 3f
       0.48018693923950195 1.6115539073944092
000390 00 00 00 40 e0 32 e1 3f 00 00 00 80 6e 2b 4e 3f
       0.537460446357727 0.0009207047987729311
0003a0 00 00 00 00 63 0f e3 3f 00 00 00 a0 f9 6f fa 3f
       0.5956282615661621 1.652337670326233
0003b0 00 00 00 80 0d 99 c7 3f 00 00 00 e0 5c aa 2c 3f
       0.18435829877853394 0.00021870025375392288
0003c0 00 00 00 60 2c a7 de 3f 00 00 00 c0 16 80 fa 3f
       0.47895345091819763 1.6562716960906982
0003d0 00 00 00 60 8c fc e1 3f 00 00 00 80 42 36 50 3f
       0.5620786547660828 0.0009894990362226963
0003e0 00 00 00 00 1c fb e1 3f 00 00 00 80 ff 5f fb 3f
       0.5619029998779297 1.7109370231628418
0003f0 00 00 00 c0 9a 66 b0 bf 00 00 00 00 b4 cf 30 3f
       -0.06406562030315399 0.00025652069598436356
000400 00 00 00 00 43 79 de 3f 00 00 00 c0 3d 69 fb 3f
       0.4761512279510498 1.713193655014038
000410 00 00 00 00 ea a1 d5 3f 00 00 00 c0 aa e6 63 3f
       0.33800745010375977 0.00242932653054595
000420 00 00 00 80 7f fe e1 3f 00 00 00 00 38 a4 ec 3f
       0.5623166561126709 0.8950462341308594
000430 00 00 00 00 06 5f 80 3e 00 00 00 00 fe 6c e1 3f
       1.2197483556519728e-07 0.5445547103881836
000440 00 00 00 c0 b1 cf eb 3f 00 00 00 20 10 6e 6a bf
       0.8691033124923706 -0.003226310247555375
000450 00 00 00 20 25 c3 e0 3f 00 00 00 c0 8d e1 eb 3f
       0.5238214135169983 0.8712834119796753
000460 00 00 00 e0 76 5e 71 bf 00 00 00 e0 00 2c e0 3f
       -0.004240478854626417 0.5053715109825134
000470 00 00 00 00 25 29 ec 3f 00 00 00 e0 17 4c 6d bf
       0.8800225257873535 -0.0035763231571763754
000480 00 00 00 40 7f 68 df 3f 00 00 00 00 0b 35 ec 3f
       0.4907529950141907 0.8814749717712402
000490 00 00 00 80 26 44 62 bf 00 00 00 a0 9c 8b e0 3f
       -0.002229762263596058 0.5170424580574036
0004a0 00 00 00 e0 82 ce ec 3f 00 00 00 a0 8a ee 80 bf
       0.9002088904380798 -0.008267481811344624
0004b0 00 00 00 00 73 72 df 3f 00 00 00 20 c4 57 ed 3f
       0.4913604259490967 0.9169636368751526
0004c0 00 00 00 e0 7c f1 7e bf 00 00 00 e0 1c aa de 3f
       -0.007554519455879927 0.47913286089897156
0004d0 00 00 00 a0 64 81 ed 3f 00 00 00 c0 86 b8 72 bf
       0.9220450520515442 -0.004570509307086468
0004e0 00 00 00 80 92 28 de 3f 00 00 00 20 27 98 ed 3f
       0.4712263345718384 0.9248233437538147
0004f0 00 00 00 20 f7 19 5d bf 00 00 00 60 1e ac e0 3f
       -0.001776210148818791 0.5210105776786804
000500 00 00 00 e0 a1 8a ed 3f 00 00 00 00 e6 3b 75 bf
       0.9231728911399841 -0.005184076726436615
000510 00 00 00 a0 91 97 df 3f 00 00 00 e0 25 fc ed 3f
       0.49362602829933167 0.9370297789573669
000520 00 00 00 40 0c 9c 6f bf 00 00 00 20 49 fd de 3f
       -0.0038585891015827656 0.4842093288898468
000530 00 00 00 80 82 ce ed 3f 00 00 00 c0 55 de 46 3f
       0.9314587116241455 0.0006978911114856601
000540 00 00 00 00 07 be de 3f 00 00 00 e0 94 92 ed 3f
       0.4803483486175537 0.9241432547569275
000550 00 00 00 c0 20 ea 72 3f 00 00 00 a0 66 d3 e0 3f
       0.004617813043296337 0.5258057713508606
000560 00 00 00 60 6f fc ed 3f 00 00 00 c0 a0 a0 5b bf
       0.9370648264884949 -0.0016862459015101194
000570 00 00 00 60 b0 06 e0 3f 00 00 00 60 52 49 ee 3f
       0.5008165240287781 0.946450412273407
000580 00 00 00 80 96 60 43 3f 00 00 00 80 89 82 df 3f
       0.0005913481581956148 0.49234235286712646
000590 00 00 00 c0 14 0a ee 3f 00 00 00 00 ef b0 73 3f
       0.9387305974960327 0.004807408899068832
0005a0 00 00 00 e0 19 4c df 3f 00 00 00 e0 14 cc ed 3f
       0.48901984095573425 0.9311622977256775
0005b0 00 00 00 40 ec 30 80 3f 00 00 00 80 e0 f3 e0 3f
       0.007905812934041023 0.5297701358795166
0005c0 00 00 00 40 05 31 ee 3f 00 00 00 20 48 62 5a 3f
       0.9434839487075806 0.0016103462548926473
0005d0 00 00 00 60 c7 59 e0 3f 00 00 00 a0 47 6f ee 3f
       0.5109593272209167 0.9510839581489563
0005e0 00 00 00 20 bf c1 71 3f 00 00 00 80 5c 1a e0 3f
       0.0043351617641747 0.5032179355621338
0005f0 00 00 00 00 b0 3a ee 3f 00 00 00 e0 a6 21 7f 3f
       0.9446640014648438 0.007600452285259962
000600 00 00 00 a0 87 fe df 3f 00 00 00 40 50 f9 ed 3f
       0.49991026520729065 0.9366837739944458
000610 00 00 00 80 87 43 85 3f 00 00 00 e0 81 6f dd 3f
       0.01038270816206932 0.4599308669567108
000620 00 00 00 80 54 c8 e2 3f 00 00 00 60 b4 a2 60 be
       0.5869543552398682 -3.0986154087031537e-08
000630 00 00 00 00 4d 3f de 3f 00 00 00 40 d7 58 e2 3f
       0.4726135730743408 0.5733448266983032
000640 00 00 00 a0 28 87 76 bf 00 00 00 80 ce ce de 3f
       -0.005499991122633219 0.4813724756240845
000650 00 00 00 60 f0 51 e1 3f 00 00 00 e0 99 e9 7f bf
       0.5412523150444031 -0.007791138719767332
000660 00 00 00 e0 f0 ef de 3f 00 00 00 e0 0e 64 e0 3f
       0.4833948314189911 0.5122141242027283
000670 00 00 00 c0 c7 47 84 bf 00 00 00 e0 ef 73 de 3f
       -0.009902535006403923 0.475826233625412
000680 00 00 00 20 01 c2 df 3f 00 00 00 a0 61 f6 88 bf
       0.4962160885334015 -0.01218868512660265
000690 00 00 00 00 e8 58 de 3f 00 00 00 00 32 2e e0 3f
       0.47417640686035156 0.5056390762329102
0006a0 00 00 00 c0 9b 50 7e bf 00 00 00 60 c8 7a de 3f
       -0.0074010929092764854 0.4762440621852875
0006b0 00 00 00 c0 8d 60 de 3f 00 00 00 c0 11 05 8b bf
       0.47464317083358765 -0.013193262740969658
0006c0 00 00 00 a0 e6 85 de 3f 00 00 00 80 39 05 dd 3f
       0.4769226610660553 0.45344388484954834
0006d0 00 00 00 a0 b0 b1 90 bf 00 00 00 c0 e9 81 de 3f
       -0.01630283333361149 0.476679265499115
0006e0 00 00 00 80 bd da db 3f 00 00 00 60 3f b2 92 bf
       0.43522584438323975 -0.01825808547437191
0006f0 00 00 00 20 6c 8e dd 3f 00 00 00 a0 3a 17 e0 3f
       0.46181777119636536 0.5028355717658997
000700 00 00 00 c0 d9 ac 7e bf 00 00 00 20 00 e6 dd 3f
       -0.007489061914384365 0.4671631157398224
000710 00 00 00 c0 30 44 e0 3f 00 00 00 60 cb 11 92 bf
       0.5083240270614624 -0.017646005377173424
000720 00 00 00 20 8e f7 dd 3f 00 00 00 80 3a 2f e1 3f
       0.4682345688343048 0.5370151996612549
000730 00 00 00 40 ad 51 93 bf 00 00 00 40 64 f6 dd 3f
       -0.01886625960469246 0.46816354990005493
000740 00 00 00 e0 1f d9 e1 3f 00 00 00 20 1c 83 91 bf
       0.5577544569969177 -0.017101706936955452
000750 00 00 00 80 80 d5 dc 3f 00 00 00 00 11 48 e0 3f
       0.45053112506866455 0.5087971687316895
000760 00 00 00 e0 d2 8f 80 bf 00 00 00 00 68 3b dd 3f
       -0.008086821995675564 0.45675086975097656
000770 00 00 00 60 50 a2 e0 3f 00 00 00 60 70 fd 91 bf
       0.5198137164115906 -0.017568355426192284
000780 00 00 00 80 e2 56 dd 3f 00 00 00 60 03 65 e1 3f
       0.4584280252456665 0.5435807108879089
000790 00 00 00 20 6f 02 90 bf 00 00 00 20 ff 5e dd 3f
       -0.015634285286068916 0.4589231312274933
0007a0 00 00 00 00 3b e6 e1 3f 00 00 00 e0 2a 24 88 bf
       0.559354305267334 -0.011787733994424343
0007b0 00 00 00 60 2e 2c dc 3f 00 00 00 c0 cf a4 e0 3f
       0.44019660353660583 0.5201185941696167
0007c0 00 00 00 60 51 e8 82 bf 00 00 00 60 72 98 dc 3f
       -0.009232173673808575 0.44680461287498474
0007d0 00 00 00 c0 a9 f3 e0 3f 00 00 00 80 bd 4f 90 bf
       0.529744029045105 -0.01592918485403061
0007e0 00 00 00 e0 f4 f5 dc 3f 00 00 00 20 af 8a e1 3f
       0.4525119960308075 0.5481792092323303
0007f0 00 00 00 e0 a8 7f 8e bf 00 00 00 00 e9 2c dd 3f
       -0.014891928993165493 0.45586609840393066
