How2Sign/extracted_keypoints_holistic_full/b2k59617MJs_10-5-rgb_front.npy (npy, 183824 bytes, 1 tensors)

array f8 [89, 258]
0	0x3fe0f1b6a0000000	0.5295060276985168
1	0x3fd85e1f40000000	0.3807447552680969
2	0xbfd2d2ed20000000	-0.29412391781806946
3	0x3feffc5f20000000	0.9995570778846741
4	0x3fe16bdea0000000	0.544417679309845
5	0x3fd6b80640000000	0.3549819588661194
6	0xbfd123fba0000000	-0.26782122254371643
7	0x3feff94b80000000	0.9991815090179443
8	0x3fe1ad87a0000000	0.5524328351020813
9	0x3fd6bd94a0000000	0.35532107949256897
10	0xbfd123dbc0000000	-0.26781362295150757
11	0x3feffa8ee0000000	0.9993357062339783
12	0x3fe1e4eb40000000	0.5591942071914673
13	0x3fd6cda880000000	0.3563023805618286
14	0xbfd1222640000000	-0.26770931482315063
15	0x3feffa6d20000000	0.9993196129798889
16	0x3fe0c512e0000000	0.5240568518638611
17	0x3fd6b7ee00000000	0.35497617721557617
18	0xbfd0c61160000000	-0.2620891034603119
19	0x3feff96ea0000000	0.9991982579231262
20	0x3fe0996c20000000	0.5187283158302307
21	0x3fd6bb8e40000000	0.3551974892616272
22	0xbfd0c6a3c0000000	-0.2621240019798279
23	0x3feffa2dc0000000	0.9992893934249878
24	0x3fe06d39a0000000	0.5133331418037415
25	0x3fd6c37cc0000000	0.3556815981864929
26	0xbfd0cb2a40000000	-0.26240020990371704
27	0x3feff99da0000000	0.9992206692695618
28	0x3fe250a360000000	0.5723435282707214
29	0x3fd7b23960000000	0.37025293707847595
30	0xbfb9fd18a0000000	-0.1015181913971901
31	0x3feffb3be0000000	0.9994181990623474
32	0x3fe055f440000000	0.5104924440383911
33	0x3fd7866420000000	0.36757758259773254
34	0xbfb1df85c0000000	-0.06981693208217621
35	0x3feff774a0000000	0.9989569783210754
36	0x3fe16ce360000000	0.5445420145988464
37	0x3fdab18c20000000	0.4170866310596466
38	0xbfcdd58c00000000	-0.2330794334411621
39	0x3feffdea20000000	0.9997454285621643
40	0x3fe0a07da0000000	0.5195911526679993
41	0x3fdaa9cd60000000	0.416613906621933
42	0xbfccc51f60000000	-0.22476570308208466
43	0x3feffc9380000000	0.999582052230835
44	0x3fe3fb1920000000	0.6244016289710999
45	0x3fe0fc3dc0000000	0.530791163444519
46	0xbfadcd08c0000000	-0.05820491164922714
47	0x3fefff1280000000	0.9998867511749268
48	0x3fdd5ec700000000	0.4589097499847412
49	0x3fe0c10fe0000000	0.5235671401023865
50	0x3f86ccfbe0000000	0.0111331632360816
51	0x3feffe0040000000	0.9997559785842896
52	0x3fe5f610c0000000	0.6862872838973999
53	0x3fe7f96640000000	0.7491942644119263
54	0xbfd23fdee0000000	-0.28514835238456726
55	0x3feff7c4c0000000	0.9989951848983765
56	0x3fd9975280000000	0.3998609781265259
57	0x3fe6f82b60000000	0.7177941203117371
58	0xbfd0d0eb20000000	-0.26275137066841125
59	0x3fefed5900000000	0.9977231025695801
60	0x3fe28a8620000000	0.579409658908844
61	0x3fe73014c0000000	0.7246192693710327
62	0xbfe2d2f380000000	-0.5882508754730225
63	0x3fefef1da0000000	0.9979389309883118
64	0x3fdd81ffa0000000	0.46105948090553284
65	0x3fe29a3f20000000	0.5813289284706116
66	0xbfe4823a80000000	-0.6408970355987549
67	0x3feff395e0000000	0.9984845519065857
68	0x3fe1735e40000000	0.5453330278396606
69	0x3fe736cbe0000000	0.7254390120506287
70	0xbfe4c06c80000000	-0.648489236831665
71	0x3fef9d83c0000000	0.9879778623580933
72	0x3fddf88da0000000	0.46829548478126526
73	0x3fe15cecc0000000	0.5425933599472046
74	0xbfe6b93e00000000	-0.7101125717163086
75	0x3fefc06fa0000000	0.9922407269477844
76	0x3fe138ce40000000	0.5381842851638794
77	0x3fe655a7e0000000	0.6979560256004333
78	0xbfe3949e80000000	-0.6118919849395752
79	0x3fef9450c0000000	0.9868549108505249
80	0x3fde6de1a0000000	0.4754566252231598
81	0x3fe09e5600000000	0.5193281173706055
82	0xbfe5635120000000	-0.6683736443519592
83	0x3fefb44d20000000	0.9907594323158264
84	0x3fe16f4fe0000000	0.5448378920555115
85	0x3fe61e7380000000	0.6912171840667725
86	0xbfe26b2840000000	-0.5755807161331177
87	0x3fef920800000000	0.9865760803222656
88	0x3fde93f600000000	0.477780818939209
89	0x3fe110c2c0000000	0.5332959890365601
90	0xbfe437bcc0000000	-0.6318038702011108
91	0x3fefb00360000000	0.9902359843254089
92	0x3fe2fd6420000000	0.5934315323829651
93	0x3fee64c520000000	0.9498010277748108
94	0xbf85b7cac0000000	-0.010604461655020714
95	0x3fefae15e0000000	0.9900006651878357
96	0x3fdd1ca240000000	0.45487266778945923
97	0x3fee04f7a0000000	0.9381063580513
98	0x3f88a53820000000	0.012033880688250065
99	0x3fefa90260000000	0.9893810153007507
100	0x3fe2a10120000000	0.582153856754303
101	0x3ff4b6a7e0000000	1.2945936918258667
102	0xbfb591de40000000	-0.08425702154636383
103	0x3fb4e02060000000	0.0815448984503746
104	0x3fdcd98ea0000000	0.45077863335609436
105	0x3ff4656cc0000000	1.2747619152069092
106	0x3fbaa00b00000000	0.10400456190109253
107	0x3fb2c3aae0000000	0.0732981488108635
108	0x3fe27e9ec0000000	0.5779565572738647
109	0x3ff990ba40000000	1.5978338718414307
110	0x3fc3213140000000	0.14945045113563538
111	0x3f46d719a0000000	0.0006970286485739052
112	0x3fdc71bf60000000	0.44444260001182556
113	0x3ff969d200000000	1.5883350372314453
114	0x3fd70c9c80000000	0.3601447343826294
115	0x3f5bb95ee0000000	0.0016921450151130557
116	0x3fe29571c0000000	0.5807427167892456
117	0x3ffa5098c0000000	1.644676923751831
118	0x3fc507d4c0000000	0.16430148482322693
119	0x3f575dfe60000000	0.0014262184267863631
120	0x3fdc28fc00000000	0.4400014877319336
121	0x3ffa2f2de0000000	1.6365183591842651
122	0x3fd82324e0000000	0.37714502215385437
123	0x3f53026c20000000	0.0011602455051615834
124	0x3fe1d7ad00000000	0.5575776100158691
125	0x3ffb3c1ec0000000	1.7021777629852295
126	0xbfa93a4a40000000	-0.049272842705249786
127	0x3f4402dcc0000000	0.0006106927758082747
128	0x3fdd7022a0000000	0.4599691927433014
129	0x3ffb1c9de0000000	1.6944864988327026
130	0x3fc50eb840000000	0.16451171040534973
131	0x3f5ad03e80000000	0.0016365633346140385
132	0x3fe21fde80000000	0.5663902759552002
133	0x3fe7828960000000	0.7346846461296082
134	0x3e5d04f5c0000000	2.7026398896623505e-08
135	0x3fe1f32640000000	0.5609313249588013
136	0x3fe6632e00000000	0.6996068954467773
137	0xbf420c9880000000	-0.0005508179310709238
138	0x3fe17e6e60000000	0.5466834902763367
139	0x3fe5a7dbc0000000	0.6767405271530151
140	0xbf5a48a2c0000000	-0.0016042317729443312
141	0x3fe10544e0000000	0.5318931937217712
142	0x3fe545aca0000000	0.6647551655769348
143	0xbf5df6e860000000	-0.0018288869177922606
144	0x3fe0a3a840000000	0.5199776887893677
145	0x3fe55c29c0000000	0.667500376701355
146	0xbf62187f20000000	-0.002208946505561471
147	0x3fe1187380000000	0.5342347621917725
148	0x3fe62e55c0000000	0.6931561231613159
149	0xbf84cd4280000000	-0.010157126933336258
150	0x3fe0550640000000	0.5103789567947388
151	0x3fe5e3a060000000	0.6840364336967468
152	0xbf87231e20000000	-0.01129745040088892
153	0x3fe007cec0000000	0.5009530782699585
154	0x3fe5bff2e0000000	0.6796812415122986
155	0xbf862a3ec0000000	-0.010822763666510582
156	0x3fdfaec0e0000000	0.4950411021709442
157	0x3fe5a7b440000000	0.6767216920852661
158	0xbf84fdf780000000	-0.010250028222799301
159	0x3fe0fa1240000000	0.5305262804031372
160	0x3fe6f0cee0000000	0.7168955206871033
161	0xbf849eff60000000	-0.010068888776004314
162	0x3fe03a80e0000000	0.5071415305137634
163	0x3fe6924800000000	0.7053565979003906
164	0xbf833c7820000000	-0.009392679668962955
165	0x3fe01526a0000000	0.5025818943977356
166	0x3fe655c200000000	0.6979684829711914
167	0xbf7e7ac100000000	-0.007441285997629166
168	0x3fe01dc980000000	0.5036361217498779
169	0x3fe63571e0000000	0.6940240263938904
170	0xbf7b584220000000	-0.006675966549664736
171	0x3fe0f90ae0000000	0.5304006934165955
172	0x3fe7a32ce0000000	0.7386688590049744
173	0xbf827f8e00000000	-0.00903235375881195
174	0x3fe05c9f40000000	0.5113064050674438
175	0x3fe750c700000000	0.7286105155944824
176	0xbf7b8526e0000000	-0.006718780379742384
177	0x3fe062c600000000	0.5120573043823242
178	0x3fe70da520000000	0.7204156517982483
179	0xbf6d09dd00000000	-0.003544742241501808
180	0x3fe08c2480000000	0.5171072483062744
181	0x3fe6e64b60000000	0.7156121134757996
182	0xbf641940e0000000	-0.0024534480180591345
183	0x3fe10a43c0000000	0.5325030088424683
184	0x3fe83adc80000000	0.7571852207183838
185	0xbf803c5320000000	-0.00792756024748087
186	0x3fe0984180000000	0.5185859203338623
187	0x3fe8025640000000	0.750285267829895
188	0xbf74b770e0000000	-0.005057755392044783
189	0x3fe09a8c00000000	0.5188655853271484
190	0x3fe7c21840000000	0.7424432039260864
191	0xbf58613860000000	-0.0014880228554829955
192	0x3fe0bbbae0000000	0.5229162573814392
193	0x3fe79cedc0000000	0.7379063367843628
194	0x3f43b45180000000	0.0006013296078890562
195	0x3fddfa0b40000000	0.4683864712715149
196	0x3fe2a08c20000000	0.5820980668067932
197	0xbe79cb0ca0000000	-9.608701390106944e-08
198	0x3fdee0c4a0000000	0.48246875405311584
199	0x3fe20670c0000000	0.5632861852645874
200	0xbf53214180000000	-0.0011675967834889889
201	0x3fdf79e4c0000000	0.4918147921562195
202	0x3fe1392a40000000	0.5382281541824341
203	0xbf6b3665a0000000	-0.0033218369353562593
204	0x3fdff16c20000000	0.49911025166511536
205	0x3fe0ad2b40000000	0.5211387872695923
206	0xbf79ac88e0000000	-0.006268057506531477
207	0x3fe03a9800000000	0.5071525573730469
208	0x3fe061d260000000	0.511941134929657
209	0xbf82141000000000	-0.0088273286819458
210	0x3fdec74740000000	0.480912983417511
211	0x3fe033a740000000	0.5063053369522095
212	0xbf701f5760000000	-0.003936139401048422
213	0x3fdf492080000000	0.4888383150100708
214	0x3fdf490dc0000000	0.48883384466171265
215	0xbf84f87ea0000000	-0.010239590890705585
216	0x3fdfa3bdc0000000	0.4943689703941345
217	0x3fe02aff00000000	0.5052485466003418
218	0xbf8cc3f320000000	-0.014045619405806065
219	0x3fdfcd7f60000000	0.49691757559776306
220	0x3fe0a36300000000	0.5199446678161621
221	0xbf90118ca0000000	-0.01569194532930851
222	0x3fde4ba060000000	0.4733658730983734
223	0x3fe05a34c0000000	0.5110114812850952
224	0xbf7cc5c2a0000000	-0.007024536374956369
225	0x3fdee6b040000000	0.48283010721206665
226	0x3fdfddba80000000	0.49790823459625244
227	0xbf8d1ffac0000000	-0.014221152290701866
228	0x3fdf68a540000000	0.49076205492019653
229	0x3fe06f7cc0000000	0.5136092901229858
230	0xbf92566120000000	-0.017907636240124702
231	0x3fdfa84980000000	0.49464643001556396
232	0x3fe0e82da0000000	0.528342068195343
233	0xbf93fb83e0000000	-0.019514141604304314
234	0x3fddc8f4c0000000	0.4653903841972351
235	0x3fe0a6a860000000	0.5203439593315125
236	0xbf85bd0820000000	-0.010614455677568913
237	0x3fde5cece0000000	0.4744217097759247
238	0x3fe04087c0000000	0.5078772306442261
239	0xbf91d04800000000	-0.017396092414855957
240	0x3fdf0435e0000000	0.4846319854259491
241	0x3fe0901800000000	0.5175895690917969
242	0xbf9488e680000000	-0.020053483545780182
243	0x3fdf68c760000000	0.4907701909542084
244	0x3fe0e23320000000	0.5276122689247131
245	0xbf957a2fe0000000	-0.020973918959498405
246	0x3fdd503360000000	0.45802006125450134
247	0x3fe107a880000000	0.5321848392486572
248	0xbf8cec69e0000000	-0.01412279810756445
249	0x3fdd331f80000000	0.4562453031539917
250	0x3fe06cf6c0000000	0.5133012533187866
251	0xbf92ebfa60000000	-0.018478309735655785
252	0x3fdd2e80c0000000	0.4559633135795593
253	0x3fdff96c40000000	0.49959856271743774
254	0xbf94d69960000000	-0.020349880680441856
255	0x3fdd2644a0000000	0.45546069741249084
