WLASL/extracted_keypoints2/-b4_y6LOSx0_15-8-rgb_front.npy (npy, 30368 bytes, 1 tensors)

array f8 [30, 126]
000000 00 00 00 00 00 00 00 00 00 00 00 00 00 00 00 00
       0.0 0.0
000010 00 00 00 00 00 00 00 00 00 00 00 00 00 00 00 00
       0.0 0.0
000020 00 00 00 00 00 00 00 00 00 00 00 00 00 00 00 00
       0.0 0.0
000030 00 00 00 00 00 00 00 00 00 00 00 00 00 00 00 00
       0.0 0.0
000040 00 00 00 00 00 00 00 00 00 00 00 00 00 00 00 00
       0.0 0.0
000050 00 00 00 00 00 00 00 00 00 00 00 00 00 00 00 00
       0.0 0.0
000060 00 00 00 00 00 00 00 00 00 00 00 00 00 00 00 00
       0.0 0.0
000070 00 00 00 00 00 00 00 00 00 00 00 00 00 00 00 00
       0.0 0.0
000080 00 00 00 00 00 00 00 00 00 00 00 00 00 00 00 00
       0.0 0.0
000090 00 00 00 00 00 00 00 00 00 00 00 00 00 00 00 00
       0.0 0.0
0000a0 00 00 00 00 00 00 00 00 00 00 00 00 00 00 00 00
       0.0 0.0
0000b0 00 00 00 00 00 00 00 00 00 00 00 00 00 00 00 00
       0.0 0.0
0000c0 00 00 00 00 00 00 00 00 00 00 00 00 00 00 00 00
       0.0 0.0
0000d0 00 00 00 00 00 00 00 00 00 00 00 00 00 00 00 00
       0.0 0.0
0000e0 00 00 00 00 00 00 00 00 00 00 00 00 00 00 00 00
       0.0 0.0
0000f0 00 00 00 00 00 00 00 00 00 00 00 00 00 00 00 00
       0.0 0.0
000100 00 00 00 00 00 00 00 00 00 00 00 00 00 00 00 00
       0.0 0.0
000110 00 00 00 00 00 00 00 00 00 00 00 00 00 00 00 00
       0.0 0.0
000120 00 00 00 00 00 00 00 00 00 00 00 00 00 00 00 00
       0.0 0.0
000130 00 00 00 00 00 00 00 00 00 00 00 00 00 00 00 00
       0.0 0.0
000140 00 00 00 00 00 00 00 00 00 00 00 00 00 00 00 00
       0.0 0.0
000150 00 00 00 00 00 00 00 00 00 00 00 00 00 00 00 00
       0.0 0.0
000160 00 00 00 00 00 00 00 00 00 00 00 00 00 00 00 00
       0.0 0.0
000170 00 00 00 00 00 00 00 00 00 00 00 00 00 00 00 00
       0.0 0.0
000180 00 00 00 00 00 00 00 00 00 00 00 00 00 00 00 00
       0.0 0.0
000190 00 00 00 00 00 00 00 00 00 00 00 00 00 00 00 00
       0.0 0.0
0001a0 00 00 00 00 00 00 00 00 00 00 00 00 00 00 00 00
       0.0 0.0
0001b0 00 00 00 00 00 00 00 00 00 00 00 00 00 00 00 00
       0.0 0.0
0001c0 00 00 00 00 00 00 00 00 00 00 00 00 00 00 00 00
       0.0 0.0
0001d0 00 00 00 00 00 00 00 00 00 00 00 00 00 00 00 00
       0.0 0.0
0001e0 00 00 00 00 00 00 00 00 00 00 00 00 00 00 00 00
       0.0 0.0
0001f0 00 00 00 00 00 00 00 00 00 00 00 00 00 00 00 00
       0.0 0.0
000200 00 00 00 00 00 00 00 00 00 00 00 00 00 00 00 00
       0.0 0.0
000210 00 00 00 00 00 00 00 00 00 00 00 00 00 00 00 00
       0.0 0.0
000220 00 00 00 00 00 00 00 00 00 00 00 00 00 00 00 00
       0.0 0.0
000230 00 00 00 00 00 00 00 00 00 00 00 00 00 00 00 00
       0.0 0.0
000240 00 00 00 00 00 00 00 00 00 00 00 00 00 00 00 00
       0.0 0.0
000250 00 00 00 00 00 00 00 00 00 00 00 00 00 00 00 00
       0.0 0.0
000260 00 00 00 00 00 00 00 00 00 00 00 00 00 00 00 00
       0.0 0.0
000270 00 00 00 00 00 00 00 00 00 00 00 00 00 00 00 00
       0.0 0.0
000280 00 00 00 00 00 00 00 00 00 00 00 00 00 00 00 00
       0.0 0.0
000290 00 00 00 00 00 00 00 00 00 00 00 00 00 00 00 00
       0.0 0.0
0002a0 00 00 00 00 00 00 00 00 00 00 00 00 00 00 00 00
       0.0 0.0
0002b0 00 00 00 00 00 00 00 00 00 00 00 00 00 00 00 00
       0.0 0.0
0002c0 00 00 00 00 00 00 00 00 00 00 00 00 00 00 00 00
       0.0 0.0
0002d0 00 00 00 00 00 00 00 00 00 00 00 00 00 00 00 00
       0.0 0.0
0002e0 00 00 00 00 00 00 00 00 00 00 00 00 00 00 00 00
       0.0 0.0
0002f0 00 00 00 00 00 00 00 00 00 00 00 00 00 00 00 00
       0.0 0.0
000300 00 00 00 00 00 00 00 00 00 00 00 00 00 00 00 00
       0.0 0.0
000310 00 00 00 00 00 00 00 00 00 00 00 00 00 00 00 00
       0.0 0.0
000320 00 00 00 00 00 00 00 00 00 00 00 00 00 00 00 00
       0.0 0.0
000330 00 00 00 00 00 00 00 00 00 00 00 00 00 00 00 00
       0.0 0.0
000340 00 00 00 00 00 00 00 00 00 00 00 00 00 00 00 00
       0.0 0.0
000350 00 00 00 00 00 00 00 00 00 00 00 00 00 00 00 00
       0.0 0.0
000360 00 00 00 00 00 00 00 00 00 00 00 00 00 00 00 00
       0.0 0.0
000370 00 00 00 00 00 00 00 00 00 00 00 00 00 00 00 00
       0.0 0.0
000380 00 00 00 00 00 00 00 00 00 00 00 00 00 00 00 00
       0.0 0.0
000390 00 00 00 00 00 00 00 00 00 00 00 00 00 00 00 00
       0.0 0.0
0003a0 00 00 00 00 00 00 00 00 00 00 00 00 00 00 00 00
       0.0 0.0
0003b0 00 00 00 00 00 00 00 00 00 00 00 00 00 00 00 00
       0.0 0.0
0003c0 00 00 00 00 00 00 00 00 00 00 00 00 00 00 00 00
       0.0 0.0
0003d0 00 00 00 00 00 00 00 00 00 00 00 00 00 00 00 00
       0.0 0.0
0003e0 00 00 00 00 00 00 00 00 00 00 00 00 00 00 00 00
       0.0 0.0
0003f0 00 00 00 a0 71 6b dd 3f 00 00 00 00 bc e2 e2 3f
       0.4596828520298004 0.5901775360107422
000400 00 00 00 00 1f e4 71 be 00 00 00 00 6c 43 de 3f
       -6.664953389190487e-08 0.47286510467529297
000410 00 00 00 40 9f 66 e2 3f 00 00 00 c0 3c 37 77 bf
       0.5750271081924438 -0.005667912773787975
000420 00 00 00 40 a6 d1 de 3f 00 00 00 60 07 5a e1 3f
       0.48154598474502563 0.5422398447990417
000430 00 00 00 c0 07 03 80 bf 00 00 00 00 3b d6 de 3f
       -0.007818279787898064 0.481825590133667
000440 00 00 00 60 01 63 e0 3f 00 00 00 e0 7d ea 83 bf
       0.5120856165885925 -0.009724601171910763
000450 00 00 00 40 61 4b de 3f 00 00 00 80 1e c4 df 3f
       0.4733508229255676 0.4963451623916626
000460 00 00 00 00 c1 6b 88 bf 00 00 00 40 18 70 de 3f
       -0.011924274265766144 0.4755917191505432
000470 00 00 00 e0 be 51 e0 3f 00 00 00 80 f8 bd 7d bf
       0.509978711605072 -0.007261248305439949
000480 00 00 00 00 db 98 de 3f 00 00 00 20 a9 c4 de 3f
       0.47807955741882324 0.48075321316719055
000490 00 00 00 60 c3 84 8a bf 00 00 00 20 bc 98 de 3f
       -0.012948538176715374 0.4780721962451935
0004a0 00 00 00 a0 59 84 dd 3f 00 00 00 80 96 87 90 bf
       0.461203008890152 -0.01614222675561905
0004b0 00 00 00 c0 18 93 de 3f 00 00 00 80 5c 5b dc 3f
       0.47772806882858276 0.4430762529373169
0004c0 00 00 00 60 65 ab 92 bf 00 00 00 20 63 a2 dd 3f
       -0.0182319488376379 0.46303632855415344
0004d0 00 00 00 00 13 2d e0 3f 00 00 00 e0 7f 86 7d bf
       0.5055022239685059 -0.007208346854895353
0004e0 00 00 00 80 77 fd dd 3f 00 00 00 c0 00 5a e0 3f
       0.46859538555145264 0.5109866857528687
0004f0 00 00 00 a0 2e 0b 92 bf 00 00 00 60 b7 f7 dd 3f
       -0.017620781436562538 0.46824440360069275
000500 00 00 00 60 73 4e e1 3f 00 00 00 60 07 65 93 bf
       0.5408264994621277 -0.01894008181989193
000510 00 00 00 c0 09 f0 dd 3f 00 00 00 e0 67 06 e2 3f
       0.46777576208114624 0.5632819533348083
000520 00 00 00 00 58 7e 91 bf 00 00 00 a0 a0 e7 dc 3f
       -0.01708352565765381 0.4516374170780182
000530 00 00 00 20 83 53 e0 3f 00 00 00 20 6b 82 7f bf
       0.5101943612098694 -0.007692736107856035
000540 00 00 00 80 b0 56 dd 3f 00 00 00 40 16 a3 e0 3f
       0.4584161043167114 0.51990807056427
000550 00 00 00 80 ef bd 91 bf 00 00 00 60 74 72 dd 3f
       -0.01732610911130905 0.46011075377464294
000560 00 00 00 40 e3 78 e1 3f 00 00 00 20 31 3d 8f bf
       0.5460067987442017 -0.015253433026373386
000570 00 00 00 20 0c 88 dd 3f 00 00 00 e0 5d 15 e2 3f
       0.4614286720752716 0.5651082396507263
000580 00 00 00 c0 e7 be 86 bf 00 00 00 e0 3b 3e dc 3f
       -0.011106310412287712 0.4412984549999237
000590 00 00 00 e0 de a8 e0 3f 00 00 00 80 21 fc 81 bf
       0.5206140875816345 -0.008781682699918747
0005a0 00 00 00 a0 72 a2 dc 3f 00 00 00 20 b9 ee e0 3f
       0.4474150240421295 0.5291410088539124
0005b0 00 00 00 40 a4 50 90 bf 00 00 00 40 b9 f8 dc 3f
       -0.01593262329697609 0.45268088579177856
0005c0 00 00 00 00 3f 86 e1 3f 00 00 00 c0 9d ed 8e bf
       0.5476374626159668 -0.015101654455065727
0005d0 00 00 00 80 64 38 dd 3f 00 00 00 00 53 f2 e1 3f
       0.4565669298171997 0.5608305931091309
0005e0 00 00 00 a0 dd 0f 89 bf 00 00 00 80 88 e3 e1 3f
       -0.01223729271441698 0.5590250492095947
0005f0 00 00 00 40 e5 cb ec 3f 00 00 00 00 eb cd 85 3e
       0.8998895883560181 1.6245519418589538e-07
000600 00 00 00 c0 a2 71 e1 3f 00 00 00 40 88 e6 eb 3f
       0.5451215505599976 0.8718911409378052
000610 00 00 00 40 44 81 76 bf 00 00 00 20 73 c5 e0 3f
       -0.005494371987879276 0.5241027474403381
000620 00 00 00 00 51 ee eb 3f 00 00 00 40 08 eb 7f bf
       0.8728413581848145 -0.007792503573000431
000630 00 00 00 e0 4b 30 e0 3f 00 00 00 00 b9 3b ec 3f
       0.5058955550193787 0.8822903633117676
000640 00 00 00 40 a0 54 80 bf 00 00 00 80 cd 77 df 3f
       -0.007973911240696907 0.49168717861175537
000650 00 00 00 a0 ae 44 ec 3f 00 00 00 40 f2 e1 7f bf
       0.8833840489387512 -0.007783838547766209
000660 00 00 00 60 5a 95 e0 3f 00 00 00 20 37 d0 ec 3f
       0.5182315707206726 0.900416910648346
000670 00 00 00 a0 e0 01 8b bf 00 00 00 80 be 90 df 3f
       -0.013187174685299397 0.49320948123931885
000680 00 00 00 00 04 4b ed 3f 00 00 00 40 a0 80 8e bf
       0.9154071807861328 -0.014893772080540657
000690 00 00 00 00 9f b0 de 3f 00 00 00 40 2c 7a ed 3f
       0.47953009605407715 0.9211636781692505
0006a0 00 00 00 20 7b 7d 8b bf 00 00 00 00 f0 17 de 3f
       -0.013422929681837559 0.4702110290527344
0006b0 00 00 00 00 c0 98 ed 3f 00 00 00 60 0d c8 87 bf
       0.924896240234375 -0.011612038128077984
0006c0 00 00 00 80 79 b0 e0 3f 00 00 00 e0 a1 94 ed 3f
       0.5215423107147217 0.9243935942649841
0006d0 00 00 00 80 0e a6 83 bf 00 00 00 40 b6 aa df 3f
       -0.00959407165646553 0.49479442834854126
0006e0 00 00 00 e0 60 f6 ed 3f 00 00 00 e0 54 30 85 bf
       0.9363254904747009 -0.010346091352403164
0006f0 00 00 00 a0 b7 fd de 3f 00 00 00 60 34 cb ed 3f
       0.4842356741428375 0.9310552477836609
000700 00 00 00 00 88 ef 7a bf 00 00 00 e0 ae a9 de 3f
       -0.006576091051101685 0.4791066348552704
000710 00 00 00 e0 26 99 ed 3f 00 00 00 40 dc c3 69 bf
       0.9249452948570251 -0.0031451513059437275
000720 00 00 00 e0 d0 d1 e0 3f 00 00 00 60 fb 0c ee 3f
       0.5256122946739197 0.9390847086906433
000730 00 00 00 e0 91 06 77 bf 00 00 00 80 3b 05 e0 3f
       -0.005621499847620726 0.5006387233734131
000740 00 00 00 e0 00 5b ee 3f 00 00 00 e0 d3 24 75 bf
       0.9486088156700134 -0.005162074696272612
000750 00 00 00 c0 95 74 df 3f 00 00 00 20 d4 17 ee 3f
       0.49149078130722046 0.9404087662696838
000760 00 00 00 c0 51 21 54 bf 00 00 00 40 26 37 df 3f
       -0.0012286470737308264 0.48774105310440063
000770 00 00 00 40 1e d7 ed 3f 00 00 00 40 05 ea 5d 3f
       0.9325095415115356 0.0018258143682032824
000780 00 00 00 20 bd ee e0 3f 00 00 00 00 97 48 ee 3f
       0.5291429162025452 0.9463610649108887
000790 00 00 00 e0 b6 57 60 bf 00 00 00 40 81 4d e0 3f
       -0.0019949504639953375 0.5094610452651978
0007a0 00 00 00 40 ec 83 ee 3f 00 00 00 e0 c7 c6 50 bf
       0.9536038637161255 -0.0010239555267617106
0007b0 00 00 00 00 ea 0a e0 3f 00 00 00 c0 63 4d ee 3f
       0.5013322830200195 0.9469469785690308
0007c0 00 00 00 a0 09 29 5d 3f 00 00 00 60 cd da df 3f
       0.0017798036569729447 0.497729629278183
0007d0 00 00 00 c0 6e 10 ee 3f 00 00 00 60 d5 dd 71 3f
       0.939505934715271 0.0043619475327432156
0007e0 00 00 00 a0 b5 57 dd 3f 00 00 00 80 75 00 e3 3f
       0.4584783613681793 0.5938060283660889
0007f0 00 00 00 20 c9 7d 6d be 00 00 00 a0 3c 47 de 3f
       -5.493192034577987e-08 0.47309795022010803
