WLASL/extracted_keypoints2/b2k59617MJs_10-5-rgb_front.npy (npy, 30368 bytes, 1 tensors)

array f8 [30, 126]
00000000: 0000 0020 e7f9 dd3f 0000 00c0 7ca0 e23f
00000010: 0000 0020 83d0 79be 0000 0000 cfe0 de3f
00000020: 0000 0000 5206 e23f 0000 0040 c0fd 52bf
00000030: 0000 0020 c679 df3f 0000 0040 4b39 e13f
00000040: 0000 0080 b426 6bbf 0000 00a0 06f1 df3f
00000050: 0000 00a0 78ad e03f 0000 0020 54a9 79bf
00000060: 0000 00e0 723a e03f 0000 0060 2c62 e03f
00000070: 0000 0060 8815 82bf 0000 0060 4ac7 de3f
00000080: 0000 00e0 4734 e03f 0000 0020 d92f 70bf
00000090: 0000 0060 d248 df3f 0000 00a0 6149 df3f
000000a0: 0000 0040 8b06 85bf 0000 0040 cba3 df3f
000000b0: 0000 0080 452b e03f 0000 0000 18d2 8cbf
000000c0: 0000 0000 bccd df3f 0000 0080 e3a3 e03f
000000d0: 0000 0000 3017 90bf 0000 00c0 b34b de3f
000000e0: 0000 0020 c75a e03f 0000 0060 21d8 7cbf
000000f0: 0000 00c0 b0e6 de3f 0000 00a0 10df df3f
00000100: 0000 0040 f027 8dbf 0000 00a0 f768 df3f
00000110: 0000 0000 3770 e03f 0000 0080 8457 92bf
00000120: 0000 00a0 b7a8 df3f 0000 0060 f9e8 e03f
00000130: 0000 0020 a3fb 93bf 0000 00c0 03c9 dd3f
00000140: 0000 00e0 29a7 e03f 0000 00c0 eec6 85bf
00000150: 0000 00a0 0f5d de3f 0000 0000 1441 e03f
00000160: 0000 0060 17d6 91bf 0000 0000 2704 df3f
00000170: 0000 0060 0991 e03f 0000 00c0 b48a 94bf
00000180: 0000 0040 6668 df3f 0000 0020 83e3 e03f
00000190: 0000 00c0 0379 95bf 0000 0080 2c50 dd3f
000001a0: 0000 00e0 0508 e13f 0000 0020 c7f6 8cbf
000001b0: 0000 0000 dd32 dd3f 0000 00e0 1f6d e03f
000001c0: 0000 00e0 41f2 92bf 0000 0080 5b2e dd3f
000001d0: 0000 0080 76f9 df3f 0000 0080 66db 94bf
000001e0: 0000 0080 5626 dd3f 0000 0080 e533 df3f
000001f0: 0000 00e0 aa1e 96bf 0000 0020 a41f e23f
00000200: 0000 0080 2283 e73f 0000 00e0 d1e7 5c3e
00000210: 0000 0020 1df3 e13f 0000 0020 8863 e63f
00000220: 0000 0060 6002 42bf 0000 0080 777e e13f
00000230: 0000 00e0 1ba8 e53f 0000 00a0 aa36 5abf
00000240: 0000 0080 3105 e13f 0000 0040 cf45 e53f
00000250: 0000 00a0 cbcb 5dbf 0000 00a0 70a3 e03f
00000260: 0000 00a0 fe5b e53f 0000 0060 b5f6 61bf
00000270: 0000 0080 aa18 e13f 0000 0060 842e e63f
00000280: 0000 0080 10ce 84bf 0000 00c0 3a55 e03f
00000290: 0000 0000 9ce3 e53f 0000 00c0 ab1b 87bf
000002a0: 0000 00c0 ef07 e03f 0000 0060 fcbf e53f
000002b0: 0000 0000 0a1e 86bf 0000 0000 a9ae df3f
000002c0: 0000 0040 e5a7 e53f 0000 00e0 e5ef 84bf
000002d0: 0000 00e0 3afa e03f 0000 0000 f5f0 e63f
000002e0: 0000 0060 7c9c 84bf 0000 00a0 ba3a e03f
000002f0: 0000 00c0 6092 e63f 0000 0020 5530 83bf
00000300: 0000 0080 4515 e03f 0000 00c0 0956 e63f
00000310: 0000 0000 c55a 7ebf 0000 0080 b61d e03f
00000320: 0000 0000 dc35 e63f 0000 0040 d537 7bbf
00000330: 0000 0040 1af9 e03f 0000 0000 40a3 e73f
00000340: 0000 00e0 0079 82bf 0000 00e0 c15c e03f
00000350: 0000 0040 9c50 e73f 0000 00c0 7a62 7bbf
00000360: 0000 0060 bf62 e03f 0000 0040 aa0d e73f
00000370: 0000 0060 2bc7 6cbf 0000 00a0 f48b e03f
00000380: 0000 0020 7de6 e63f 0000 0020 02e6 63bf
00000390: 0000 00c0 2f0a e13f 0000 0060 da3a e83f
000003a0: 0000 0020 9631 80bf 0000 0080 3298 e03f
000003b0: 0000 00e0 3002 e83f 0000 00c0 0897 74bf
000003c0: 0000 0040 739a e03f 0000 0080 06c2 e73f
000003d0: 0000 0040 61f1 57bf 0000 0060 9dbb e03f
000003e0: 0000 0080 ea9c e73f 0000 00c0 6663 443f
000003f0: 0000 0080 971b de3f 0000 0000 464f e23f
00000400: 0000 00e0 5156 54be 0000 0060 d2f9 de3f
00000410: 0000 0040 4ab0 e13f 0000 0000 af35 3bbf
00000420: 0000 0060 0598 df3f 0000 0080 81d2 e03f
00000430: 0000 00c0 170d 51bf 0000 00c0 6503 e03f
00000440: 0000 0080 373a e03f 0000 00c0 a431 6abf
00000450: 0000 00c0 9732 e03f 0000 00c0 6991 df3f
00000460: 0000 0040 fb60 75bf 0000 00a0 e2ff de3f
00000470: 0000 0020 72f0 df3f 0000 0020 740f 5e3f
00000480: 0000 0060 fd5b df3f 0000 00e0 a28e de3f
00000490: 0000 00c0 f378 73bf 0000 0040 52d8 df3f
000004a0: 0000 0000 ce46 df3f 0000 00a0 9318 83bf
000004b0: 0000 0080 6f11 e03f 0000 0060 9f0c e03f
000004c0: 0000 0080 a9a1 85bf 0000 0040 f98e de3f
000004d0: 0000 0020 6c15 e03f 0000 0000 4c8e 52bf
000004e0: 0000 00c0 0113 df3f 0000 0040 e008 df3f
000004f0: 0000 0040 62e0 80bf 0000 0000 2f9c df3f
00000500: 0000 00c0 4fe7 df3f 0000 00e0 48b3 89bf
00000510: 0000 00e0 addf df3f 0000 0000 e067 e03f
00000520: 0000 0000 6f01 8cbf 0000 0060 fd11 de3f
00000530: 0000 0060 c544 e03f 0000 0020 a94f 74bf
00000540: 0000 0060 569e de3f 0000 0080 f3a3 df3f
00000550: 0000 0000 d856 87bf 0000 00a0 ca35 df3f
00000560: 0000 0060 d720 e03f 0000 0080 b935 8cbf
00000570: 0000 0040 ae94 df3f 0000 0000 477e e03f
00000580: 0000 0020 2a60 8bbf 0000 00e0 0590 dd3f
00000590: 0000 0080 0585 e03f 0000 00e0 c926 82bf
000005a0: 0000 0000 1f9d dd3f 0000 00e0 cb6a df3f
000005b0: 0000 00e0 83d2 87bf 0000 00e0 01f3 dd3f
000005c0: 0000 0000 599b de3f 0000 0040 ed54 88bf
000005d0: 0000 0040 1558 de3f 0000 0080 2832 de3f
000005e0: 0000 0020 5ef0 86bf 0000 0020 6346 e23f
000005f0: 0000 0040 1ea7 e73f 0000 0020 100e 7c3e
00000600: 0000 0040 cc16 e23f 0000 00c0 b67f e63f
00000610: 0000 00c0 c775 5ebf 0000 00a0 fba3 e13f
00000620: 0000 0040 31b7 e53f 0000 0040 1119 6dbf
00000630: 0000 0080 3121 e13f 0000 00a0 1051 e53f
00000640: 0000 00c0 a607 71bf 0000 00c0 d0b7 e03f
00000650: 0000 0060 9353 e53f 0000 0080 ca9f 73bf
00000660: 0000 00a0 fc46 e13f 0000 00c0 5944 e63f
00000670: 0000 0000 320c 87bf 0000 0080 4185 e03f
00000680: 0000 0000 ccee e53f 0000 00c0 39f5 8abf
00000690: 0000 00c0 8722 e03f 0000 0000 afc6 e53f
000006a0: 0000 00c0 4217 8abf 0000 0060 c2bd df3f
000006b0: 0000 0060 daaa e53f 0000 0000 109b 88bf
000006c0: 0000 0040 5424 e13f 0000 00a0 9903 e73f
000006d0: 0000 0020 3f78 86bf 0000 0020 195e e03f
000006e0: 0000 00e0 01a0 e63f 0000 00e0 cb3a 89bf
000006f0: 0000 0020 2320 e03f 0000 00e0 635d e63f
00000700: 0000 00e0 2943 86bf 0000 00c0 f111 e03f
00000710: 0000 00a0 2638 e63f 0000 00c0 0b11 84bf
00000720: 0000 0040 1217 e13f 0000 0000 5ab5 e73f
00000730: 0000 0000 d120 84bf 0000 0060 7369 e03f
00000740: 0000 00c0 e24f e73f 0000 00c0 ba15 84bf
00000750: 0000 00a0 d767 e03f 0000 0080 fff8 e63f
00000760: 0000 00a0 723f 7cbf 0000 0000 ff8e e03f
00000770: 0000 0020 33cf e63f 0000 0040 4f49 75bf
00000780: 0000 0060 4c1b e13f 0000 0080 734b e83f
00000790: 0000 00a0 c6d3 81bf 0000 0060 92a2 e03f
000007a0: 0000 0000 fdf7 e73f 0000 0000 3bc3 80bf
000007b0: 0000 0000 17a6 e03f 0000 0060 8cae e73f
000007c0: 0000 00e0 2145 75bf 0000 0080 6dc7 e03f
000007d0: 0000 0040 e58d e73f 0000 0000 d669 67bf
000007e0: 0000 0060 1052 de3f 0000 00c0 86d2 e13f
000007f0: 0000 0000 833c 723e 0000 00c0 703a df3f
0.46837785840034485 0.5820907354354858 -9.616650942234628e-08 0.482471227645874 0.5632715225219727 -0.0011591317597776651 0.4918074905872345 0.5382438898086548
-0.003314354456961155 0.49908605217933655 0.5211756825447083 -0.006264999974519014 0.5071348547935486 0.5119840502738953 -0.008830132894217968 0.4809137284755707
0.5063819289207458 -0.003951881546527147 0.4888196885585785 0.4888538420200348 -0.010266387835144997 0.4943721890449524 0.5052821636199951 -0.014072597026824951
0.4969320297241211 0.5200059413909912 -0.01571345329284668 0.4733704924583435 0.5110812783241272 -0.007042055483907461 0.4828302264213562 0.49798980355262756
-0.014236332848668098 0.49078169465065 0.5136981010437012 -0.01791197806596756 0.4946726858615875 0.5284392237663269 -0.01951460726559162 0.46539396047592163
0.5204057097434998 -0.01063334010541439 0.47442999482154846 0.5079441070556641 -0.017418256029486656 0.48462843894958496 0.5177046656608582 -0.020060371607542038
0.49074703454971313 0.5277724862098694 -0.020969446748495102 0.45801842212677 0.5322293639183044 -0.014142566360533237 0.45622944831848145 0.5133208632469177
-0.018502263352274895 0.4559544324874878 0.49960100650787354 -0.020368196070194244 0.4554649591445923 0.4875425100326538 -0.02160136215388775 0.5663624405860901
0.734757661819458 2.6920387696804937e-08 0.5609269738197327 0.6996498703956604 -0.0005495997029356658 0.5466878414154053 0.6767711043357849 -0.0015999475726857781
0.531883955001831 0.6647716760635376 -0.0018186081433668733 0.5199511647224426 0.6674798130989075 -0.0021928350906819105 0.5342609882354736 0.6931783556938171
-0.010158661752939224 0.5104039907455444 0.6840343475341797 -0.01128324680030346 0.5009688138961792 0.6796857714653015 -0.010799482464790344 0.49503540992736816
0.6767450571060181 -0.010223194025456905 0.5305456519126892 0.7169137001037598 -0.010064098052680492 0.5071690678596497 0.7053683996200562 -0.009369530715048313
0.5025966167449951 0.6980026960372925 -0.0074107833206653595 0.5036270618438721 0.6940746307373047 -0.006645043380558491 0.5304080247879028 0.738677978515625
-0.009019858203828335 0.5113229155540466 0.7285901308059692 -0.006685714237391949 0.5120541453361511 0.7204180955886841 -0.0035129401367157698 0.5170844197273254
0.7156358361244202 -0.002429012442007661 0.5324934720993042 0.7571842074394226 -0.007907078601419926 0.5185787677764893 0.7502674460411072 -0.005026849918067455
0.5188537836074829 0.7424347400665283 -0.001461358042433858 0.5229021906852722 0.7379047870635986 0.0006222011288627982 0.4704340696334839 0.5721769332885742
-1.8940481183449265e-08 0.4839979112148285 0.5527697801589966 -0.00041518709622323513 0.49365362524986267 0.5256965160369873 -0.0010407192166894674 0.5004147291183472
0.5071065425872803 -0.003197500016540289 0.5061758756637573 0.49325031042099 -0.0052194418385624886 0.4843679964542389 0.49905064702033997 0.0018347391160205007
0.48998960852622986 0.47745582461357117 -0.004754020832479 0.4975782036781311 0.4886965751647949 -0.009324220009148121 0.5021283626556396 0.5015408396720886
-0.010562252253293991 0.47747641801834106 0.5026150345802307 -0.0011325590312480927 0.4855350852012634 0.4849167466163635 -0.008240478113293648 0.4939076900482178
0.49849313497543335 -0.012548989616334438 0.4980272948741913 0.5126800537109375 -0.013674609363079071 0.46984800696372986 0.5083948969841003 -0.004958782810717821
0.4784141480922699 0.49438178539276123 -0.01139611005783081 0.48765817284584045 0.504008948802948 -0.013774346560239792 0.49344974756240845 0.5154147148132324
-0.013367013074457645 0.4619154632091522 0.5162379741668701 -0.008863045834004879 0.46271491050720215 0.49089333415031433 -0.011631994508206844 0.4679569900035858
0.47823166847229004 -0.01188073493540287 0.4741261601448059 0.4718114137649536 -0.011200652457773685 0.5710921883583069 0.7391501665115356 1.0451277177025986e-07
0.565282940864563 0.7030900716781616 -0.0018591356929391623 0.5512674450874329 0.6786123514175415 -0.0035519921220839024 0.535301923751831 0.6661456227302551
-0.004157687537372112 0.5224384069442749 0.6664521098136902 -0.004791060462594032 0.5399153828620911 0.6958435773849487 -0.011253729462623596 0.5162665843963623
0.6854000091552734 -0.013163043186068535 0.5042151212692261 0.6805033683776855 -0.012739678844809532 0.49595698714256287 0.6771060824394226 -0.012014508247375488
0.5356847047805786 0.719189465045929 -0.01097153965383768 0.5114865899085999 0.7070321440696716 -0.012319176457822323 0.5039229989051819 0.6989001631736755
-0.010870291851460934 0.5021904706954956 0.6943543553352356 -0.009798137471079826 0.5340663194656372 0.7408876419067383 -0.009828217327594757 0.5128723978996277
0.7285016775131226 -0.009807070717215538 0.5126760601997375 0.7178952693939209 -0.006896445993334055 0.5174555778503418 0.7127929329872131 -0.005196866579353809
0.5345823168754578 0.7592103481292725 -0.008704711683094501 0.519845187664032 0.7490220069885254 -0.008184872567653656 0.5202746391296387 0.7400571703910828
-0.005192882847040892 0.5243442058563232 0.7360712289810181 -0.0028580836951732635 0.4737587869167328 0.5569490194320679 6.793578677388723e-08 0.4879419207572937
