WLASL/extracted_keypoints2/D_w6T4nO-KA_0-8-rgb_front.npy (npy, 30368 bytes, 1 tensors)

array f8 [30, 126]
000000 00 00 00 80 14 b2 db 3f 00 00 00 60 30 c0 e4 3f
       0.4327441453933716 0.6484605669975281
000010 00 00 00 40 98 99 4b 3e 00 00 00 a0 77 69 dc 3f
       1.285224193736667e-08 0.443937212228775
000020 00 00 00 80 12 86 e4 3f 00 00 00 60 96 b8 7c bf
       0.6413662433624268 -0.007011973764747381
000030 00 00 00 80 6f 24 dd 3f 00 00 00 80 94 ff e3 3f
       0.4553488492965698 0.6249487400054932
000040 00 00 00 00 63 e2 8b bf 00 00 00 a0 6a 67 dd 3f
       -0.01361539214849472 0.4594370424747467
000050 00 00 00 00 3e c1 e3 3f 00 00 00 40 34 1a 95 bf
       0.6173391342163086 -0.02060777321457863
000060 00 00 00 60 28 31 dd 3f 00 00 00 e0 04 92 e3 3f
       0.4561253488063812 0.6115745902061462
000070 00 00 00 a0 27 eb 9b bf 00 00 00 00 d0 5a dc 3f
       -0.02726423181593418 0.4430427551269531
000080 00 00 00 80 03 00 e2 3f 00 00 00 00 f9 a0 85 bf
       0.5625016689300537 -0.010560937225818634
000090 00 00 00 40 94 eb db 3f 00 00 00 20 77 a4 e0 3f
       0.4362536072731018 0.520076334476471
0000a0 00 00 00 60 c4 ca 95 bf 00 00 00 c0 16 52 dc 3f
       -0.021281307563185692 0.44251030683517456
0000b0 00 00 00 80 c2 c1 e0 3f 00 00 00 c0 07 e7 9c bf
       0.5236523151397705 -0.028225060552358627
0000c0 00 00 00 40 f8 8d dc 3f 00 00 00 60 20 52 e1 3f
       0.44616514444351196 0.5412752032279968
0000d0 00 00 00 c0 3d a4 9f bf 00 00 00 60 1f 93 db 3f
       -0.03089996799826622 0.4308546483516693
0000e0 00 00 00 40 08 25 e2 3f 00 00 00 60 8c dd 89 bf
       0.5670205354690552 -0.012629601173102856
0000f0 00 00 00 20 df 07 db 3f 00 00 00 a0 75 a1 e0 3f
       0.42235544323921204 0.5197094082832336
000100 00 00 00 a0 da 1e 95 bf 00 00 00 20 63 91 db 3f
       -0.020625511184334755 0.43074873089790344
000110 00 00 00 80 4a f3 e0 3f 00 00 00 c0 25 e5 98 bf
       0.5296986103057861 -0.024311628192663193
000120 00 00 00 c0 7d e5 db 3f 00 00 00 20 d0 91 e1 3f
       0.435882031917572 0.549049437046051
000130 00 00 00 c0 36 1e 9a bf 00 00 00 60 d8 e0 da 3f
       -0.025505881756544113 0.4199734628200531
000140 00 00 00 a0 85 90 e2 3f 00 00 00 60 7c 12 90 bf
       0.5801418423652649 -0.015695517882704735
000150 00 00 00 e0 bb 7a da 3f 00 00 00 c0 7d 4c e1 3f
       0.4137410819530487 0.540587306022644
000160 00 00 00 00 73 f7 96 bf 00 00 00 20 cc 08 db 3f
       -0.022428318858146667 0.4224119484424591
000170 00 00 00 a0 3d ac e1 3f 00 00 00 c0 18 db 96 bf
       0.5522754788398743 -0.022320162504911423
000180 00 00 00 20 54 62 db 3f 00 00 00 a0 da 32 e2 3f
       0.4278765022754669 0.5687077641487122
000190 00 00 00 80 42 7c 95 bf 00 00 00 60 75 38 da 3f
       -0.02098182588815689 0.40969595313072205
0001a0 00 00 00 e0 cf 35 e3 3f 00 00 00 e0 65 fe 93 bf
       0.6003188490867615 -0.019525138661265373
0001b0 00 00 00 80 f3 cb d9 3f 00 00 00 00 50 8c e2 3f
       0.40307319164276123 0.5796279907226562
0001c0 00 00 00 a0 99 7d 99 bf 00 00 00 60 65 44 da 3f
       -0.02489318884909153 0.4104245603084564
0001d0 00 00 00 00 d5 b1 e2 3f 00 00 00 00 7a b0 98 bf
       0.5842080116271973 -0.02411070466041565
0001e0 00 00 00 20 49 a2 da 3f 00 00 00 a0 35 fb e2 3f
       0.4161551296710968 0.5931652188301086
0001f0 00 00 00 00 bd e5 96 bf 00 00 00 00 00 00 00 00
       -0.022360756993293762 0.0
000200 00 00 00 00 00 00 00 00 00 00 00 00 00 00 00 00
       0.0 0.0
000210 00 00 00 00 00 00 00 00 00 00 00 00 00 00 00 00
       0.0 0.0
000220 00 00 00 00 00 00 00 00 00 00 00 00 00 00 00 00
       0.0 0.0
000230 00 00 00 00 00 00 00 00 00 00 00 00 00 00 00 00
       0.0 0.0
000240 00 00 00 00 00 00 00 00 00 00 00 00 00 00 00 00
       0.0 0.0
000250 00 00 00 00 00 00 00 00 00 00 00 00 00 00 00 00
       0.0 0.0
000260 00 00 00 00 00 00 00 00 00 00 00 00 00 00 00 00
       0.0 0.0
000270 00 00 00 00 00 00 00 00 00 00 00 00 00 00 00 00
       0.0 0.0
000280 00 00 00 00 00 00 00 00 00 00 00 00 00 00 00 00
       0.0 0.0
000290 00 00 00 00 00 00 00 00 00 00 00 00 00 00 00 00
       0.0 0.0
0002a0 00 00 00 00 00 00 00 00 00 00 00 00 00 00 00 00
       0.0 0.0
0002b0 00 00 00 00 00 00 00 00 00 00 00 00 00 00 00 00
       0.0 0.0
0002c0 00 00 00 00 00 00 00 00 00 00 00 00 00 00 00 00
       0.0 0.0
0002d0 00 00 00 00 00 00 00 00 00 00 00 00 00 00 00 00
       0.0 0.0
0002e0 00 00 00 00 00 00 00 00 00 00 00 00 00 00 00 00
       0.0 0.0
0002f0 00 00 00 00 00 00 00 00 00 00 00 00 00 00 00 00
       0.0 0.0
000300 00 00 00 00 00 00 00 00 00 00 00 00 00 00 00 00
       0.0 0.0
000310 00 00 00 00 00 00 00 00 00 00 00 00 00 00 00 00
       0.0 0.0
000320 00 00 00 00 00 00 00 00 00 00 00 00 00 00 00 00
       0.0 0.0
000330 00 00 00 00 00 00 00 00 00 00 00 00 00 00 00 00
       0.0 0.0
000340 00 00 00 00 00 00 00 00 00 00 00 00 00 00 00 00
       0.0 0.0
000350 00 00 00 00 00 00 00 00 00 00 00 00 00 00 00 00
       0.0 0.0
000360 00 00 00 00 00 00 00 00 00 00 00 00 00 00 00 00
       0.0 0.0
000370 00 00 00 00 00 00 00 00 00 00 00 00 00 00 00 00
       0.0 0.0
000380 00 00 00 00 00 00 00 00 00 00 00 00 00 00 00 00
       0.0 0.0
000390 00 00 00 00 00 00 00 00 00 00 00 00 00 00 00 00
       0.0 0.0
0003a0 00 00 00 00 00 00 00 00 00 00 00 00 00 00 00 00
       0.0 0.0
0003b0 00 00 00 00 00 00 00 00 00 00 00 00 00 00 00 00
       0.0 0.0
0003c0 00 00 00 00 00 00 00 00 00 00 00 00 00 00 00 00
       0.0 0.0
0003d0 00 00 00 00 00 00 00 00 00 00 00 00 00 00 00 00
       0.0 0.0
0003e0 00 00 00 00 00 00 00 00 00 00 00 00 00 00 00 00
       0.0 0.0
0003f0 00 00 00 c0 26 66 db 3f 00 00 00 00 ea ea e4 3f
       0.4281098246574402 0.6536760330200195
000400 00 00 00 40 39 66 7b be 00 00 00 00 a6 52 dc 3f
       -1.0207038769749488e-07 0.44254446029663086
000410 00 00 00 20 6c 6f e4 3f 00 00 00 c0 6b 82 6f bf
       0.6386013627052307 -0.003846369218081236
000420 00 00 00 20 40 fc dc 3f 00 00 00 60 cb 88 e3 3f
       0.4528961479663849 0.6104485392570496
000430 00 00 00 00 ef 9d 7e bf 00 00 00 60 2c df dc 3f
       -0.007474835962057114 0.45112141966819763
000440 00 00 00 a0 80 c8 e2 3f 00 00 00 00 12 f9 87 bf
       0.5869753956794739 -0.011705532670021057
000450 00 00 00 a0 6f 0d dc 3f 00 00 00 c0 ba 99 e2 3f
       0.4383200705051422 0.5812658071517944
000460 00 00 00 40 22 a7 8e bf 00 00 00 60 0e 2a dc 3f
       -0.014967219904065132 0.4400669038295746
000470 00 00 00 e0 b5 da e1 3f 00 00 00 60 7a bf 74 bf
       0.5579480528831482 -0.005065420176833868
000480 00 00 00 a0 ac 03 dc 3f 00 00 00 60 d9 93 e0 3f
       0.4377242624759674 0.5180479884147644
000490 00 00 00 a0 d3 37 8c bf 00 00 00 80 fd 52 dc 3f
       -0.013778355903923512 0.44256532192230225
0004a0 00 00 00 00 3a 4b e1 3f 00 00 00 40 78 68 93 bf
       0.5404329299926758 -0.01895320788025856
0004b0 00 00 00 20 69 50 dc 3f 00 00 00 a0 f0 de e1 3f
       0.44240787625312805 0.5584643483161926
0004c0 00 00 00 e0 24 a1 95 bf 00 00 00 e0 21 76 db 3f
       -0.021122528240084648 0.42908522486686707
0004d0 00 00 00 20 85 03 e2 3f 00 00 00 e0 65 49 7f bf
       0.5629296898841858 -0.007638357114046812
0004e0 00 00 00 c0 d0 29 db 3f 00 00 00 a0 14 a0 e0 3f
       0.42442721128463745 0.5195410847663879
0004f0 00 00 00 a0 c5 e7 8d bf 00 00 00 40 10 a9 db 3f
       -0.014602226205170155 0.4321938157081604
000500 00 00 00 c0 5d 7f e1 3f 00 00 00 a0 1c 0b 91 bf
       0.5467976331710815 -0.01664395071566105
000510 00 00 00 40 2a c0 db 3f 00 00 00 00 b3 1b e2 3f
       0.43360382318496704 0.5658812522888184
000520 00 00 00 80 28 1d 91 bf 00 00 00 a0 94 cf da 3f
       -0.016712792217731476 0.41891971230506897
000530 00 00 00 60 50 61 e2 3f 00 00 00 e0 8a 6d 86 bf
       0.5743791460990906 -0.01095112320035696
000540 00 00 00 c0 8b 7d da 3f 00 00 00 60 98 28 e1 3f
       0.41391271352767944 0.5362054705619812
000550 00 00 00 a0 cc bd 91 bf 00 00 00 40 03 1b db 3f
       -0.017325589433312416 0.4235237240791321
000560 00 00 00 a0 ce ec e1 3f 00 00 00 60 99 1f 8e bf
       0.5601571202278137 -0.01470870804041624
000570 00 00 00 c0 a3 49 db 3f 00 00 00 c0 45 84 e2 3f
       0.4263696074485779 0.5786465406417847
000580 00 00 00 80 0b 7d 87 bf 00 00 00 60 cb 2d da 3f
       -0.011468973010778427 0.4090450704097748
000590 00 00 00 c0 a3 eb e2 3f 00 00 00 c0 d0 02 8e bf
       0.5912646055221558 -0.014653807505965233
0005a0 00 00 00 a0 f5 11 da 3f 00 00 00 00 b5 0b e2 3f
       0.4073461592197418 0.5639290809631348
0005b0 00 00 00 60 04 61 93 bf 00 00 00 a0 68 ab da 3f
       -0.018924778327345848 0.4167119562625885
0005c0 00 00 00 40 34 79 e2 3f 00 00 00 60 7a 43 90 bf
       0.5772954225540161 -0.015882408246397972
0005d0 00 00 00 60 67 ee da 3f 00 00 00 40 5e ef e2 3f
       0.4208010137081146 0.5917197465896606
0005e0 00 00 00 c0 96 b7 89 bf 00 00 00 00 00 00 00 00
       -0.012557199224829674 0.0
0005f0 00 00 00 00 00 00 00 00 00 00 00 00 00 00 00 00
       0.0 0.0
000600 00 00 00 00 00 00 00 00 00 00 00 00 00 00 00 00
       0.0 0.0
000610 00 00 00 00 00 00 00 00 00 00 00 00 00 00 00 00
       0.0 0.0
000620 00 00 00 00 00 00 00 00 00 00 00 00 00 00 00 00
       0.0 0.0
000630 00 00 00 00 00 00 00 00 00 00 00 00 00 00 00 00
       0.0 0.0
000640 00 00 00 00 00 00 00 00 00 00 00 00 00 00 00 00
       0.0 0.0
000650 00 00 00 00 00 00 00 00 00 00 00 00 00 00 00 00
       0.0 0.0
000660 00 00 00 00 00 00 00 00 00 00 00 00 00 00 00 00
       0.0 0.0
000670 00 00 00 00 00 00 00 00 00 00 00 00 00 00 00 00
       0.0 0.0
000680 00 00 00 00 00 00 00 00 00 00 00 00 00 00 00 00
       0.0 0.0
000690 00 00 00 00 00 00 00 00 00 00 00 00 00 00 00 00
       0.0 0.0
0006a0 00 00 00 00 00 00 00 00 00 00 00 00 00 00 00 00
       0.0 0.0
0006b0 00 00 00 00 00 00 00 00 00 00 00 00 00 00 00 00
       0.0 0.0
0006c0 00 00 00 00 00 00 00 00 00 00 00 00 00 00 00 00
       0.0 0.0
0006d0 00 00 00 00 00 00 00 00 00 00 00 00 00 00 00 00
       0.0 0.0
0006e0 00 00 00 00 00 00 00 00 00 00 00 00 00 00 00 00
       0.0 0.0
0006f0 00 00 00 00 00 00 00 00 00 00 00 00 00 00 00 00
       0.0 0.0
000700 00 00 00 00 00 00 00 00 00 00 00 00 00 00 00 00
       0.0 0.0
000710 00 00 00 00 00 00 00 00 00 00 00 00 00 00 00 00
       0.0 0.0
000720 00 00 00 00 00 00 00 00 00 00 00 00 00 00 00 00
       0.0 0.0
000730 00 00 00 00 00 00 00 00 00 00 00 00 00 00 00 00
       0.0 0.0
000740 00 00 00 00 00 00 00 00 00 00 00 00 00 00 00 00
       0.0 0.0
000750 00 00 00 00 00 00 00 00 00 00 00 00 00 00 00 00
       0.0 0.0
000760 00 00 00 00 00 00 00 00 00 00 00 00 00 00 00 00
       0.0 0.0
000770 00 00 00 00 00 00 00 00 00 00 00 00 00 00 00 00
       0.0 0.0
000780 00 00 00 00 00 00 00 00 00 00 00 00 00 00 00 00
       0.0 0.0
000790 00 00 00 00 00 00 00 00 00 00 00 00 00 00 00 00
       0.0 0.0
0007a0 00 00 00 00 00 00 00 00 00 00 00 00 00 00 00 00
       0.0 0.0
0007b0 00 00 00 00 00 00 00 00 00 00 00 00 00 00 00 00
       0.0 0.0
0007c0 00 00 00 00 00 00 00 00 00 00 00 00 00 00 00 00
       0.0 0.0
0007d0 00 00 00 00 00 00 00 00 00 00 00 00 00 00 00 00
       0.0 0.0
0007e0 00 00 00 c0 5f 29 db 3f 00 00 00 00 62 24 e5 3f
       0.424400269985199 0.6606912612915039
0007f0 00 00 00 80 64 d2 7d be 00 00 00 60 ec 2a dc 3f
       -1.1109503361694806e-07 0.44011983275413513
